Mainnet(
  (lnet): Lnet(
    (conv1): Sequential(
      (0): Conv2d(34, 34, kernel_size=(3, 3), stride=(1, 1), padding=(1, 1), padding_mode=reflect)
      (1): LeakyReLU(negative_slope=0.01, inplace=True)
    )
    (conv2): Sequential(
      (0): Conv2d(66, 34, kernel_size=(1, 1), stride=(1, 1))
    )
  )
  (rnet): Rnet(
    (relu): ReLU(inplace=True)
    (resm1): Sequential(
      (0): Conv2d(35, 35, kernel_size=(3, 3), stride=(1, 1), padding=(1, 1), padding_mode=reflect)
      (1): ReLU(inplace=True)
      (2): ReflectionPad2d((1, 1, 1, 1))
      (3): Conv2d(35, 35, kernel_size=(3, 3), stride=(1, 1))
    )
    (resm2): Sequential(
      (0): Conv2d(35, 35, kernel_size=(3, 3), stride=(1, 1), padding=(1, 1), padding_mode=reflect)
      (1): ReLU(inplace=True)
      (2): ReflectionPad2d((1, 1, 1, 1))
      (3): Conv2d(35, 35, kernel_size=(3, 3), stride=(1, 1))
    )
    (resm3): Sequential(
      (0): Conv2d(35, 35, kernel_size=(3, 3), stride=(1, 1), padding=(1, 1), padding_mode=reflect)
      (1): ReLU(inplace=True)
      (2): ReflectionPad2d((1, 1, 1, 1))
      (3): Conv2d(35, 35, kernel_size=(3, 3), stride=(1, 1))
    )
    (resm4): Sequential(
      (0): Conv2d(35, 35, kernel_size=(3, 3), stride=(1, 1), padding=(1, 1), padding_mode=reflect)
      (1): ReLU(inplace=True)
      (2): ReflectionPad2d((1, 1, 1, 1))
      (3): Conv2d(35, 35, kernel_size=(3, 3), stride=(1, 1))
    )
  )
  (l_stage): Sequential(
    (0): Lnet(
      (conv1): Sequential(
        (0): Conv2d(34, 34, kernel_size=(3, 3), stride=(1, 1), padding=(1, 1), padding_mode=reflect)
        (1): LeakyReLU(negative_slope=0.01, inplace=True)
      )
      (conv2): Sequential(
        (0): Conv2d(66, 34, kernel_size=(1, 1), stride=(1, 1))
      )
    )
    (1): Lnet(
      (conv1): Sequential(
        (0): Conv2d(34, 34, kernel_size=(3, 3), stride=(1, 1), padding=(1, 1), padding_mode=reflect)
        (1): LeakyReLU(negative_slope=0.01, inplace=True)
      )
      (conv2): Sequential(
        (0): Conv2d(66, 34, kernel_size=(1, 1), stride=(1, 1))
      )
    )
    (2): Lnet(
      (conv1): Sequential(
        (0): Conv2d(34, 34, kernel_size=(3, 3), stride=(1, 1), padding=(1, 1), padding_mode=reflect)
        (1): LeakyReLU(negative_slope=0.01, inplace=True)
      )
      (conv2): Sequential(
        (0): Conv2d(66, 34, kernel_size=(1, 1), stride=(1, 1))
      )
    )
    (3): Lnet(
      (conv1): Sequential(
        (0): Conv2d(34, 34, kernel_size=(3, 3), stride=(1, 1), padding=(1, 1), padding_mode=reflect)
        (1): LeakyReLU(negative_slope=0.01, inplace=True)
      )
      (conv2): Sequential(
        (0): Conv2d(66, 34, kernel_size=(1, 1), stride=(1, 1))
      )
    )
    (4): Lnet(
      (conv1): Sequential(
        (0): Conv2d(34, 34, kernel_size=(3, 3), stride=(1, 1), padding=(1, 1), padding_mode=reflect)
        (1): LeakyReLU(negative_slope=0.01, inplace=True)
      )
      (conv2): Sequential(
        (0): Conv2d(66, 34, kernel_size=(1, 1), stride=(1, 1))
      )
    )
    (5): Lnet(
      (conv1): Sequential(
        (0): Conv2d(34, 34, kernel_size=(3, 3), stride=(1, 1), padding=(1, 1), padding_mode=reflect)
        (1): LeakyReLU(negative_slope=0.01, inplace=True)
      )
      (conv2): Sequential(
        (0): Conv2d(66, 34, kernel_size=(1, 1), stride=(1, 1))
      )
    )
    (6): Lnet(
      (conv1): Sequential(
        (0): Conv2d(34, 34, kernel_size=(3, 3), stride=(1, 1), padding=(1, 1), padding_mode=reflect)
        (1): LeakyReLU(negative_slope=0.01, inplace=True)
      )
      (conv2): Sequential(
        (0): Conv2d(66, 34, kernel_size=(1, 1), stride=(1, 1))
      )
    )
    (7): Lnet(
      (conv1): Sequential(
        (0): Conv2d(34, 34, kernel_size=(3, 3), stride=(1, 1), padding=(1, 1), padding_mode=reflect)
        (1): LeakyReLU(negative_slope=0.01, inplace=True)
      )
      (conv2): Sequential(
        (0): Conv2d(66, 34, kernel_size=(1, 1), stride=(1, 1))
      )
    )
    (8): Lnet(
      (conv1): Sequential(
        (0): Conv2d(34, 34, kernel_size=(3, 3), stride=(1, 1), padding=(1, 1), padding_mode=reflect)
        (1): LeakyReLU(negative_slope=0.01, inplace=True)
      )
      (conv2): Sequential(
        (0): Conv2d(66, 34, kernel_size=(1, 1), stride=(1, 1))
      )
    )
    (9): Lnet(
      (conv1): Sequential(
        (0): Conv2d(34, 34, kernel_size=(3, 3), stride=(1, 1), padding=(1, 1), padding_mode=reflect)
        (1): LeakyReLU(negative_slope=0.01, inplace=True)
      )
      (conv2): Sequential(
        (0): Conv2d(66, 34, kernel_size=(1, 1), stride=(1, 1))
      )
    )
    (10): Lnet(
      (conv1): Sequential(
        (0): Conv2d(34, 34, kernel_size=(3, 3), stride=(1, 1), padding=(1, 1), padding_mode=reflect)
        (1): LeakyReLU(negative_slope=0.01, inplace=True)
      )
      (conv2): Sequential(
        (0): Conv2d(66, 34, kernel_size=(1, 1), stride=(1, 1))
      )
    )
    (11): Lnet(
      (conv1): Sequential(
        (0): Conv2d(34, 34, kernel_size=(3, 3), stride=(1, 1), padding=(1, 1), padding_mode=reflect)
        (1): LeakyReLU(negative_slope=0.01, inplace=True)
      )
      (conv2): Sequential(
        (0): Conv2d(66, 34, kernel_size=(1, 1), stride=(1, 1))
      )
    )
    (12): Lnet(
      (conv1): Sequential(
        (0): Conv2d(34, 34, kernel_size=(3, 3), stride=(1, 1), padding=(1, 1), padding_mode=reflect)
        (1): LeakyReLU(negative_slope=0.01, inplace=True)
      )
      (conv2): Sequential(
        (0): Conv2d(66, 34, kernel_size=(1, 1), stride=(1, 1))
      )
    )
  )
  (r_stage): Sequential(
    (0): Rnet(
      (relu): ReLU(inplace=True)
      (resm1): Sequential(
        (0): Conv2d(35, 35, kernel_size=(3, 3), stride=(1, 1), padding=(1, 1), padding_mode=reflect)
        (1): ReLU(inplace=True)
        (2): ReflectionPad2d((1, 1, 1, 1))
        (3): Conv2d(35, 35, kernel_size=(3, 3), stride=(1, 1))
      )
      (resm2): Sequential(
        (0): Conv2d(35, 35, kernel_size=(3, 3), stride=(1, 1), padding=(1, 1), padding_mode=reflect)
        (1): ReLU(inplace=True)
        (2): ReflectionPad2d((1, 1, 1, 1))
        (3): Conv2d(35, 35, kernel_size=(3, 3), stride=(1, 1))
      )
      (resm3): Sequential(
        (0): Conv2d(35, 35, kernel_size=(3, 3), stride=(1, 1), padding=(1, 1), padding_mode=reflect)
        (1): ReLU(inplace=True)
        (2): ReflectionPad2d((1, 1, 1, 1))
        (3): Conv2d(35, 35, kernel_size=(3, 3), stride=(1, 1))
      )
      (resm4): Sequential(
        (0): Conv2d(35, 35, kernel_size=(3, 3), stride=(1, 1), padding=(1, 1), padding_mode=reflect)
        (1): ReLU(inplace=True)
        (2): ReflectionPad2d((1, 1, 1, 1))
        (3): Conv2d(35, 35, kernel_size=(3, 3), stride=(1, 1))
      )
    )
    (1): Rnet(
      (relu): ReLU(inplace=True)
      (resm1): Sequential(
        (0): Conv2d(35, 35, kernel_size=(3, 3), stride=(1, 1), padding=(1, 1), padding_mode=reflect)
        (1): ReLU(inplace=True)
        (2): ReflectionPad2d((1, 1, 1, 1))
        (3): Conv2d(35, 35, kernel_size=(3, 3), stride=(1, 1))
      )
      (resm2): Sequential(
        (0): Conv2d(35, 35, kernel_size=(3, 3), stride=(1, 1), padding=(1, 1), padding_mode=reflect)
        (1): ReLU(inplace=True)
        (2): ReflectionPad2d((1, 1, 1, 1))
        (3): Conv2d(35, 35, kernel_size=(3, 3), stride=(1, 1))
      )
      (resm3): Sequential(
        (0): Conv2d(35, 35, kernel_size=(3, 3), stride=(1, 1), padding=(1, 1), padding_mode=reflect)
        (1): ReLU(inplace=True)
        (2): ReflectionPad2d((1, 1, 1, 1))
        (3): Conv2d(35, 35, kernel_size=(3, 3), stride=(1, 1))
      )
      (resm4): Sequential(
        (0): Conv2d(35, 35, kernel_size=(3, 3), stride=(1, 1), padding=(1, 1), padding_mode=reflect)
        (1): ReLU(inplace=True)
        (2): ReflectionPad2d((1, 1, 1, 1))
        (3): Conv2d(35, 35, kernel_size=(3, 3), stride=(1, 1))
      )
    )
    (2): Rnet(
      (relu): ReLU(inplace=True)
      (resm1): Sequential(
        (0): Conv2d(35, 35, kernel_size=(3, 3), stride=(1, 1), padding=(1, 1), padding_mode=reflect)
        (1): ReLU(inplace=True)
        (2): ReflectionPad2d((1, 1, 1, 1))
        (3): Conv2d(35, 35, kernel_size=(3, 3), stride=(1, 1))
      )
      (resm2): Sequential(
        (0): Conv2d(35, 35, kernel_size=(3, 3), stride=(1, 1), padding=(1, 1), padding_mode=reflect)
        (1): ReLU(inplace=True)
        (2): ReflectionPad2d((1, 1, 1, 1))
        (3): Conv2d(35, 35, kernel_size=(3, 3), stride=(1, 1))
      )
      (resm3): Sequential(
        (0): Conv2d(35, 35, kernel_size=(3, 3), stride=(1, 1), padding=(1, 1), padding_mode=reflect)
        (1): ReLU(inplace=True)
        (2): ReflectionPad2d((1, 1, 1, 1))
        (3): Conv2d(35, 35, kernel_size=(3, 3), stride=(1, 1))
      )
      (resm4): Sequential(
        (0): Conv2d(35, 35, kernel_size=(3, 3), stride=(1, 1), padding=(1, 1), padding_mode=reflect)
        (1): ReLU(inplace=True)
        (2): ReflectionPad2d((1, 1, 1, 1))
        (3): Conv2d(35, 35, kernel_size=(3, 3), stride=(1, 1))
      )
    )
    (3): Rnet(
      (relu): ReLU(inplace=True)
      (resm1): Sequential(
        (0): Conv2d(35, 35, kernel_size=(3, 3), stride=(1, 1), padding=(1, 1), padding_mode=reflect)
        (1): ReLU(inplace=True)
        (2): ReflectionPad2d((1, 1, 1, 1))
        (3): Conv2d(35, 35, kernel_size=(3, 3), stride=(1, 1))
      )
      (resm2): Sequential(
        (0): Conv2d(35, 35, kernel_size=(3, 3), stride=(1, 1), padding=(1, 1), padding_mode=reflect)
        (1): ReLU(inplace=True)
        (2): ReflectionPad2d((1, 1, 1, 1))
        (3): Conv2d(35, 35, kernel_size=(3, 3), stride=(1, 1))
      )
      (resm3): Sequential(
        (0): Conv2d(35, 35, kernel_size=(3, 3), stride=(1, 1), padding=(1, 1), padding_mode=reflect)
        (1): ReLU(inplace=True)
        (2): ReflectionPad2d((1, 1, 1, 1))
        (3): Conv2d(35, 35, kernel_size=(3, 3), stride=(1, 1))
      )
      (resm4): Sequential(
        (0): Conv2d(35, 35, kernel_size=(3, 3), stride=(1, 1), padding=(1, 1), padding_mode=reflect)
        (1): ReLU(inplace=True)
        (2): ReflectionPad2d((1, 1, 1, 1))
        (3): Conv2d(35, 35, kernel_size=(3, 3), stride=(1, 1))
      )
    )
    (4): Rnet(
      (relu): ReLU(inplace=True)
      (resm1): Sequential(
        (0): Conv2d(35, 35, kernel_size=(3, 3), stride=(1, 1), padding=(1, 1), padding_mode=reflect)
        (1): ReLU(inplace=True)
        (2): ReflectionPad2d((1, 1, 1, 1))
        (3): Conv2d(35, 35, kernel_size=(3, 3), stride=(1, 1))
      )
      (resm2): Sequential(
        (0): Conv2d(35, 35, kernel_size=(3, 3), stride=(1, 1), padding=(1, 1), padding_mode=reflect)
        (1): ReLU(inplace=True)
        (2): ReflectionPad2d((1, 1, 1, 1))
        (3): Conv2d(35, 35, kernel_size=(3, 3), stride=(1, 1))
      )
      (resm3): Sequential(
        (0): Conv2d(35, 35, kernel_size=(3, 3), stride=(1, 1), padding=(1, 1), padding_mode=reflect)
        (1): ReLU(inplace=True)
        (2): ReflectionPad2d((1, 1, 1, 1))
        (3): Conv2d(35, 35, kernel_size=(3, 3), stride=(1, 1))
      )
      (resm4): Sequential(
        (0): Conv2d(35, 35, kernel_size=(3, 3), stride=(1, 1), padding=(1, 1), padding_mode=reflect)
        (1): ReLU(inplace=True)
        (2): ReflectionPad2d((1, 1, 1, 1))
        (3): Conv2d(35, 35, kernel_size=(3, 3), stride=(1, 1))
      )
    )
    (5): Rnet(
      (relu): ReLU(inplace=True)
      (resm1): Sequential(
        (0): Conv2d(35, 35, kernel_size=(3, 3), stride=(1, 1), padding=(1, 1), padding_mode=reflect)
        (1): ReLU(inplace=True)
        (2): ReflectionPad2d((1, 1, 1, 1))
        (3): Conv2d(35, 35, kernel_size=(3, 3), stride=(1, 1))
      )
      (resm2): Sequential(
        (0): Conv2d(35, 35, kernel_size=(3, 3), stride=(1, 1), padding=(1, 1), padding_mode=reflect)
        (1): ReLU(inplace=True)
        (2): ReflectionPad2d((1, 1, 1, 1))
        (3): Conv2d(35, 35, kernel_size=(3, 3), stride=(1, 1))
      )
      (resm3): Sequential(
        (0): Conv2d(35, 35, kernel_size=(3, 3), stride=(1, 1), padding=(1, 1), padding_mode=reflect)
        (1): ReLU(inplace=True)
        (2): ReflectionPad2d((1, 1, 1, 1))
        (3): Conv2d(35, 35, kernel_size=(3, 3), stride=(1, 1))
      )
      (resm4): Sequential(
        (0): Conv2d(35, 35, kernel_size=(3, 3), stride=(1, 1), padding=(1, 1), padding_mode=reflect)
        (1): ReLU(inplace=True)
        (2): ReflectionPad2d((1, 1, 1, 1))
        (3): Conv2d(35, 35, kernel_size=(3, 3), stride=(1, 1))
      )
    )
    (6): Rnet(
      (relu): ReLU(inplace=True)
      (resm1): Sequential(
        (0): Conv2d(35, 35, kernel_size=(3, 3), stride=(1, 1), padding=(1, 1), padding_mode=reflect)
        (1): ReLU(inplace=True)
        (2): ReflectionPad2d((1, 1, 1, 1))
        (3): Conv2d(35, 35, kernel_size=(3, 3), stride=(1, 1))
      )
      (resm2): Sequential(
        (0): Conv2d(35, 35, kernel_size=(3, 3), stride=(1, 1), padding=(1, 1), padding_mode=reflect)
        (1): ReLU(inplace=True)
        (2): ReflectionPad2d((1, 1, 1, 1))
        (3): Conv2d(35, 35, kernel_size=(3, 3), stride=(1, 1))
      )
      (resm3): Sequential(
        (0): Conv2d(35, 35, kernel_size=(3, 3), stride=(1, 1), padding=(1, 1), padding_mode=reflect)
        (1): ReLU(inplace=True)
        (2): ReflectionPad2d((1, 1, 1, 1))
        (3): Conv2d(35, 35, kernel_size=(3, 3), stride=(1, 1))
      )
      (resm4): Sequential(
        (0): Conv2d(35, 35, kernel_size=(3, 3), stride=(1, 1), padding=(1, 1), padding_mode=reflect)
        (1): ReLU(inplace=True)
        (2): ReflectionPad2d((1, 1, 1, 1))
        (3): Conv2d(35, 35, kernel_size=(3, 3), stride=(1, 1))
      )
    )
    (7): Rnet(
      (relu): ReLU(inplace=True)
      (resm1): Sequential(
        (0): Conv2d(35, 35, kernel_size=(3, 3), stride=(1, 1), padding=(1, 1), padding_mode=reflect)
        (1): ReLU(inplace=True)
        (2): ReflectionPad2d((1, 1, 1, 1))
        (3): Conv2d(35, 35, kernel_size=(3, 3), stride=(1, 1))
      )
      (resm2): Sequential(
        (0): Conv2d(35, 35, kernel_size=(3, 3), stride=(1, 1), padding=(1, 1), padding_mode=reflect)
        (1): ReLU(inplace=True)
        (2): ReflectionPad2d((1, 1, 1, 1))
        (3): Conv2d(35, 35, kernel_size=(3, 3), stride=(1, 1))
      )
      (resm3): Sequential(
        (0): Conv2d(35, 35, kernel_size=(3, 3), stride=(1, 1), padding=(1, 1), padding_mode=reflect)
        (1): ReLU(inplace=True)
        (2): ReflectionPad2d((1, 1, 1, 1))
        (3): Conv2d(35, 35, kernel_size=(3, 3), stride=(1, 1))
      )
      (resm4): Sequential(
        (0): Conv2d(35, 35, kernel_size=(3, 3), stride=(1, 1), padding=(1, 1), padding_mode=reflect)
        (1): ReLU(inplace=True)
        (2): ReflectionPad2d((1, 1, 1, 1))
        (3): Conv2d(35, 35, kernel_size=(3, 3), stride=(1, 1))
      )
    )
    (8): Rnet(
      (relu): ReLU(inplace=True)
      (resm1): Sequential(
        (0): Conv2d(35, 35, kernel_size=(3, 3), stride=(1, 1), padding=(1, 1), padding_mode=reflect)
        (1): ReLU(inplace=True)
        (2): ReflectionPad2d((1, 1, 1, 1))
        (3): Conv2d(35, 35, kernel_size=(3, 3), stride=(1, 1))
      )
      (resm2): Sequential(
        (0): Conv2d(35, 35, kernel_size=(3, 3), stride=(1, 1), padding=(1, 1), padding_mode=reflect)
        (1): ReLU(inplace=True)
        (2): ReflectionPad2d((1, 1, 1, 1))
        (3): Conv2d(35, 35, kernel_size=(3, 3), stride=(1, 1))
      )
      (resm3): Sequential(
        (0): Conv2d(35, 35, kernel_size=(3, 3), stride=(1, 1), padding=(1, 1), padding_mode=reflect)
        (1): ReLU(inplace=True)
        (2): ReflectionPad2d((1, 1, 1, 1))
        (3): Conv2d(35, 35, kernel_size=(3, 3), stride=(1, 1))
      )
      (resm4): Sequential(
        (0): Conv2d(35, 35, kernel_size=(3, 3), stride=(1, 1), padding=(1, 1), padding_mode=reflect)
        (1): ReLU(inplace=True)
        (2): ReflectionPad2d((1, 1, 1, 1))
        (3): Conv2d(35, 35, kernel_size=(3, 3), stride=(1, 1))
      )
    )
    (9): Rnet(
      (relu): ReLU(inplace=True)
      (resm1): Sequential(
        (0): Conv2d(35, 35, kernel_size=(3, 3), stride=(1, 1), padding=(1, 1), padding_mode=reflect)
        (1): ReLU(inplace=True)
        (2): ReflectionPad2d((1, 1, 1, 1))
        (3): Conv2d(35, 35, kernel_size=(3, 3), stride=(1, 1))
      )
      (resm2): Sequential(
        (0): Conv2d(35, 35, kernel_size=(3, 3), stride=(1, 1), padding=(1, 1), padding_mode=reflect)
        (1): ReLU(inplace=True)
        (2): ReflectionPad2d((1, 1, 1, 1))
        (3): Conv2d(35, 35, kernel_size=(3, 3), stride=(1, 1))
      )
      (resm3): Sequential(
        (0): Conv2d(35, 35, kernel_size=(3, 3), stride=(1, 1), padding=(1, 1), padding_mode=reflect)
        (1): ReLU(inplace=True)
        (2): ReflectionPad2d((1, 1, 1, 1))
        (3): Conv2d(35, 35, kernel_size=(3, 3), stride=(1, 1))
      )
      (resm4): Sequential(
        (0): Conv2d(35, 35, kernel_size=(3, 3), stride=(1, 1), padding=(1, 1), padding_mode=reflect)
        (1): ReLU(inplace=True)
        (2): ReflectionPad2d((1, 1, 1, 1))
        (3): Conv2d(35, 35, kernel_size=(3, 3), stride=(1, 1))
      )
    )
    (10): Rnet(
      (relu): ReLU(inplace=True)
      (resm1): Sequential(
        (0): Conv2d(35, 35, kernel_size=(3, 3), stride=(1, 1), padding=(1, 1), padding_mode=reflect)
        (1): ReLU(inplace=True)
        (2): ReflectionPad2d((1, 1, 1, 1))
        (3): Conv2d(35, 35, kernel_size=(3, 3), stride=(1, 1))
      )
      (resm2): Sequential(
        (0): Conv2d(35, 35, kernel_size=(3, 3), stride=(1, 1), padding=(1, 1), padding_mode=reflect)
        (1): ReLU(inplace=True)
        (2): ReflectionPad2d((1, 1, 1, 1))
        (3): Conv2d(35, 35, kernel_size=(3, 3), stride=(1, 1))
      )
      (resm3): Sequential(
        (0): Conv2d(35, 35, kernel_size=(3, 3), stride=(1, 1), padding=(1, 1), padding_mode=reflect)
        (1): ReLU(inplace=True)
        (2): ReflectionPad2d((1, 1, 1, 1))
        (3): Conv2d(35, 35, kernel_size=(3, 3), stride=(1, 1))
      )
      (resm4): Sequential(
        (0): Conv2d(35, 35, kernel_size=(3, 3), stride=(1, 1), padding=(1, 1), padding_mode=reflect)
        (1): ReLU(inplace=True)
        (2): ReflectionPad2d((1, 1, 1, 1))
        (3): Conv2d(35, 35, kernel_size=(3, 3), stride=(1, 1))
      )
    )
    (11): Rnet(
      (relu): ReLU(inplace=True)
      (resm1): Sequential(
        (0): Conv2d(35, 35, kernel_size=(3, 3), stride=(1, 1), padding=(1, 1), padding_mode=reflect)
        (1): ReLU(inplace=True)
        (2): ReflectionPad2d((1, 1, 1, 1))
        (3): Conv2d(35, 35, kernel_size=(3, 3), stride=(1, 1))
      )
      (resm2): Sequential(
        (0): Conv2d(35, 35, kernel_size=(3, 3), stride=(1, 1), padding=(1, 1), padding_mode=reflect)
        (1): ReLU(inplace=True)
        (2): ReflectionPad2d((1, 1, 1, 1))
        (3): Conv2d(35, 35, kernel_size=(3, 3), stride=(1, 1))
      )
      (resm3): Sequential(
        (0): Conv2d(35, 35, kernel_size=(3, 3), stride=(1, 1), padding=(1, 1), padding_mode=reflect)
        (1): ReLU(inplace=True)
        (2): ReflectionPad2d((1, 1, 1, 1))
        (3): Conv2d(35, 35, kernel_size=(3, 3), stride=(1, 1))
      )
      (resm4): Sequential(
        (0): Conv2d(35, 35, kernel_size=(3, 3), stride=(1, 1), padding=(1, 1), padding_mode=reflect)
        (1): ReLU(inplace=True)
        (2): ReflectionPad2d((1, 1, 1, 1))
        (3): Conv2d(35, 35, kernel_size=(3, 3), stride=(1, 1))
      )
    )
    (12): Rnet(
      (relu): ReLU(inplace=True)
      (resm1): Sequential(
        (0): Conv2d(35, 35, kernel_size=(3, 3), stride=(1, 1), padding=(1, 1), padding_mode=reflect)
        (1): ReLU(inplace=True)
        (2): ReflectionPad2d((1, 1, 1, 1))
        (3): Conv2d(35, 35, kernel_size=(3, 3), stride=(1, 1))
      )
      (resm2): Sequential(
        (0): Conv2d(35, 35, kernel_size=(3, 3), stride=(1, 1), padding=(1, 1), padding_mode=reflect)
        (1): ReLU(inplace=True)
        (2): ReflectionPad2d((1, 1, 1, 1))
        (3): Conv2d(35, 35, kernel_size=(3, 3), stride=(1, 1))
      )
      (resm3): Sequential(
        (0): Conv2d(35, 35, kernel_size=(3, 3), stride=(1, 1), padding=(1, 1), padding_mode=reflect)
        (1): ReLU(inplace=True)
        (2): ReflectionPad2d((1, 1, 1, 1))
        (3): Conv2d(35, 35, kernel_size=(3, 3), stride=(1, 1))
      )
      (resm4): Sequential(
        (0): Conv2d(35, 35, kernel_size=(3, 3), stride=(1, 1), padding=(1, 1), padding_mode=reflect)
        (1): ReLU(inplace=True)
        (2): ReflectionPad2d((1, 1, 1, 1))
        (3): Conv2d(35, 35, kernel_size=(3, 3), stride=(1, 1))
      )
    )
  )
  (conv_l): Conv2d(1, 29, kernel_size=(3, 3), stride=(1, 1), padding=(1, 1), padding_mode=reflect)
  (conv_r): Conv2d(3, 32, kernel_size=(3, 3), stride=(1, 1), padding=(1, 1), padding_mode=reflect)
)
Mainnet(
  (renet): Renet(
    (relu): ReLU(inplace=True)
    (res1): Sequential(
      (0): Conv2d(4, 32, kernel_size=(3, 3), stride=(1, 1), padding=(1, 1), padding_mode=reflect)
      (1): ReLU()
      (2): Conv2d(32, 4, kernel_size=(3, 3), stride=(1, 1), padding=(1, 1), padding_mode=reflect)
    )
    (res2): Sequential(
      (0): Conv2d(4, 32, kernel_size=(3, 3), stride=(1, 1), padding=(1, 1), padding_mode=reflect)
      (1): ReLU()
      (2): Conv2d(32, 4, kernel_size=(3, 3), stride=(1, 1), padding=(1, 1), padding_mode=reflect)
    )
    (res3): Sequential(
      (0): Conv2d(4, 32, kernel_size=(3, 3), stride=(1, 1), padding=(1, 1), padding_mode=reflect)
      (1): ReLU()
      (2): Conv2d(32, 4, kernel_size=(3, 3), stride=(1, 1), padding=(1, 1), padding_mode=reflect)
    )
    (res4): Sequential(
      (0): Conv2d(4, 32, kernel_size=(3, 3), stride=(1, 1), padding=(1, 1), padding_mode=reflect)
      (1): ReLU()
      (2): Conv2d(32, 4, kernel_size=(3, 3), stride=(1, 1), padding=(1, 1), padding_mode=reflect)
    )
  )
  (lenet): Lenet(
    (relu): ReLU(inplace=True)
    (res1): Sequential(
      (0): Conv2d(1, 32, kernel_size=(3, 3), stride=(1, 1), padding=(1, 1), padding_mode=reflect)
      (1): ReLU(inplace=True)
      (2): Conv2d(32, 1, kernel_size=(3, 3), stride=(1, 1), padding=(1, 1), padding_mode=reflect)
    )
    (res2): Sequential(
      (0): Conv2d(1, 32, kernel_size=(3, 3), stride=(1, 1), padding=(1, 1), padding_mode=reflect)
      (1): ReLU(inplace=True)
      (2): Conv2d(32, 1, kernel_size=(3, 3), stride=(1, 1), padding=(1, 1), padding_mode=reflect)
    )
    (scale): Sequential(
      (0): Linear(in_features=1, out_features=100, bias=True)
      (1): ReLU(inplace=True)
      (2): Linear(in_features=100, out_features=1, bias=True)
      (3): Sigmoid()
    )
  )
  (scale): Scale(
    (conv1): Sequential(
      (0): Conv2d(3, 64, kernel_size=(3, 3), stride=(1, 1), padding=(1, 1), padding_mode=reflect)
      (1): LeakyReLU(negative_slope=0.01, inplace=True)
      (2): Conv2d(64, 1, kernel_size=(1, 1), stride=(1, 1), padding_mode=reflect)
      (3): Sigmoid()
    )
  )
)
[Epoch 2]	Learning rate: 1.00e-5
[Epoch 2]	Learning rate of rec: 1.00e-3
Mainnet(
  (lnet): Lnet(
    (conv1): Sequential(
      (0): Conv2d(34, 34, kernel_size=(3, 3), stride=(1, 1), padding=(1, 1), padding_mode=reflect)
      (1): LeakyReLU(negative_slope=0.01, inplace=True)
    )
    (conv2): Sequential(
      (0): Conv2d(66, 34, kernel_size=(1, 1), stride=(1, 1))
    )
  )
  (rnet): Rnet(
    (relu): ReLU(inplace=True)
    (resm1): Sequential(
      (0): Conv2d(35, 35, kernel_size=(3, 3), stride=(1, 1), padding=(1, 1), padding_mode=reflect)
      (1): ReLU(inplace=True)
      (2): ReflectionPad2d((1, 1, 1, 1))
      (3): Conv2d(35, 35, kernel_size=(3, 3), stride=(1, 1))
    )
    (resm2): Sequential(
      (0): Conv2d(35, 35, kernel_size=(3, 3), stride=(1, 1), padding=(1, 1), padding_mode=reflect)
      (1): ReLU(inplace=True)
      (2): ReflectionPad2d((1, 1, 1, 1))
      (3): Conv2d(35, 35, kernel_size=(3, 3), stride=(1, 1))
    )
    (resm3): Sequential(
      (0): Conv2d(35, 35, kernel_size=(3, 3), stride=(1, 1), padding=(1, 1), padding_mode=reflect)
      (1): ReLU(inplace=True)
      (2): ReflectionPad2d((1, 1, 1, 1))
      (3): Conv2d(35, 35, kernel_size=(3, 3), stride=(1, 1))
    )
    (resm4): Sequential(
      (0): Conv2d(35, 35, kernel_size=(3, 3), stride=(1, 1), padding=(1, 1), padding_mode=reflect)
      (1): ReLU(inplace=True)
      (2): ReflectionPad2d((1, 1, 1, 1))
      (3): Conv2d(35, 35, kernel_size=(3, 3), stride=(1, 1))
    )
  )
  (l_stage): Sequential(
    (0): Lnet(
      (conv1): Sequential(
        (0): Conv2d(34, 34, kernel_size=(3, 3), stride=(1, 1), padding=(1, 1), padding_mode=reflect)
        (1): LeakyReLU(negative_slope=0.01, inplace=True)
      )
      (conv2): Sequential(
        (0): Conv2d(66, 34, kernel_size=(1, 1), stride=(1, 1))
      )
    )
    (1): Lnet(
      (conv1): Sequential(
        (0): Conv2d(34, 34, kernel_size=(3, 3), stride=(1, 1), padding=(1, 1), padding_mode=reflect)
        (1): LeakyReLU(negative_slope=0.01, inplace=True)
      )
      (conv2): Sequential(
        (0): Conv2d(66, 34, kernel_size=(1, 1), stride=(1, 1))
      )
    )
    (2): Lnet(
      (conv1): Sequential(
        (0): Conv2d(34, 34, kernel_size=(3, 3), stride=(1, 1), padding=(1, 1), padding_mode=reflect)
        (1): LeakyReLU(negative_slope=0.01, inplace=True)
      )
      (conv2): Sequential(
        (0): Conv2d(66, 34, kernel_size=(1, 1), stride=(1, 1))
      )
    )
    (3): Lnet(
      (conv1): Sequential(
        (0): Conv2d(34, 34, kernel_size=(3, 3), stride=(1, 1), padding=(1, 1), padding_mode=reflect)
        (1): LeakyReLU(negative_slope=0.01, inplace=True)
      )
      (conv2): Sequential(
        (0): Conv2d(66, 34, kernel_size=(1, 1), stride=(1, 1))
      )
    )
    (4): Lnet(
      (conv1): Sequential(
        (0): Conv2d(34, 34, kernel_size=(3, 3), stride=(1, 1), padding=(1, 1), padding_mode=reflect)
        (1): LeakyReLU(negative_slope=0.01, inplace=True)
      )
      (conv2): Sequential(
        (0): Conv2d(66, 34, kernel_size=(1, 1), stride=(1, 1))
      )
    )
    (5): Lnet(
      (conv1): Sequential(
        (0): Conv2d(34, 34, kernel_size=(3, 3), stride=(1, 1), padding=(1, 1), padding_mode=reflect)
        (1): LeakyReLU(negative_slope=0.01, inplace=True)
      )
      (conv2): Sequential(
        (0): Conv2d(66, 34, kernel_size=(1, 1), stride=(1, 1))
      )
    )
    (6): Lnet(
      (conv1): Sequential(
        (0): Conv2d(34, 34, kernel_size=(3, 3), stride=(1, 1), padding=(1, 1), padding_mode=reflect)
        (1): LeakyReLU(negative_slope=0.01, inplace=True)
      )
      (conv2): Sequential(
        (0): Conv2d(66, 34, kernel_size=(1, 1), stride=(1, 1))
      )
    )
    (7): Lnet(
      (conv1): Sequential(
        (0): Conv2d(34, 34, kernel_size=(3, 3), stride=(1, 1), padding=(1, 1), padding_mode=reflect)
        (1): LeakyReLU(negative_slope=0.01, inplace=True)
      )
      (conv2): Sequential(
        (0): Conv2d(66, 34, kernel_size=(1, 1), stride=(1, 1))
      )
    )
    (8): Lnet(
      (conv1): Sequential(
        (0): Conv2d(34, 34, kernel_size=(3, 3), stride=(1, 1), padding=(1, 1), padding_mode=reflect)
        (1): LeakyReLU(negative_slope=0.01, inplace=True)
      )
      (conv2): Sequential(
        (0): Conv2d(66, 34, kernel_size=(1, 1), stride=(1, 1))
      )
    )
    (9): Lnet(
      (conv1): Sequential(
        (0): Conv2d(34, 34, kernel_size=(3, 3), stride=(1, 1), padding=(1, 1), padding_mode=reflect)
        (1): LeakyReLU(negative_slope=0.01, inplace=True)
      )
      (conv2): Sequential(
        (0): Conv2d(66, 34, kernel_size=(1, 1), stride=(1, 1))
      )
    )
    (10): Lnet(
      (conv1): Sequential(
        (0): Conv2d(34, 34, kernel_size=(3, 3), stride=(1, 1), padding=(1, 1), padding_mode=reflect)
        (1): LeakyReLU(negative_slope=0.01, inplace=True)
      )
      (conv2): Sequential(
        (0): Conv2d(66, 34, kernel_size=(1, 1), stride=(1, 1))
      )
    )
    (11): Lnet(
      (conv1): Sequential(
        (0): Conv2d(34, 34, kernel_size=(3, 3), stride=(1, 1), padding=(1, 1), padding_mode=reflect)
        (1): LeakyReLU(negative_slope=0.01, inplace=True)
      )
      (conv2): Sequential(
        (0): Conv2d(66, 34, kernel_size=(1, 1), stride=(1, 1))
      )
    )
    (12): Lnet(
      (conv1): Sequential(
        (0): Conv2d(34, 34, kernel_size=(3, 3), stride=(1, 1), padding=(1, 1), padding_mode=reflect)
        (1): LeakyReLU(negative_slope=0.01, inplace=True)
      )
      (conv2): Sequential(
        (0): Conv2d(66, 34, kernel_size=(1, 1), stride=(1, 1))
      )
    )
  )
  (r_stage): Sequential(
    (0): Rnet(
      (relu): ReLU(inplace=True)
      (resm1): Sequential(
        (0): Conv2d(35, 35, kernel_size=(3, 3), stride=(1, 1), padding=(1, 1), padding_mode=reflect)
        (1): ReLU(inplace=True)
        (2): ReflectionPad2d((1, 1, 1, 1))
        (3): Conv2d(35, 35, kernel_size=(3, 3), stride=(1, 1))
      )
      (resm2): Sequential(
        (0): Conv2d(35, 35, kernel_size=(3, 3), stride=(1, 1), padding=(1, 1), padding_mode=reflect)
        (1): ReLU(inplace=True)
        (2): ReflectionPad2d((1, 1, 1, 1))
        (3): Conv2d(35, 35, kernel_size=(3, 3), stride=(1, 1))
      )
      (resm3): Sequential(
        (0): Conv2d(35, 35, kernel_size=(3, 3), stride=(1, 1), padding=(1, 1), padding_mode=reflect)
        (1): ReLU(inplace=True)
        (2): ReflectionPad2d((1, 1, 1, 1))
        (3): Conv2d(35, 35, kernel_size=(3, 3), stride=(1, 1))
      )
      (resm4): Sequential(
        (0): Conv2d(35, 35, kernel_size=(3, 3), stride=(1, 1), padding=(1, 1), padding_mode=reflect)
        (1): ReLU(inplace=True)
        (2): ReflectionPad2d((1, 1, 1, 1))
        (3): Conv2d(35, 35, kernel_size=(3, 3), stride=(1, 1))
      )
    )
    (1): Rnet(
      (relu): ReLU(inplace=True)
      (resm1): Sequential(
        (0): Conv2d(35, 35, kernel_size=(3, 3), stride=(1, 1), padding=(1, 1), padding_mode=reflect)
        (1): ReLU(inplace=True)
        (2): ReflectionPad2d((1, 1, 1, 1))
        (3): Conv2d(35, 35, kernel_size=(3, 3), stride=(1, 1))
      )
      (resm2): Sequential(
        (0): Conv2d(35, 35, kernel_size=(3, 3), stride=(1, 1), padding=(1, 1), padding_mode=reflect)
        (1): ReLU(inplace=True)
        (2): ReflectionPad2d((1, 1, 1, 1))
        (3): Conv2d(35, 35, kernel_size=(3, 3), stride=(1, 1))
      )
      (resm3): Sequential(
        (0): Conv2d(35, 35, kernel_size=(3, 3), stride=(1, 1), padding=(1, 1), padding_mode=reflect)
        (1): ReLU(inplace=True)
        (2): ReflectionPad2d((1, 1, 1, 1))
        (3): Conv2d(35, 35, kernel_size=(3, 3), stride=(1, 1))
      )
      (resm4): Sequential(
        (0): Conv2d(35, 35, kernel_size=(3, 3), stride=(1, 1), padding=(1, 1), padding_mode=reflect)
        (1): ReLU(inplace=True)
        (2): ReflectionPad2d((1, 1, 1, 1))
        (3): Conv2d(35, 35, kernel_size=(3, 3), stride=(1, 1))
      )
    )
    (2): Rnet(
      (relu): ReLU(inplace=True)
      (resm1): Sequential(
        (0): Conv2d(35, 35, kernel_size=(3, 3), stride=(1, 1), padding=(1, 1), padding_mode=reflect)
        (1): ReLU(inplace=True)
        (2): ReflectionPad2d((1, 1, 1, 1))
        (3): Conv2d(35, 35, kernel_size=(3, 3), stride=(1, 1))
      )
      (resm2): Sequential(
        (0): Conv2d(35, 35, kernel_size=(3, 3), stride=(1, 1), padding=(1, 1), padding_mode=reflect)
        (1): ReLU(inplace=True)
        (2): ReflectionPad2d((1, 1, 1, 1))
        (3): Conv2d(35, 35, kernel_size=(3, 3), stride=(1, 1))
      )
      (resm3): Sequential(
        (0): Conv2d(35, 35, kernel_size=(3, 3), stride=(1, 1), padding=(1, 1), padding_mode=reflect)
        (1): ReLU(inplace=True)
        (2): ReflectionPad2d((1, 1, 1, 1))
        (3): Conv2d(35, 35, kernel_size=(3, 3), stride=(1, 1))
      )
      (resm4): Sequential(
        (0): Conv2d(35, 35, kernel_size=(3, 3), stride=(1, 1), padding=(1, 1), padding_mode=reflect)
        (1): ReLU(inplace=True)
        (2): ReflectionPad2d((1, 1, 1, 1))
        (3): Conv2d(35, 35, kernel_size=(3, 3), stride=(1, 1))
      )
    )
    (3): Rnet(
      (relu): ReLU(inplace=True)
      (resm1): Sequential(
        (0): Conv2d(35, 35, kernel_size=(3, 3), stride=(1, 1), padding=(1, 1), padding_mode=reflect)
        (1): ReLU(inplace=True)
        (2): ReflectionPad2d((1, 1, 1, 1))
        (3): Conv2d(35, 35, kernel_size=(3, 3), stride=(1, 1))
      )
      (resm2): Sequential(
        (0): Conv2d(35, 35, kernel_size=(3, 3), stride=(1, 1), padding=(1, 1), padding_mode=reflect)
        (1): ReLU(inplace=True)
        (2): ReflectionPad2d((1, 1, 1, 1))
        (3): Conv2d(35, 35, kernel_size=(3, 3), stride=(1, 1))
      )
      (resm3): Sequential(
        (0): Conv2d(35, 35, kernel_size=(3, 3), stride=(1, 1), padding=(1, 1), padding_mode=reflect)
        (1): ReLU(inplace=True)
        (2): ReflectionPad2d((1, 1, 1, 1))
        (3): Conv2d(35, 35, kernel_size=(3, 3), stride=(1, 1))
      )
      (resm4): Sequential(
        (0): Conv2d(35, 35, kernel_size=(3, 3), stride=(1, 1), padding=(1, 1), padding_mode=reflect)
        (1): ReLU(inplace=True)
        (2): ReflectionPad2d((1, 1, 1, 1))
        (3): Conv2d(35, 35, kernel_size=(3, 3), stride=(1, 1))
      )
    )
    (4): Rnet(
      (relu): ReLU(inplace=True)
      (resm1): Sequential(
        (0): Conv2d(35, 35, kernel_size=(3, 3), stride=(1, 1), padding=(1, 1), padding_mode=reflect)
        (1): ReLU(inplace=True)
        (2): ReflectionPad2d((1, 1, 1, 1))
        (3): Conv2d(35, 35, kernel_size=(3, 3), stride=(1, 1))
      )
      (resm2): Sequential(
        (0): Conv2d(35, 35, kernel_size=(3, 3), stride=(1, 1), padding=(1, 1), padding_mode=reflect)
        (1): ReLU(inplace=True)
        (2): ReflectionPad2d((1, 1, 1, 1))
        (3): Conv2d(35, 35, kernel_size=(3, 3), stride=(1, 1))
      )
      (resm3): Sequential(
        (0): Conv2d(35, 35, kernel_size=(3, 3), stride=(1, 1), padding=(1, 1), padding_mode=reflect)
        (1): ReLU(inplace=True)
        (2): ReflectionPad2d((1, 1, 1, 1))
        (3): Conv2d(35, 35, kernel_size=(3, 3), stride=(1, 1))
      )
      (resm4): Sequential(
        (0): Conv2d(35, 35, kernel_size=(3, 3), stride=(1, 1), padding=(1, 1), padding_mode=reflect)
        (1): ReLU(inplace=True)
        (2): ReflectionPad2d((1, 1, 1, 1))
        (3): Conv2d(35, 35, kernel_size=(3, 3), stride=(1, 1))
      )
    )
    (5): Rnet(
      (relu): ReLU(inplace=True)
      (resm1): Sequential(
        (0): Conv2d(35, 35, kernel_size=(3, 3), stride=(1, 1), padding=(1, 1), padding_mode=reflect)
        (1): ReLU(inplace=True)
        (2): ReflectionPad2d((1, 1, 1, 1))
        (3): Conv2d(35, 35, kernel_size=(3, 3), stride=(1, 1))
      )
      (resm2): Sequential(
        (0): Conv2d(35, 35, kernel_size=(3, 3), stride=(1, 1), padding=(1, 1), padding_mode=reflect)
        (1): ReLU(inplace=True)
        (2): ReflectionPad2d((1, 1, 1, 1))
        (3): Conv2d(35, 35, kernel_size=(3, 3), stride=(1, 1))
      )
      (resm3): Sequential(
        (0): Conv2d(35, 35, kernel_size=(3, 3), stride=(1, 1), padding=(1, 1), padding_mode=reflect)
        (1): ReLU(inplace=True)
        (2): ReflectionPad2d((1, 1, 1, 1))
        (3): Conv2d(35, 35, kernel_size=(3, 3), stride=(1, 1))
      )
      (resm4): Sequential(
        (0): Conv2d(35, 35, kernel_size=(3, 3), stride=(1, 1), padding=(1, 1), padding_mode=reflect)
        (1): ReLU(inplace=True)
        (2): ReflectionPad2d((1, 1, 1, 1))
        (3): Conv2d(35, 35, kernel_size=(3, 3), stride=(1, 1))
      )
    )
    (6): Rnet(
      (relu): ReLU(inplace=True)
      (resm1): Sequential(
        (0): Conv2d(35, 35, kernel_size=(3, 3), stride=(1, 1), padding=(1, 1), padding_mode=reflect)
        (1): ReLU(inplace=True)
        (2): ReflectionPad2d((1, 1, 1, 1))
        (3): Conv2d(35, 35, kernel_size=(3, 3), stride=(1, 1))
      )
      (resm2): Sequential(
        (0): Conv2d(35, 35, kernel_size=(3, 3), stride=(1, 1), padding=(1, 1), padding_mode=reflect)
        (1): ReLU(inplace=True)
        (2): ReflectionPad2d((1, 1, 1, 1))
        (3): Conv2d(35, 35, kernel_size=(3, 3), stride=(1, 1))
      )
      (resm3): Sequential(
        (0): Conv2d(35, 35, kernel_size=(3, 3), stride=(1, 1), padding=(1, 1), padding_mode=reflect)
        (1): ReLU(inplace=True)
        (2): ReflectionPad2d((1, 1, 1, 1))
        (3): Conv2d(35, 35, kernel_size=(3, 3), stride=(1, 1))
      )
      (resm4): Sequential(
        (0): Conv2d(35, 35, kernel_size=(3, 3), stride=(1, 1), padding=(1, 1), padding_mode=reflect)
        (1): ReLU(inplace=True)
        (2): ReflectionPad2d((1, 1, 1, 1))
        (3): Conv2d(35, 35, kernel_size=(3, 3), stride=(1, 1))
      )
    )
    (7): Rnet(
      (relu): ReLU(inplace=True)
      (resm1): Sequential(
        (0): Conv2d(35, 35, kernel_size=(3, 3), stride=(1, 1), padding=(1, 1), padding_mode=reflect)
        (1): ReLU(inplace=True)
        (2): ReflectionPad2d((1, 1, 1, 1))
        (3): Conv2d(35, 35, kernel_size=(3, 3), stride=(1, 1))
      )
      (resm2): Sequential(
        (0): Conv2d(35, 35, kernel_size=(3, 3), stride=(1, 1), padding=(1, 1), padding_mode=reflect)
        (1): ReLU(inplace=True)
        (2): ReflectionPad2d((1, 1, 1, 1))
        (3): Conv2d(35, 35, kernel_size=(3, 3), stride=(1, 1))
      )
      (resm3): Sequential(
        (0): Conv2d(35, 35, kernel_size=(3, 3), stride=(1, 1), padding=(1, 1), padding_mode=reflect)
        (1): ReLU(inplace=True)
        (2): ReflectionPad2d((1, 1, 1, 1))
        (3): Conv2d(35, 35, kernel_size=(3, 3), stride=(1, 1))
      )
      (resm4): Sequential(
        (0): Conv2d(35, 35, kernel_size=(3, 3), stride=(1, 1), padding=(1, 1), padding_mode=reflect)
        (1): ReLU(inplace=True)
        (2): ReflectionPad2d((1, 1, 1, 1))
        (3): Conv2d(35, 35, kernel_size=(3, 3), stride=(1, 1))
      )
    )
    (8): Rnet(
      (relu): ReLU(inplace=True)
      (resm1): Sequential(
        (0): Conv2d(35, 35, kernel_size=(3, 3), stride=(1, 1), padding=(1, 1), padding_mode=reflect)
        (1): ReLU(inplace=True)
        (2): ReflectionPad2d((1, 1, 1, 1))
        (3): Conv2d(35, 35, kernel_size=(3, 3), stride=(1, 1))
      )
      (resm2): Sequential(
        (0): Conv2d(35, 35, kernel_size=(3, 3), stride=(1, 1), padding=(1, 1), padding_mode=reflect)
        (1): ReLU(inplace=True)
        (2): ReflectionPad2d((1, 1, 1, 1))
        (3): Conv2d(35, 35, kernel_size=(3, 3), stride=(1, 1))
      )
      (resm3): Sequential(
        (0): Conv2d(35, 35, kernel_size=(3, 3), stride=(1, 1), padding=(1, 1), padding_mode=reflect)
        (1): ReLU(inplace=True)
        (2): ReflectionPad2d((1, 1, 1, 1))
        (3): Conv2d(35, 35, kernel_size=(3, 3), stride=(1, 1))
      )
      (resm4): Sequential(
        (0): Conv2d(35, 35, kernel_size=(3, 3), stride=(1, 1), padding=(1, 1), padding_mode=reflect)
        (1): ReLU(inplace=True)
        (2): ReflectionPad2d((1, 1, 1, 1))
        (3): Conv2d(35, 35, kernel_size=(3, 3), stride=(1, 1))
      )
    )
    (9): Rnet(
      (relu): ReLU(inplace=True)
      (resm1): Sequential(
        (0): Conv2d(35, 35, kernel_size=(3, 3), stride=(1, 1), padding=(1, 1), padding_mode=reflect)
        (1): ReLU(inplace=True)
        (2): ReflectionPad2d((1, 1, 1, 1))
        (3): Conv2d(35, 35, kernel_size=(3, 3), stride=(1, 1))
      )
      (resm2): Sequential(
        (0): Conv2d(35, 35, kernel_size=(3, 3), stride=(1, 1), padding=(1, 1), padding_mode=reflect)
        (1): ReLU(inplace=True)
        (2): ReflectionPad2d((1, 1, 1, 1))
        (3): Conv2d(35, 35, kernel_size=(3, 3), stride=(1, 1))
      )
      (resm3): Sequential(
        (0): Conv2d(35, 35, kernel_size=(3, 3), stride=(1, 1), padding=(1, 1), padding_mode=reflect)
        (1): ReLU(inplace=True)
        (2): ReflectionPad2d((1, 1, 1, 1))
        (3): Conv2d(35, 35, kernel_size=(3, 3), stride=(1, 1))
      )
      (resm4): Sequential(
        (0): Conv2d(35, 35, kernel_size=(3, 3), stride=(1, 1), padding=(1, 1), padding_mode=reflect)
        (1): ReLU(inplace=True)
        (2): ReflectionPad2d((1, 1, 1, 1))
        (3): Conv2d(35, 35, kernel_size=(3, 3), stride=(1, 1))
      )
    )
    (10): Rnet(
      (relu): ReLU(inplace=True)
      (resm1): Sequential(
        (0): Conv2d(35, 35, kernel_size=(3, 3), stride=(1, 1), padding=(1, 1), padding_mode=reflect)
        (1): ReLU(inplace=True)
        (2): ReflectionPad2d((1, 1, 1, 1))
        (3): Conv2d(35, 35, kernel_size=(3, 3), stride=(1, 1))
      )
      (resm2): Sequential(
        (0): Conv2d(35, 35, kernel_size=(3, 3), stride=(1, 1), padding=(1, 1), padding_mode=reflect)
        (1): ReLU(inplace=True)
        (2): ReflectionPad2d((1, 1, 1, 1))
        (3): Conv2d(35, 35, kernel_size=(3, 3), stride=(1, 1))
      )
      (resm3): Sequential(
        (0): Conv2d(35, 35, kernel_size=(3, 3), stride=(1, 1), padding=(1, 1), padding_mode=reflect)
        (1): ReLU(inplace=True)
        (2): ReflectionPad2d((1, 1, 1, 1))
        (3): Conv2d(35, 35, kernel_size=(3, 3), stride=(1, 1))
      )
      (resm4): Sequential(
        (0): Conv2d(35, 35, kernel_size=(3, 3), stride=(1, 1), padding=(1, 1), padding_mode=reflect)
        (1): ReLU(inplace=True)
        (2): ReflectionPad2d((1, 1, 1, 1))
        (3): Conv2d(35, 35, kernel_size=(3, 3), stride=(1, 1))
      )
    )
    (11): Rnet(
      (relu): ReLU(inplace=True)
      (resm1): Sequential(
        (0): Conv2d(35, 35, kernel_size=(3, 3), stride=(1, 1), padding=(1, 1), padding_mode=reflect)
        (1): ReLU(inplace=True)
        (2): ReflectionPad2d((1, 1, 1, 1))
        (3): Conv2d(35, 35, kernel_size=(3, 3), stride=(1, 1))
      )
      (resm2): Sequential(
        (0): Conv2d(35, 35, kernel_size=(3, 3), stride=(1, 1), padding=(1, 1), padding_mode=reflect)
        (1): ReLU(inplace=True)
        (2): ReflectionPad2d((1, 1, 1, 1))
        (3): Conv2d(35, 35, kernel_size=(3, 3), stride=(1, 1))
      )
      (resm3): Sequential(
        (0): Conv2d(35, 35, kernel_size=(3, 3), stride=(1, 1), padding=(1, 1), padding_mode=reflect)
        (1): ReLU(inplace=True)
        (2): ReflectionPad2d((1, 1, 1, 1))
        (3): Conv2d(35, 35, kernel_size=(3, 3), stride=(1, 1))
      )
      (resm4): Sequential(
        (0): Conv2d(35, 35, kernel_size=(3, 3), stride=(1, 1), padding=(1, 1), padding_mode=reflect)
        (1): ReLU(inplace=True)
        (2): ReflectionPad2d((1, 1, 1, 1))
        (3): Conv2d(35, 35, kernel_size=(3, 3), stride=(1, 1))
      )
    )
    (12): Rnet(
      (relu): ReLU(inplace=True)
      (resm1): Sequential(
        (0): Conv2d(35, 35, kernel_size=(3, 3), stride=(1, 1), padding=(1, 1), padding_mode=reflect)
        (1): ReLU(inplace=True)
        (2): ReflectionPad2d((1, 1, 1, 1))
        (3): Conv2d(35, 35, kernel_size=(3, 3), stride=(1, 1))
      )
      (resm2): Sequential(
        (0): Conv2d(35, 35, kernel_size=(3, 3), stride=(1, 1), padding=(1, 1), padding_mode=reflect)
        (1): ReLU(inplace=True)
        (2): ReflectionPad2d((1, 1, 1, 1))
        (3): Conv2d(35, 35, kernel_size=(3, 3), stride=(1, 1))
      )
      (resm3): Sequential(
        (0): Conv2d(35, 35, kernel_size=(3, 3), stride=(1, 1), padding=(1, 1), padding_mode=reflect)
        (1): ReLU(inplace=True)
        (2): ReflectionPad2d((1, 1, 1, 1))
        (3): Conv2d(35, 35, kernel_size=(3, 3), stride=(1, 1))
      )
      (resm4): Sequential(
        (0): Conv2d(35, 35, kernel_size=(3, 3), stride=(1, 1), padding=(1, 1), padding_mode=reflect)
        (1): ReLU(inplace=True)
        (2): ReflectionPad2d((1, 1, 1, 1))
        (3): Conv2d(35, 35, kernel_size=(3, 3), stride=(1, 1))
      )
    )
  )
  (conv_l): Conv2d(1, 29, kernel_size=(3, 3), stride=(1, 1), padding=(1, 1), padding_mode=reflect)
  (conv_r): Conv2d(3, 32, kernel_size=(3, 3), stride=(1, 1), padding=(1, 1), padding_mode=reflect)
)
Mainnet(
  (renet): Renet(
    (relu): ReLU(inplace=True)
    (res1): Sequential(
      (0): Conv2d(4, 32, kernel_size=(3, 3), stride=(1, 1), padding=(1, 1), padding_mode=reflect)
      (1): ReLU()
      (2): Conv2d(32, 4, kernel_size=(3, 3), stride=(1, 1), padding=(1, 1), padding_mode=reflect)
    )
    (res2): Sequential(
      (0): Conv2d(4, 32, kernel_size=(3, 3), stride=(1, 1), padding=(1, 1), padding_mode=reflect)
      (1): ReLU()
      (2): Conv2d(32, 4, kernel_size=(3, 3), stride=(1, 1), padding=(1, 1), padding_mode=reflect)
    )
    (res3): Sequential(
      (0): Conv2d(4, 32, kernel_size=(3, 3), stride=(1, 1), padding=(1, 1), padding_mode=reflect)
      (1): ReLU()
      (2): Conv2d(32, 4, kernel_size=(3, 3), stride=(1, 1), padding=(1, 1), padding_mode=reflect)
    )
    (res4): Sequential(
      (0): Conv2d(4, 32, kernel_size=(3, 3), stride=(1, 1), padding=(1, 1), padding_mode=reflect)
      (1): ReLU()
      (2): Conv2d(32, 4, kernel_size=(3, 3), stride=(1, 1), padding=(1, 1), padding_mode=reflect)
    )
  )
  (lenet): Lenet(
    (relu): ReLU(inplace=True)
    (res1): Sequential(
      (0): Conv2d(1, 32, kernel_size=(3, 3), stride=(1, 1), padding=(1, 1), padding_mode=reflect)
      (1): ReLU(inplace=True)
      (2): Conv2d(32, 1, kernel_size=(3, 3), stride=(1, 1), padding=(1, 1), padding_mode=reflect)
    )
    (res2): Sequential(
      (0): Conv2d(1, 32, kernel_size=(3, 3), stride=(1, 1), padding=(1, 1), padding_mode=reflect)
      (1): ReLU(inplace=True)
      (2): Conv2d(32, 1, kernel_size=(3, 3), stride=(1, 1), padding=(1, 1), padding_mode=reflect)
    )
    (scale): Sequential(
      (0): Linear(in_features=1, out_features=100, bias=True)
      (1): ReLU(inplace=True)
      (2): Linear(in_features=100, out_features=1, bias=True)
      (3): Sigmoid()
    )
  )
  (scale): Scale(
    (conv1): Sequential(
      (0): Conv2d(3, 64, kernel_size=(3, 3), stride=(1, 1), padding=(1, 1), padding_mode=reflect)
      (1): LeakyReLU(negative_slope=0.01, inplace=True)
      (2): Conv2d(64, 1, kernel_size=(1, 1), stride=(1, 1), padding_mode=reflect)
      (3): Sigmoid()
    )
  )
)
[Epoch 2]	Learning rate: 1.00e-5
[Epoch 2]	Learning rate of rec: 1.00e-3
[500/4500]	[VGG22: 0.0036]	26.3+0.2s
[1000/4500]	[VGG22: 0.0030]	26.0+0.2s
[1500/4500]	[VGG22: 0.0026]	26.1+0.2s
[2000/4500]	[VGG22: 0.0024]	26.1+0.2s
[2500/4500]	[VGG22: 0.0023]	26.1+0.2s
[3000/4500]	[VGG22: 0.0021]	26.2+0.2s
[3500/4500]	[VGG22: 0.0020]	26.2+0.2s
…
[eval15 x1]	PSNR: 0.894 (Best: 0.897 @epoch 19)
Total time: 8.09s

[Epoch 70]	Learning rate: 1.00e-7
[Epoch 70]	Learning rate of rec: 1.00e-5
[500/4500]	[VGG22: 0.0007]	26.1+0.2s
[1000/4500]	[VGG22: 0.0007]	26.1+0.2s
[1500/4500]	[VGG22: 0.0007]	26.1+0.2s
[2000/4500]	[VGG22: 0.0007]	26.1+0.2s
[2500/4500]	[VGG22: 0.0007]	26.1+0.2s
[3000/4500]	[VGG22: 0.0007]	26.2+0.2s
[3500/4500]	[VGG22: 0.0007]	26.2+0.2s
[4000/4500]	[VGG22: 0.0007]	26.2+0.2s
[4500/4500]	[VGG22: 0.0007]	26.2+0.2s

Evaluation:
[eval15 x1]	PSNR: 0.893 (Best: 0.897 @epoch 19)
Total time: 8.09s

Mainnet(
  (lnet): Lnet(
    (conv1): Sequential(
      (0): Conv2d(34, 34, kernel_size=(3, 3), stride=(1, 1), padding=(1, 1), padding_mode=reflect)
      (1): LeakyReLU(negative_slope=0.01, inplace=True)
    )
    (conv2): Sequential(
      (0): Conv2d(66, 34, kernel_size=(1, 1), stride=(1, 1))
    )
  )
  (rnet): Rnet(
    (relu): ReLU(inplace=True)
    (resm1): Sequential(
      (0): Conv2d(35, 35, kernel_size=(3, 3), stride=(1, 1), padding=(1, 1), padding_mode=reflect)
      (1): ReLU(inplace=True)
      (2): ReflectionPad2d((1, 1, 1, 1))
      (3): Conv2d(35, 35, kernel_size=(3, 3), stride=(1, 1))
    )
    (resm2): Sequential(
      (0): Conv2d(35, 35, kernel_size=(3, 3), stride=(1, 1), padding=(1, 1), padding_mode=reflect)
      (1): ReLU(inplace=True)
      (2): ReflectionPad2d((1, 1, 1, 1))
      (3): Conv2d(35, 35, kernel_size=(3, 3), stride=(1, 1))
    )
    (resm3): Sequential(
      (0): Conv2d(35, 35, kernel_size=(3, 3), stride=(1, 1), padding=(1, 1), padding_mode=reflect)
      (1): ReLU(inplace=True)
      (2): ReflectionPad2d((1, 1, 1, 1))
      (3): Conv2d(35, 35, kernel_size=(3, 3), stride=(1, 1))
    )
    (resm4): Sequential(
      (0): Conv2d(35, 35, kernel_size=(3, 3), stride=(1, 1), padding=(1, 1), padding_mode=reflect)
      (1): ReLU(inplace=True)
      (2): ReflectionPad2d((1, 1, 1, 1))
      (3): Conv2d(35, 35, kernel_size=(3, 3), stride=(1, 1))
    )
  )
  (l_stage): Sequential(
    (0): Lnet(
      (conv1): Sequential(
        (0): Conv2d(34, 34, kernel_size=(3, 3), stride=(1, 1), padding=(1, 1), padding_mode=reflect)
        (1): LeakyReLU(negative_slope=0.01, inplace=True)
      )
      (conv2): Sequential(
        (0): Conv2d(66, 34, kernel_size=(1, 1), stride=(1, 1))
      )
    )
    (1): Lnet(
      (conv1): Sequential(
        (0): Conv2d(34, 34, kernel_size=(3, 3), stride=(1, 1), padding=(1, 1), padding_mode=reflect)
        (1): LeakyReLU(negative_slope=0.01, inplace=True)
      )
      (conv2): Sequential(
        (0): Conv2d(66, 34, kernel_size=(1, 1), stride=(1, 1))
      )
    )
    (2): Lnet(
      (conv1): Sequential(
        (0): Conv2d(34, 34, kernel_size=(3, 3), stride=(1, 1), padding=(1, 1), padding_mode=reflect)
        (1): LeakyReLU(negative_slope=0.01, inplace=True)
      )
      (conv2): Sequential(
        (0): Conv2d(66, 34, kernel_size=(1, 1), stride=(1, 1))
      )
    )
    (3): Lnet(
      (conv1): Sequential(
        (0): Conv2d(34, 34, kernel_size=(3, 3), stride=(1, 1), padding=(1, 1), padding_mode=reflect)
        (1): LeakyReLU(negative_slope=0.01, inplace=True)
      )
      (conv2): Sequential(
        (0): Conv2d(66, 34, kernel_size=(1, 1), stride=(1, 1))
      )
    )
    (4): Lnet(
      (conv1): Sequential(
        (0): Conv2d(34, 34, kernel_size=(3, 3), stride=(1, 1), padding=(1, 1), padding_mode=reflect)
        (1): LeakyReLU(negative_slope=0.01, inplace=True)
      )
      (conv2): Sequential(
        (0): Conv2d(66, 34, kernel_size=(1, 1), stride=(1, 1))
      )
    )
    (5): Lnet(
      (conv1): Sequential(
        (0): Conv2d(34, 34, kernel_size=(3, 3), stride=(1, 1), padding=(1, 1), padding_mode=reflect)
        (1): LeakyReLU(negative_slope=0.01, inplace=True)
      )
      (conv2): Sequential(
        (0): Conv2d(66, 34, kernel_size=(1, 1), stride=(1, 1))
      )
    )
    (6): Lnet(
      (conv1): Sequential(
        (0): Conv2d(34, 34, kernel_size=(3, 3), stride=(1, 1), padding=(1, 1), padding_mode=reflect)
        (1): LeakyReLU(negative_slope=0.01, inplace=True)
      )
      (conv2): Sequential(
        (0): Conv2d(66, 34, kernel_size=(1, 1), stride=(1, 1))
      )
    )
    (7): Lnet(
      (conv1): Sequential(
        (0): Conv2d(34, 34, kernel_size=(3, 3), stride=(1, 1), padding=(1, 1), padding_mode=reflect)
        (1): LeakyReLU(negative_slope=0.01, inplace=True)
      )
      (conv2): Sequential(
        (0): Conv2d(66, 34, kernel_size=(1, 1), stride=(1, 1))
      )
    )
    (8): Lnet(
      (conv1): Sequential(
        (0): Conv2d(34, 34, kernel_size=(3, 3), stride=(1, 1), padding=(1, 1), padding_mode=reflect)
        (1): LeakyReLU(negative_slope=0.01, inplace=True)
      )
      (conv2): Sequential(
        (0): Conv2d(66, 34, kernel_size=(1, 1), stride=(1, 1))
      )
    )
    (9): Lnet(
      (conv1): Sequential(
        (0): Conv2d(34, 34, kernel_size=(3, 3), stride=(1, 1), padding=(1, 1), padding_mode=reflect)
        (1): LeakyReLU(negative_slope=0.01, inplace=True)
      )
      (conv2): Sequential(
        (0): Conv2d(66, 34, kernel_size=(1, 1), stride=(1, 1))
      )
    )
    (10): Lnet(
      (conv1): Sequential(
        (0): Conv2d(34, 34, kernel_size=(3, 3), stride=(1, 1), padding=(1, 1), padding_mode=reflect)
        (1): LeakyReLU(negative_slope=0.01, inplace=True)
      )
      (conv2): Sequential(
        (0): Conv2d(66, 34, kernel_size=(1, 1), stride=(1, 1))
      )
    )
    (11): Lnet(
      (conv1): Sequential(
        (0): Conv2d(34, 34, kernel_size=(3, 3), stride=(1, 1), padding=(1, 1), padding_mode=reflect)
        (1): LeakyReLU(negative_slope=0.01, inplace=True)
      )
      (conv2): Sequential(
        (0): Conv2d(66, 34, kernel_size=(1, 1), stride=(1, 1))
      )
    )
    (12): Lnet(
      (conv1): Sequential(
        (0): Conv2d(34, 34, kernel_size=(3, 3), stride=(1, 1), padding=(1, 1), padding_mode=reflect)
        (1): LeakyReLU(negative_slope=0.01, inplace=True)
      )
      (conv2): Sequential(
        (0): Conv2d(66, 34, kernel_size=(1, 1), stride=(1, 1))
      )
    )
  )
  (r_stage): Sequential(
    (0): Rnet(
      (relu): ReLU(inplace=True)
      (resm1): Sequential(
        (0): Conv2d(35, 35, kernel_size=(3, 3), stride=(1, 1), padding=(1, 1), padding_mode=reflect)
        (1): ReLU(inplace=True)
        (2): ReflectionPad2d((1, 1, 1, 1))
        (3): Conv2d(35, 35, kernel_size=(3, 3), stride=(1, 1))
      )
      (resm2): Sequential(
        (0): Conv2d(35, 35, kernel_size=(3, 3), stride=(1, 1), padding=(1, 1), padding_mode=reflect)
        (1): ReLU(inplace=True)
        (2): ReflectionPad2d((1, 1, 1, 1))
        (3): Conv2d(35, 35, kernel_size=(3, 3), stride=(1, 1))
      )
      (resm3): Sequential(
        (0): Conv2d(35, 35, kernel_size=(3, 3), stride=(1, 1), padding=(1, 1), padding_mode=reflect)
        (1): ReLU(inplace=True)
        (2): ReflectionPad2d((1, 1, 1, 1))
        (3): Conv2d(35, 35, kernel_size=(3, 3), stride=(1, 1))
      )
      (resm4): Sequential(
        (0): Conv2d(35, 35, kernel_size=(3, 3), stride=(1, 1), padding=(1, 1), padding_mode=reflect)
        (1): ReLU(inplace=True)
        (2): ReflectionPad2d((1, 1, 1, 1))
        (3): Conv2d(35, 35, kernel_size=(3, 3), stride=(1, 1))
      )
    )
    (1): Rnet(
      (relu): ReLU(inplace=True)
      (resm1): Sequential(
        (0): Conv2d(35, 35, kernel_size=(3, 3), stride=(1, 1), padding=(1, 1), padding_mode=reflect)
        (1): ReLU(inplace=True)
        (2): ReflectionPad2d((1, 1, 1, 1))
        (3): Conv2d(35, 35, kernel_size=(3, 3), stride=(1, 1))
      )
      (resm2): Sequential(
        (0): Conv2d(35, 35, kernel_size=(3, 3), stride=(1, 1), padding=(1, 1), padding_mode=reflect)
        (1): ReLU(inplace=True)
        (2): ReflectionPad2d((1, 1, 1, 1))
        (3): Conv2d(35, 35, kernel_size=(3, 3), stride=(1, 1))
      )
      (resm3): Sequential(
        (0): Conv2d(35, 35, kernel_size=(3, 3), stride=(1, 1), padding=(1, 1), padding_mode=reflect)
        (1): ReLU(inplace=True)
        (2): ReflectionPad2d((1, 1, 1, 1))
        (3): Conv2d(35, 35, kernel_size=(3, 3), stride=(1, 1))
      )
      (resm4): Sequential(
        (0): Conv2d(35, 35, kernel_size=(3, 3), stride=(1, 1), padding=(1, 1), padding_mode=reflect)
        (1): ReLU(inplace=True)
        (2): ReflectionPad2d((1, 1, 1, 1))
        (3): Conv2d(35, 35, kernel_size=(3, 3), stride=(1, 1))
      )
    )
    (2): Rnet(
      (relu): ReLU(inplace=True)
      (resm1): Sequential(
        (0): Conv2d(35, 35, kernel_size=(3, 3), stride=(1, 1), padding=(1, 1), padding_mode=reflect)
        (1): ReLU(inplace=True)
        (2): ReflectionPad2d((1, 1, 1, 1))
        (3): Conv2d(35, 35, kernel_size=(3, 3), stride=(1, 1))
      )
      (resm2): Sequential(
        (0): Conv2d(35, 35, kernel_size=(3, 3), stride=(1, 1), padding=(1, 1), padding_mode=reflect)
        (1): ReLU(inplace=True)
        (2): ReflectionPad2d((1, 1, 1, 1))
        (3): Conv2d(35, 35, kernel_size=(3, 3), stride=(1, 1))
      )
      (resm3): Sequential(
        (0): Conv2d(35, 35, kernel_size=(3, 3), stride=(1, 1), padding=(1, 1), padding_mode=reflect)
        (1): ReLU(inplace=True)
        (2): ReflectionPad2d((1, 1, 1, 1))
        (3): Conv2d(35, 35, kernel_size=(3, 3), stride=(1, 1))
      )
      (resm4): Sequential(
        (0): Conv2d(35, 35, kernel_size=(3, 3), stride=(1, 1), padding=(1, 1), padding_mode=reflect)
        (1): ReLU(inplace=True)
        (2): ReflectionPad2d((1, 1, 1, 1))
        (3): Conv2d(35, 35, kernel_size=(3, 3), stride=(1, 1))
      )
    )
    (3): Rnet(
      (relu): ReLU(inplace=True)
      (resm1): Sequential(
        (0): Conv2d(35, 35, kernel_size=(3, 3), stride=(1, 1), padding=(1, 1), padding_mode=reflect)
        (1): ReLU(inplace=True)
        (2): ReflectionPad2d((1, 1, 1, 1))
        (3): Conv2d(35, 35, kernel_size=(3, 3), stride=(1, 1))
      )
      (resm2): Sequential(
        (0): Conv2d(35, 35, kernel_size=(3, 3), stride=(1, 1), padding=(1, 1), padding_mode=reflect)
        (1): ReLU(inplace=True)
        (2): ReflectionPad2d((1, 1, 1, 1))
        (3): Conv2d(35, 35, kernel_size=(3, 3), stride=(1, 1))
      )
      (resm3): Sequential(
        (0): Conv2d(35, 35, kernel_size=(3, 3), stride=(1, 1), padding=(1, 1), padding_mode=reflect)
        (1): ReLU(inplace=True)
        (2): ReflectionPad2d((1, 1, 1, 1))
        (3): Conv2d(35, 35, kernel_size=(3, 3), stride=(1, 1))
      )
      (resm4): Sequential(
        (0): Conv2d(35, 35, kernel_size=(3, 3), stride=(1, 1), padding=(1, 1), padding_mode=reflect)
        (1): ReLU(inplace=True)
        (2): ReflectionPad2d((1, 1, 1, 1))
        (3): Conv2d(35, 35, kernel_size=(3, 3), stride=(1, 1))
      )
    )
    (4): Rnet(
      (relu): ReLU(inplace=True)
      (resm1): Sequential(
        (0): Conv2d(35, 35, kernel_size=(3, 3), stride=(1, 1), padding=(1, 1), padding_mode=reflect)
        (1): ReLU(inplace=True)
        (2): ReflectionPad2d((1, 1, 1, 1))
        (3): Conv2d(35, 35, kernel_size=(3, 3), stride=(1, 1))
      )
      (resm2): Sequential(
        (0): Conv2d(35, 35, kernel_size=(3, 3), stride=(1, 1), padding=(1, 1), padding_mode=reflect)
        (1): ReLU(inplace=True)
        (2): ReflectionPad2d((1, 1, 1, 1))
        (3): Conv2d(35, 35, kernel_size=(3, 3), stride=(1, 1))
      )
      (resm3): Sequential(
        (0): Conv2d(35, 35, kernel_size=(3, 3), stride=(1, 1), padding=(1, 1), padding_mode=reflect)
        (1): ReLU(inplace=True)
        (2): ReflectionPad2d((1, 1, 1, 1))
        (3): Conv2d(35, 35, kernel_size=(3, 3), stride=(1, 1))
      )
      (resm4): Sequential(
        (0): Conv2d(35, 35, kernel_size=(3, 3), stride=(1, 1), padding=(1, 1), padding_mode=reflect)
        (1): ReLU(inplace=True)
        (2): ReflectionPad2d((1, 1, 1, 1))
        (3): Conv2d(35, 35, kernel_size=(3, 3), stride=(1, 1))
      )
    )
    (5): Rnet(
      (relu): ReLU(inplace=True)
      (resm1): Sequential(
        (0): Conv2d(35, 35, kernel_size=(3, 3), stride=(1, 1), padding=(1, 1), padding_mode=reflect)
        (1): ReLU(inplace=True)
        (2): ReflectionPad2d((1, 1, 1, 1))
        (3): Conv2d(35, 35, kernel_size=(3, 3), stride=(1, 1))
      )
      (resm2): Sequential(
        (0): Conv2d(35, 35, kernel_size=(3, 3), stride=(1, 1), padding=(1, 1), padding_mode=reflect)
        (1): ReLU(inplace=True)
        (2): ReflectionPad2d((1, 1, 1, 1))
        (3): Conv2d(35, 35, kernel_size=(3, 3), stride=(1, 1))
      )
      (resm3): Sequential(
        (0): Conv2d(35, 35, kernel_size=(3, 3), stride=(1, 1), padding=(1, 1), padding_mode=reflect)
        (1): ReLU(inplace=True)
        (2): ReflectionPad2d((1, 1, 1, 1))
        (3): Conv2d(35, 35, kernel_size=(3, 3), stride=(1, 1))
      )
      (resm4): Sequential(
        (0): Conv2d(35, 35, kernel_size=(3, 3), stride=(1, 1), padding=(1, 1), padding_mode=reflect)
        (1): ReLU(inplace=True)
        (2): ReflectionPad2d((1, 1, 1, 1))
        (3): Conv2d(35, 35, kernel_size=(3, 3), stride=(1, 1))
      )
    )
    (6): Rnet(
      (relu): ReLU(inplace=True)
      (resm1): Sequential(
        (0): Conv2d(35, 35, kernel_size=(3, 3), stride=(1, 1), padding=(1, 1), padding_mode=reflect)
        (1): ReLU(inplace=True)
        (2): ReflectionPad2d((1, 1, 1, 1))
        (3): Conv2d(35, 35, kernel_size=(3, 3), stride=(1, 1))
      )
      (resm2): Sequential(
        (0): Conv2d(35, 35, kernel_size=(3, 3), stride=(1, 1), padding=(1, 1), padding_mode=reflect)
        (1): ReLU(inplace=True)
        (2): ReflectionPad2d((1, 1, 1, 1))
        (3): Conv2d(35, 35, kernel_size=(3, 3), stride=(1, 1))
      )
      (resm3): Sequential(
        (0): Conv2d(35, 35, kernel_size=(3, 3), stride=(1, 1), padding=(1, 1), padding_mode=reflect)
        (1): ReLU(inplace=True)
        (2): ReflectionPad2d((1, 1, 1, 1))
        (3): Conv2d(35, 35, kernel_size=(3, 3), stride=(1, 1))
      )
      (resm4): Sequential(
        (0): Conv2d(35, 35, kernel_size=(3, 3), stride=(1, 1), padding=(1, 1), padding_mode=reflect)
        (1): ReLU(inplace=True)
        (2): ReflectionPad2d((1, 1, 1, 1))
        (3): Conv2d(35, 35, kernel_size=(3, 3), stride=(1, 1))
      )
    )
    (7): Rnet(
      (relu): ReLU(inplace=True)
      (resm1): Sequential(
        (0): Conv2d(35, 35, kernel_size=(3, 3), stride=(1, 1), padding=(1, 1), padding_mode=reflect)
        (1): ReLU(inplace=True)
        (2): ReflectionPad2d((1, 1, 1, 1))
        (3): Conv2d(35, 35, kernel_size=(3, 3), stride=(1, 1))
      )
      (resm2): Sequential(
        (0): Conv2d(35, 35, kernel_size=(3, 3), stride=(1, 1), padding=(1, 1), padding_mode=reflect)
        (1): ReLU(inplace=True)
        (2): ReflectionPad2d((1, 1, 1, 1))
        (3): Conv2d(35, 35, kernel_size=(3, 3), stride=(1, 1))
      )
      (resm3): Sequential(
        (0): Conv2d(35, 35, kernel_size=(3, 3), stride=(1, 1), padding=(1, 1), padding_mode=reflect)
        (1): ReLU(inplace=True)
        (2): ReflectionPad2d((1, 1, 1, 1))
        (3): Conv2d(35, 35, kernel_size=(3, 3), stride=(1, 1))
      )
      (resm4): Sequential(
        (0): Conv2d(35, 35, kernel_size=(3, 3), stride=(1, 1), padding=(1, 1), padding_mode=reflect)
        (1): ReLU(inplace=True)
        (2): ReflectionPad2d((1, 1, 1, 1))
        (3): Conv2d(35, 35, kernel_size=(3, 3), stride=(1, 1))
      )
    )
    (8): Rnet(
      (relu): ReLU(inplace=True)
      (resm1): Sequential(
        (0): Conv2d(35, 35, kernel_size=(3, 3), stride=(1, 1), padding=(1, 1), padding_mode=reflect)
        (1): ReLU(inplace=True)
        (2): ReflectionPad2d((1, 1, 1, 1))
        (3): Conv2d(35, 35, kernel_size=(3, 3), stride=(1, 1))
      )
      (resm2): Sequential(
        (0): Conv2d(35, 35, kernel_size=(3, 3), stride=(1, 1), padding=(1, 1), padding_mode=reflect)
        (1): ReLU(inplace=True)
        (2): ReflectionPad2d((1, 1, 1, 1))
        (3): Conv2d(35, 35, kernel_size=(3, 3), stride=(1, 1))
      )
      (resm3): Sequential(
        (0): Conv2d(35, 35, kernel_size=(3, 3), stride=(1, 1), padding=(1, 1), padding_mode=reflect)
        (1): ReLU(inplace=True)
        (2): ReflectionPad2d((1, 1, 1, 1))
        (3): Conv2d(35, 35, kernel_size=(3, 3), stride=(1, 1))
      )
      (resm4): Sequential(
        (0): Conv2d(35, 35, kernel_size=(3, 3), stride=(1, 1), padding=(1, 1), padding_mode=reflect)
        (1): ReLU(inplace=True)
        (2): ReflectionPad2d((1, 1, 1, 1))
        (3): Conv2d(35, 35, kernel_size=(3, 3), stride=(1, 1))
      )
    )
    (9): Rnet(
      (relu): ReLU(inplace=True)
      (resm1): Sequential(
        (0): Conv2d(35, 35, kernel_size=(3, 3), stride=(1, 1), padding=(1, 1), padding_mode=reflect)
        (1): ReLU(inplace=True)
        (2): ReflectionPad2d((1, 1, 1, 1))
        (3): Conv2d(35, 35, kernel_size=(3, 3), stride=(1, 1))
      )
      (resm2): Sequential(
        (0): Conv2d(35, 35, kernel_size=(3, 3), stride=(1, 1), padding=(1, 1), padding_mode=reflect)
        (1): ReLU(inplace=True)
        (2): ReflectionPad2d((1, 1, 1, 1))
        (3): Conv2d(35, 35, kernel_size=(3, 3), stride=(1, 1))
      )
      (resm3): Sequential(
        (0): Conv2d(35, 35, kernel_size=(3, 3), stride=(1, 1), padding=(1, 1), padding_mode=reflect)
        (1): ReLU(inplace=True)
        (2): ReflectionPad2d((1, 1, 1, 1))
        (3): Conv2d(35, 35, kernel_size=(3, 3), stride=(1, 1))
      )
      (resm4): Sequential(
        (0): Conv2d(35, 35, kernel_size=(3, 3), stride=(1, 1), padding=(1, 1), padding_mode=reflect)
        (1): ReLU(inplace=True)
        (2): ReflectionPad2d((1, 1, 1, 1))
        (3): Conv2d(35, 35, kernel_size=(3, 3), stride=(1, 1))
      )
    )
    (10): Rnet(
      (relu): ReLU(inplace=True)
      (resm1): Sequential(
        (0): Conv2d(35, 35, kernel_size=(3, 3), stride=(1, 1), padding=(1, 1), padding_mode=reflect)
        (1): ReLU(inplace=True)
        (2): ReflectionPad2d((1, 1, 1, 1))
        (3): Conv2d(35, 35, kernel_size=(3, 3), stride=(1, 1))
      )
      (resm2): Sequential(
        (0): Conv2d(35, 35, kernel_size=(3, 3), stride=(1, 1), padding=(1, 1), padding_mode=reflect)
        (1): ReLU(inplace=True)
        (2): ReflectionPad2d((1, 1, 1, 1))
        (3): Conv2d(35, 35, kernel_size=(3, 3), stride=(1, 1))
      )
      (resm3): Sequential(
        (0): Conv2d(35, 35, kernel_size=(3, 3), stride=(1, 1), padding=(1, 1), padding_mode=reflect)
        (1): ReLU(inplace=True)
        (2): ReflectionPad2d((1, 1, 1, 1))
        (3): Conv2d(35, 35, kernel_size=(3, 3), stride=(1, 1))
      )
      (resm4): Sequential(
        (0): Conv2d(35, 35, kernel_size=(3, 3), stride=(1, 1), padding=(1, 1), padding_mode=reflect)
        (1): ReLU(inplace=True)
        (2): ReflectionPad2d((1, 1, 1, 1))
        (3): Conv2d(35, 35, kernel_size=(3, 3), stride=(1, 1))
      )
    )
    (11): Rnet(
      (relu): ReLU(inplace=True)
      (resm1): Sequential(
        (0): Conv2d(35, 35, kernel_size=(3, 3), stride=(1, 1), padding=(1, 1), padding_mode=reflect)
        (1): ReLU(inplace=True)
        (2): ReflectionPad2d((1, 1, 1, 1))
        (3): Conv2d(35, 35, kernel_size=(3, 3), stride=(1, 1))
      )
      (resm2): Sequential(
        (0): Conv2d(35, 35, kernel_size=(3, 3), stride=(1, 1), padding=(1, 1), padding_mode=reflect)
        (1): ReLU(inplace=True)
        (2): ReflectionPad2d((1, 1, 1, 1))
        (3): Conv2d(35, 35, kernel_size=(3, 3), stride=(1, 1))
      )
      (resm3): Sequential(
        (0): Conv2d(35, 35, kernel_size=(3, 3), stride=(1, 1), padding=(1, 1), padding_mode=reflect)
        (1): ReLU(inplace=True)
        (2): ReflectionPad2d((1, 1, 1, 1))
        (3): Conv2d(35, 35, kernel_size=(3, 3), stride=(1, 1))
      )
      (resm4): Sequential(
        (0): Conv2d(35, 35, kernel_size=(3, 3), stride=(1, 1), padding=(1, 1), padding_mode=reflect)
        (1): ReLU(inplace=True)
        (2): ReflectionPad2d((1, 1, 1, 1))
        (3): Conv2d(35, 35, kernel_size=(3, 3), stride=(1, 1))
      )
    )
    (12): Rnet(
      (relu): ReLU(inplace=True)
      (resm1): Sequential(
        (0): Conv2d(35, 35, kernel_size=(3, 3), stride=(1, 1), padding=(1, 1), padding_mode=reflect)
        (1): ReLU(inplace=True)
        (2): ReflectionPad2d((1, 1, 1, 1))
        (3): Conv2d(35, 35, kernel_size=(3, 3), stride=(1, 1))
      )
      (resm2): Sequential(
        (0): Conv2d(35, 35, kernel_size=(3, 3), stride=(1, 1), padding=(1, 1), padding_mode=reflect)
        (1): ReLU(inplace=True)
        (2): ReflectionPad2d((1, 1, 1, 1))
        (3): Conv2d(35, 35, kernel_size=(3, 3), stride=(1, 1))
      )
      (resm3): Sequential(
        (0): Conv2d(35, 35, kernel_size=(3, 3), stride=(1, 1), padding=(1, 1), padding_mode=reflect)
        (1): ReLU(inplace=True)
        (2): ReflectionPad2d((1, 1, 1, 1))
        (3): Conv2d(35, 35, kernel_size=(3, 3), stride=(1, 1))
      )
      (resm4): Sequential(
        (0): Conv2d(35, 35, kernel_size=(3, 3), stride=(1, 1), padding=(1, 1), padding_mode=reflect)
        (1): ReLU(inplace=True)
        (2): ReflectionPad2d((1, 1, 1, 1))
        (3): Conv2d(35, 35, kernel_size=(3, 3), stride=(1, 1))
      )
    )
  )
  (conv_l): Conv2d(1, 29, kernel_size=(3, 3), stride=(1, 1), padding=(1, 1), padding_mode=reflect)
  (conv_r): Conv2d(3, 32, kernel_size=(3, 3), stride=(1, 1), padding=(1, 1), padding_mode=reflect)
)
Mainnet(
  (renet): Renet(
    (relu): ReLU(inplace=True)
    (res1): Sequential(
      (0): Conv2d(4, 32, kernel_size=(3, 3), stride=(1, 1), padding=(1, 1), padding_mode=reflect)
      (1): ReLU()
      (2): Conv2d(32, 4, kernel_size=(3, 3), stride=(1, 1), padding=(1, 1), padding_mode=reflect)
    )
    (res2): Sequential(
      (0): Conv2d(4, 32, kernel_size=(3, 3), stride=(1, 1), padding=(1, 1), padding_mode=reflect)
      (1): ReLU()
      (2): Conv2d(32, 4, kernel_size=(3, 3), stride=(1, 1), padding=(1, 1), padding_mode=reflect)
    )
    (res3): Sequential(
      (0): Conv2d(4, 32, kernel_size=(3, 3), stride=(1, 1), padding=(1, 1), padding_mode=reflect)
      (1): ReLU()
      (2): Conv2d(32, 4, kernel_size=(3, 3), stride=(1, 1), padding=(1, 1), padding_mode=reflect)
    )
    (res4): Sequential(
      (0): Conv2d(4, 32, kernel_size=(3, 3), stride=(1, 1), padding=(1, 1), padding_mode=reflect)
      (1): ReLU()
      (2): Conv2d(32, 4, kernel_size=(3, 3), stride=(1, 1), padding=(1, 1), padding_mode=reflect)
    )
  )
  (lenet): Lenet(
    (relu): ReLU(inplace=True)
    (res1): Sequential(
      (0): Conv2d(1, 32, kernel_size=(3, 3), stride=(1, 1), padding=(1, 1), padding_mode=reflect)
      (1): ReLU(inplace=True)
      (2): Conv2d(32, 1, kernel_size=(3, 3), stride=(1, 1), padding=(1, 1), padding_mode=reflect)
    )
    (res2): Sequential(
      (0): Conv2d(1, 32, kernel_size=(3, 3), stride=(1, 1), padding=(1, 1), padding_mode=reflect)
      (1): ReLU(inplace=True)
      (2): Conv2d(32, 1, kernel_size=(3, 3), stride=(1, 1), padding=(1, 1), padding_mode=reflect)
    )
    (scale): Sequential(
      (0): Linear(in_features=1, out_features=100, bias=True)
      (1): ReLU(inplace=True)
      (2): Linear(in_features=100, out_features=1, bias=True)
      (3): Sigmoid()
    )
  )
  (scale): Scale(
    (conv1): Sequential(
      (0): Conv2d(3, 64, kernel_size=(3, 3), stride=(1, 1), padding=(1, 1), padding_mode=reflect)
      (1): LeakyReLU(negative_slope=0.01, inplace=True)
      (2): Conv2d(64, 1, kernel_size=(1, 1), stride=(1, 1), padding_mode=reflect)
      (3): Sigmoid()
    )
  )
)
[Epoch 2]	Learning rate: 1.00e-5
[Epoch 2]	Learning rate of rec: 1.00e-3
[500/9000]	[VGG22: 0.0037]	26.4+0.2s
[1000/9000]	[VGG22: 0.0030]	26.0+0.2s
[1500/9000]	[VGG22: 0.0027]	26.0+0.2s
[2000/9000]	[VGG22: 0.0025]	26.1+0.2s
[2500/9000]	[VGG22: 0.0023]	26.1+0.2s
[3000/9000]	[VGG22: 0.0021]	26.2+0.2s
[3500/9000]	[VGG22: 0.0020]	26.2+0.2s
…
