Mainnet(
  (lnet): Lnet(
    (conv1): Sequential(
      (0): Conv2d(34, 34, kernel_size=(3, 3), stride=(1, 1), padding=(1, 1), padding_mode=reflect)
      (1): LeakyReLU(negative_slope=0.01, inplace=True)
    )
    (conv2): Sequential(
      (0): Conv2d(66, 34, kernel_size=(1, 1), stride=(1, 1))
    )
  )
  (rnet): Rnet(
    (relu): ReLU(inplace=True)
    (resm1): Sequential(
      (0): Conv2d(35, 35, kernel_size=(3, 3), stride=(1, 1), padding=(1, 1), padding_mode=reflect)
      (1): ReLU(inplace=True)
      (2): ReflectionPad2d((1, 1, 1, 1))
      (3): Conv2d(35, 35, kernel_size=(3, 3), stride=(1, 1))
    )
    (resm2): Sequential(
      (0): Conv2d(35, 35, kernel_size=(3, 3), stride=(1, 1), padding=(1, 1), padding_mode=reflect)
      (1): ReLU(inplace=True)
      (2): ReflectionPad2d((1, 1, 1, 1))
      (3): Conv2d(35, 35, kernel_size=(3, 3), stride=(1, 1))
    )
    (resm3): Sequential(
      (0): Conv2d(35, 35, kernel_size=(3, 3), stride=(1, 1), padding=(1, 1), padding_mode=reflect)
      (1): ReLU(inplace=True)
      (2): ReflectionPad2d((1, 1, 1, 1))
      (3): Conv2d(35, 35, kernel_size=(3, 3), stride=(1, 1))
    )
    (resm4): Sequential(
      (0): Conv2d(35, 35, kernel_size=(3, 3), stride=(1, 1), padding=(1, 1), padding_mode=reflect)
      (1): ReLU(inplace=True)
      (2): ReflectionPad2d((1, 1, 1, 1))
      (3): Conv2d(35, 35, kernel_size=(3, 3), stride=(1, 1))
    )
  )
  (l_stage): Sequential(
    (0): Lnet(
      (conv1): Sequential(
        (0): Conv2d(34, 34, kernel_size=(3, 3), stride=(1, 1), padding=(1, 1), padding_mode=reflect)
        (1): LeakyReLU(negative_slope=0.01, inplace=True)
      )
      (conv2): Sequential(
        (0): Conv2d(66, 34, kernel_size=(1, 1), stride=(1, 1))
      )
    )
    (1): Lnet(
      (conv1): Sequential(
        (0): Conv2d(34, 34, kernel_size=(3, 3), stride=(1, 1), padding=(1, 1), padding_mode=reflect)
        (1): LeakyReLU(negative_slope=0.01, inplace=True)
      )
      (conv2): Sequential(
        (0): Conv2d(66, 34, kernel_size=(1, 1), stride=(1, 1))
      )
    )
    (2): Lnet(
      (conv1): Sequential(
        (0): Conv2d(34, 34, kernel_size=(3, 3), stride=(1, 1), padding=(1, 1), padding_mode=reflect)
        (1): LeakyReLU(negative_slope=0.01, inplace=True)
      )
      (conv2): Sequential(
        (0): Conv2d(66, 34, kernel_size=(1, 1), stride=(1, 1))
      )
    )
    (3): Lnet(
      (conv1): Sequential(
        (0): Conv2d(34, 34, kernel_size=(3, 3), stride=(1, 1), padding=(1, 1), padding_mode=reflect)
        (1): LeakyReLU(negative_slope=0.01, inplace=True)
      )
      (conv2): Sequential(
        (0): Conv2d(66, 34, kernel_size=(1, 1), stride=(1, 1))
      )
    )
    (4): Lnet(
      (conv1): Sequential(
        (0): Conv2d(34, 34, kernel_size=(3, 3), stride=(1, 1), padding=(1, 1), padding_mode=reflect)
        (1): LeakyReLU(negative_slope=0.01, inplace=True)
      )
      (conv2): Sequential(
        (0): Conv2d(66, 34, kernel_size=(1, 1), stride=(1, 1))
      )
    )
    (5): Lnet(
      (conv1): Sequential(
        (0): Conv2d(34, 34, kernel_size=(3, 3), stride=(1, 1), padding=(1, 1), padding_mode=reflect)
        (1): LeakyReLU(negative_slope=0.01, inplace=True)
      )
      (conv2): Sequential(
        (0): Conv2d(66, 34, kernel_size=(1, 1), stride=(1, 1))
      )
    )
    (6): Lnet(
      (conv1): Sequential(
        (0): Conv2d(34, 34, kernel_size=(3, 3), stride=(1, 1), padding=(1, 1), padding_mode=reflect)
        (1): LeakyReLU(negative_slope=0.01, inplace=True)
      )
      (conv2): Sequential(
        (0): Conv2d(66, 34, kernel_size=(1, 1), stride=(1, 1))
      )
    )
    (7): Lnet(
      (conv1): Sequential(
        (0): Conv2d(34, 34, kernel_size=(3, 3), stride=(1, 1), padding=(1, 1), padding_mode=reflect)
        (1): LeakyReLU(negative_slope=0.01, inplace=True)
      )
      (conv2): Sequential(
        (0): Conv2d(66, 34, kernel_size=(1, 1), stride=(1, 1))
      )
    )
    (8): Lnet(
      (conv1): Sequential(
        (0): Conv2d(34, 34, kernel_size=(3, 3), stride=(1, 1), padding=(1, 1), padding_mode=reflect)
        (1): LeakyReLU(negative_slope=0.01, inplace=True)
      )
      (conv2): Sequential(
        (0): Conv2d(66, 34, kernel_size=(1, 1), stride=(1, 1))
      )
    )
    (9): Lnet(
      (conv1): Sequential(
        (0): Conv2d(34, 34, kernel_size=(3, 3), stride=(1, 1), padding=(1, 1), padding_mode=reflect)
        (1): LeakyReLU(negative_slope=0.01, inplace=True)
      )
      (conv2): Sequential(
        (0): Conv2d(66, 34, kernel_size=(1, 1), stride=(1, 1))
      )
    )
    (10): Lnet(
      (conv1): Sequential(
        (0): Conv2d(34, 34, kernel_size=(3, 3), stride=(1, 1), padding=(1, 1), padding_mode=reflect)
        (1): LeakyReLU(negative_slope=0.01, inplace=True)
      )
      (conv2): Sequential(
        (0): Conv2d(66, 34, kernel_size=(1, 1), stride=(1, 1))
      )
    )
    (11): Lnet(
      (conv1): Sequential(
        (0): Conv2d(34, 34, kernel_size=(3, 3), stride=(1, 1), padding=(1, 1), padding_mode=reflect)
        (1): LeakyReLU(negative_slope=0.01, inplace=True)
      )
      (conv2): Sequential(
        (0): Conv2d(66, 34, kernel_size=(1, 1), stride=(1, 1))
      )
    )
    (12): Lnet(
      (conv1): Sequential(
        (0): Conv2d(34, 34, kernel_size=(3, 3), stride=(1, 1), padding=(1, 1), padding_mode=reflect)
        (1): LeakyReLU(negative_slope=0.01, inplace=True)
      )
      (conv2): Sequential(
        (0): Conv2d(66, 34, kernel_size=(1, 1), stride=(1, 1))
      )
    )
  )
  (r_stage): Sequential(
    (0): Rnet(
      (relu): ReLU(inplace=True)
      (resm1): Sequential(
        (0): Conv2d(35, 35, kernel_size=(3, 3), stride=(1, 1), padding=(1, 1), padding_mode=reflect)
        (1): ReLU(inplace=True)
        (2): ReflectionPad2d((1, 1, 1, 1))
        (3): Conv2d(35, 35, kernel_size=(3, 3), stride=(1, 1))
      )
      (resm2): Sequential(
        (0): Conv2d(35, 35, kernel_size=(3, 3), stride=(1, 1), padding=(1, 1), padding_mode=reflect)
        (1): ReLU(inplace=True)
        (2): ReflectionPad2d((1, 1, 1, 1))
        (3): Conv2d(35, 35, kernel_size=(3, 3), stride=(1, 1))
      )
      (resm3): Sequential(
        (0): Conv2d(35, 35, kernel_size=(3, 3), stride=(1, 1), padding=(1, 1), padding_mode=reflect)
        (1): ReLU(inplace=True)
        (2): ReflectionPad2d((1, 1, 1, 1))
        (3): Conv2d(35, 35, kernel_size=(3, 3), stride=(1, 1))
      )
      (resm4): Sequential(
        (0): Conv2d(35, 35, kernel_size=(3, 3), stride=(1, 1), padding=(1, 1), padding_mode=reflect)
        (1): ReLU(inplace=True)
        (2): ReflectionPad2d((1, 1, 1, 1))
        (3): Conv2d(35, 35, kernel_size=(3, 3), stride=(1, 1))
      )
    )
    (1): Rnet(
      (relu): ReLU(inplace=True)
      (resm1): Sequential(
        (0): Conv2d(35, 35, kernel_size=(3, 3), stride=(1, 1), padding=(1, 1), padding_mode=reflect)
        (1): ReLU(inplace=True)
        (2): ReflectionPad2d((1, 1, 1, 1))
        (3): Conv2d(35, 35, kernel_size=(3, 3), stride=(1, 1))
      )
      (resm2): Sequential(
        (0): Conv2d(35, 35, kernel_size=(3, 3), stride=(1, 1), padding=(1, 1), padding_mode=reflect)
        (1): ReLU(inplace=True)
        (2): ReflectionPad2d((1, 1, 1, 1))
        (3): Conv2d(35, 35, kernel_size=(3, 3), stride=(1, 1))
      )
      (resm3): Sequential(
        (0): Conv2d(35, 35, kernel_size=(3, 3), stride=(1, 1), padding=(1, 1), padding_mode=reflect)
        (1): ReLU(inplace=True)
        (2): ReflectionPad2d((1, 1, 1, 1))
        (3): Conv2d(35, 35, kernel_size=(3, 3), stride=(1, 1))
      )
      (resm4): Sequential(
        (0): Conv2d(35, 35, kernel_size=(3, 3), stride=(1, 1), padding=(1, 1), padding_mode=reflect)
        (1): ReLU(inplace=True)
        (2): ReflectionPad2d((1, 1, 1, 1))
        (3): Conv2d(35, 35, kernel_size=(3, 3), stride=(1, 1))
      )
    )
    (2): Rnet(
      (relu): ReLU(inplace=True)
      (resm1): Sequential(
        (0): Conv2d(35, 35, kernel_size=(3, 3), stride=(1, 1), padding=(1, 1), padding_mode=reflect)
        (1): ReLU(inplace=True)
        (2): ReflectionPad2d((1, 1, 1, 1))
        (3): Conv2d(35, 35, kernel_size=(3, 3), stride=(1, 1))
      )
      (resm2): Sequential(
        (0): Conv2d(35, 35, kernel_size=(3, 3), stride=(1, 1), padding=(1, 1), padding_mode=reflect)
        (1): ReLU(inplace=True)
        (2): ReflectionPad2d((1, 1, 1, 1))
        (3): Conv2d(35, 35, kernel_size=(3, 3), stride=(1, 1))
      )
      (resm3): Sequential(
        (0): Conv2d(35, 35, kernel_size=(3, 3), stride=(1, 1), padding=(1, 1), padding_mode=reflect)
        (1): ReLU(inplace=True)
        (2): ReflectionPad2d((1, 1, 1, 1))
        (3): Conv2d(35, 35, kernel_size=(3, 3), stride=(1, 1))
      )
      (resm4): Sequential(
        (0): Conv2d(35, 35, kernel_size=(3, 3), stride=(1, 1), padding=(1, 1), padding_mode=reflect)
        (1): ReLU(inplace=True)
        (2): ReflectionPad2d((1, 1, 1, 1))
        (3): Conv2d(35, 35, kernel_size=(3, 3), stride=(1, 1))
      )
    )
    (3): Rnet(
      (relu): ReLU(inplace=True)
      (resm1): Sequential(
        (0): Conv2d(35, 35, kernel_size=(3, 3), stride=(1, 1), padding=(1, 1), padding_mode=reflect)
        (1): ReLU(inplace=True)
        (2): ReflectionPad2d((1, 1, 1, 1))
        (3): Conv2d(35, 35, kernel_size=(3, 3), stride=(1, 1))
      )
      (resm2): Sequential(
        (0): Conv2d(35, 35, kernel_size=(3, 3), stride=(1, 1), padding=(1, 1), padding_mode=reflect)
        (1): ReLU(inplace=True)
        (2): ReflectionPad2d((1, 1, 1, 1))
        (3): Conv2d(35, 35, kernel_size=(3, 3), stride=(1, 1))
      )
      (resm3): Sequential(
        (0): Conv2d(35, 35, kernel_size=(3, 3), stride=(1, 1), padding=(1, 1), padding_mode=reflect)
        (1): ReLU(inplace=True)
        (2): ReflectionPad2d((1, 1, 1, 1))
        (3): Conv2d(35, 35, kernel_size=(3, 3), stride=(1, 1))
      )
      (resm4): Sequential(
        (0): Conv2d(35, 35, kernel_size=(3, 3), stride=(1, 1), padding=(1, 1), padding_mode=reflect)
        (1): ReLU(inplace=True)
        (2): ReflectionPad2d((1, 1, 1, 1))
        (3): Conv2d(35, 35, kernel_size=(3, 3), stride=(1, 1))
      )
    )
    (4): Rnet(
      (relu): ReLU(inplace=True)
      (resm1): Sequential(
        (0): Conv2d(35, 35, kernel_size=(3, 3), stride=(1, 1), padding=(1, 1), padding_mode=reflect)
        (1): ReLU(inplace=True)
        (2): ReflectionPad2d((1, 1, 1, 1))
        (3): Conv2d(35, 35, kernel_size=(3, 3), stride=(1, 1))
      )
      (resm2): Sequential(
        (0): Conv2d(35, 35, kernel_size=(3, 3), stride=(1, 1), padding=(1, 1), padding_mode=reflect)
        (1): ReLU(inplace=True)
        (2): ReflectionPad2d((1, 1, 1, 1))
        (3): Conv2d(35, 35, kernel_size=(3, 3), stride=(1, 1))
      )
      (resm3): Sequential(
        (0): Conv2d(35, 35, kernel_size=(3, 3), stride=(1, 1), padding=(1, 1), padding_mode=reflect)
        (1): ReLU(inplace=True)
        (2): ReflectionPad2d((1, 1, 1, 1))
        (3): Conv2d(35, 35, kernel_size=(3, 3), stride=(1, 1))
      )
      (resm4): Sequential(
        (0): Conv2d(35, 35, kernel_size=(3, 3), stride=(1, 1), padding=(1, 1), padding_mode=reflect)
        (1): ReLU(inplace=True)
        (2): ReflectionPad2d((1, 1, 1, 1))
        (3): Conv2d(35, 35, kernel_size=(3, 3), stride=(1, 1))
      )
    )
    (5): Rnet(
      (relu): ReLU(inplace=True)
      (resm1): Sequential(
        (0): Conv2d(35, 35, kernel_size=(3, 3), stride=(1, 1), padding=(1, 1), padding_mode=reflect)
        (1): ReLU(inplace=True)
        (2): ReflectionPad2d((1, 1, 1, 1))
        (3): Conv2d(35, 35, kernel_size=(3, 3), stride=(1, 1))
      )
      (resm2): Sequential(
        (0): Conv2d(35, 35, kernel_size=(3, 3), stride=(1, 1), padding=(1, 1), padding_mode=reflect)
        (1): ReLU(inplace=True)
        (2): ReflectionPad2d((1, 1, 1, 1))
        (3): Conv2d(35, 35, kernel_size=(3, 3), stride=(1, 1))
      )
      (resm3): Sequential(
        (0): Conv2d(35, 35, kernel_size=(3, 3), stride=(1, 1), padding=(1, 1), padding_mode=reflect)
        (1): ReLU(inplace=True)
        (2): ReflectionPad2d((1, 1, 1, 1))
        (3): Conv2d(35, 35, kernel_size=(3, 3), stride=(1, 1))
      )
      (resm4): Sequential(
        (0): Conv2d(35, 35, kernel_size=(3, 3), stride=(1, 1), padding=(1, 1), padding_mode=reflect)
        (1): ReLU(inplace=True)
        (2): ReflectionPad2d((1, 1, 1, 1))
        (3): Conv2d(35, 35, kernel_size=(3, 3), stride=(1, 1))
      )
    )
    (6): Rnet(
      (relu): ReLU(inplace=True)
      (resm1): Sequential(
        (0): Conv2d(35, 35, kernel_size=(3, 3), stride=(1, 1), padding=(1, 1), padding_mode=reflect)
        (1): ReLU(inplace=True)
        (2): ReflectionPad2d((1, 1, 1, 1))
        (3): Conv2d(35, 35, kernel_size=(3, 3), stride=(1, 1))
      )
      (resm2): Sequential(
        (0): Conv2d(35, 35, kernel_size=(3, 3), stride=(1, 1), padding=(1, 1), padding_mode=reflect)
        (1): ReLU(inplace=True)
        (2): ReflectionPad2d((1, 1, 1, 1))
        (3): Conv2d(35, 35, kernel_size=(3, 3), stride=(1, 1))
      )
      (resm3): Sequential(
        (0): Conv2d(35, 35, kernel_size=(3, 3), stride=(1, 1), padding=(1, 1), padding_mode=reflect)
        (1): ReLU(inplace=True)
        (2): ReflectionPad2d((1, 1, 1, 1))
        (3): Conv2d(35, 35, kernel_size=(3, 3), stride=(1, 1))
      )
      (resm4): Sequential(
        (0): Conv2d(35, 35, kernel_size=(3, 3), stride=(1, 1), padding=(1, 1), padding_mode=reflect)
        (1): ReLU(inplace=True)
        (2): ReflectionPad2d((1, 1, 1, 1))
        (3): Conv2d(35, 35, kernel_size=(3, 3), stride=(1, 1))
      )
    )
    (7): Rnet(
      (relu): ReLU(inplace=True)
      (resm1): Sequential(
        (0): Conv2d(35, 35, kernel_size=(3, 3), stride=(1, 1), padding=(1, 1), padding_mode=reflect)
        (1): ReLU(inplace=True)
        (2): ReflectionPad2d((1, 1, 1, 1))
        (3): Conv2d(35, 35, kernel_size=(3, 3), stride=(1, 1))
      )
      (resm2): Sequential(
        (0): Conv2d(35, 35, kernel_size=(3, 3), stride=(1, 1), padding=(1, 1), padding_mode=reflect)
        (1): ReLU(inplace=True)
        (2): ReflectionPad2d((1, 1, 1, 1))
        (3): Conv2d(35, 35, kernel_size=(3, 3), stride=(1, 1))
      )
      (resm3): Sequential(
        (0): Conv2d(35, 35, kernel_size=(3, 3), stride=(1, 1), padding=(1, 1), padding_mode=reflect)
        (1): ReLU(inplace=True)
        (2): ReflectionPad2d((1, 1, 1, 1))
        (3): Conv2d(35, 35, kernel_size=(3, 3), stride=(1, 1))
      )
      (resm4): Sequential(
        (0): Conv2d(35, 35, kernel_size=(3, 3), stride=(1, 1), padding=(1, 1), padding_mode=reflect)
        (1): ReLU(inplace=True)
        (2): ReflectionPad2d((1, 1, 1, 1))
        (3): Conv2d(35, 35, kernel_size=(3, 3), stride=(1, 1))
      )
    )
    (8): Rnet(
      (relu): ReLU(inplace=True)
      (resm1): Sequential(
        (0): Conv2d(35, 35, kernel_size=(3, 3), stride=(1, 1), padding=(1, 1), padding_mode=reflect)
        (1): ReLU(inplace=True)
        (2): ReflectionPad2d((1, 1, 1, 1))
        (3): Conv2d(35, 35, kernel_size=(3, 3), stride=(1, 1))
      )
      (resm2): Sequential(
        (0): Conv2d(35, 35, kernel_size=(3, 3), stride=(1, 1), padding=(1, 1), padding_mode=reflect)
        (1): ReLU(inplace=True)
        (2): ReflectionPad2d((1, 1, 1, 1))
        (3): Conv2d(35, 35, kernel_size=(3, 3), stride=(1, 1))
      )
      (resm3): Sequential(
        (0): Conv2d(35, 35, kernel_size=(3, 3), stride=(1, 1), padding=(1, 1), padding_mode=reflect)
        (1): ReLU(inplace=True)
        (2): ReflectionPad2d((1, 1, 1, 1))
        (3): Conv2d(35, 35, kernel_size=(3, 3), stride=(1, 1))
      )
      (resm4): Sequential(
        (0): Conv2d(35, 35, kernel_size=(3, 3), stride=(1, 1), padding=(1, 1), padding_mode=reflect)
        (1): ReLU(inplace=True)
        (2): ReflectionPad2d((1, 1, 1, 1))
        (3): Conv2d(35, 35, kernel_size=(3, 3), stride=(1, 1))
      )
    )
    (9): Rnet(
      (relu): ReLU(inplace=True)
      (resm1): Sequential(
        (0): Conv2d(35, 35, kernel_size=(3, 3), stride=(1, 1), padding=(1, 1), padding_mode=reflect)
        (1): ReLU(inplace=True)
        (2): ReflectionPad2d((1, 1, 1, 1))
        (3): Conv2d(35, 35, kernel_size=(3, 3), stride=(1, 1))
      )
      (resm2): Sequential(
        (0): Conv2d(35, 35, kernel_size=(3, 3), stride=(1, 1), padding=(1, 1), padding_mode=reflect)
        (1): ReLU(inplace=True)
        (2): ReflectionPad2d((1, 1, 1, 1))
        (3): Conv2d(35, 35, kernel_size=(3, 3), stride=(1, 1))
      )
      (resm3): Sequential(
        (0): Conv2d(35, 35, kernel_size=(3, 3), stride=(1, 1), padding=(1, 1), padding_mode=reflect)
        (1): ReLU(inplace=True)
        (2): ReflectionPad2d((1, 1, 1, 1))
        (3): Conv2d(35, 35, kernel_size=(3, 3), stride=(1, 1))
      )
      (resm4): Sequential(
        (0): Conv2d(35, 35, kernel_size=(3, 3), stride=(1, 1), padding=(1, 1), padding_mode=reflect)
        (1): ReLU(inplace=True)
        (2): ReflectionPad2d((1, 1, 1, 1))
        (3): Conv2d(35, 35, kernel_size=(3, 3), stride=(1, 1))
      )
    )
    (10): Rnet(
      (relu): ReLU(inplace=True)
      (resm1): Sequential(
        (0): Conv2d(35, 35, kernel_size=(3, 3), stride=(1, 1), padding=(1, 1), padding_mode=reflect)
        (1): ReLU(inplace=True)
        (2): ReflectionPad2d((1, 1, 1, 1))
        (3): Conv2d(35, 35, kernel_size=(3, 3), stride=(1, 1))
      )
      (resm2): Sequential(
        (0): Conv2d(35, 35, kernel_size=(3, 3), stride=(1, 1), padding=(1, 1), padding_mode=reflect)
        (1): ReLU(inplace=True)
        (2): ReflectionPad2d((1, 1, 1, 1))
        (3): Conv2d(35, 35, kernel_size=(3, 3), stride=(1, 1))
      )
      (resm3): Sequential(
        (0): Conv2d(35, 35, kernel_size=(3, 3), stride=(1, 1), padding=(1, 1), padding_mode=reflect)
        (1): ReLU(inplace=True)
        (2): ReflectionPad2d((1, 1, 1, 1))
        (3): Conv2d(35, 35, kernel_size=(3, 3), stride=(1, 1))
      )
      (resm4): Sequential(
        (0): Conv2d(35, 35, kernel_size=(3, 3), stride=(1, 1), padding=(1, 1), padding_mode=reflect)
        (1): ReLU(inplace=True)
        (2): ReflectionPad2d((1, 1, 1, 1))
        (3): Conv2d(35, 35, kernel_size=(3, 3), stride=(1, 1))
      )
    )
    (11): Rnet(
      (relu): ReLU(inplace=True)
      (resm1): Sequential(
        (0): Conv2d(35, 35, kernel_size=(3, 3), stride=(1, 1), padding=(1, 1), padding_mode=reflect)
        (1): ReLU(inplace=True)
        (2): ReflectionPad2d((1, 1, 1, 1))
        (3): Conv2d(35, 35, kernel_size=(3, 3), stride=(1, 1))
      )
      (resm2): Sequential(
        (0): Conv2d(35, 35, kernel_size=(3, 3), stride=(1, 1), padding=(1, 1), padding_mode=reflect)
        (1): ReLU(inplace=True)
        (2): ReflectionPad2d((1, 1, 1, 1))
        (3): Conv2d(35, 35, kernel_size=(3, 3), stride=(1, 1))
      )
      (resm3): Sequential(
        (0): Conv2d(35, 35, kernel_size=(3, 3), stride=(1, 1), padding=(1, 1), padding_mode=reflect)
        (1): ReLU(inplace=True)
        (2): ReflectionPad2d((1, 1, 1, 1))
        (3): Conv2d(35, 35, kernel_size=(3, 3), stride=(1, 1))
      )
      (resm4): Sequential(
        (0): Conv2d(35, 35, kernel_size=(3, 3), stride=(1, 1), padding=(1, 1), padding_mode=reflect)
        (1): ReLU(inplace=True)
        (2): ReflectionPad2d((1, 1, 1, 1))
        (3): Conv2d(35, 35, kernel_size=(3, 3), stride=(1, 1))
      )
    )
    (12): Rnet(
      (relu): ReLU(inplace=True)
      (resm1): Sequential(
        (0): Conv2d(35, 35, kernel_size=(3, 3), stride=(1, 1), padding=(1, 1), padding_mode=reflect)
        (1): ReLU(inplace=True)
        (2): ReflectionPad2d((1, 1, 1, 1))
        (3): Conv2d(35, 35, kernel_size=(3, 3), stride=(1, 1))
      )
      (resm2): Sequential(
        (0): Conv2d(35, 35, kernel_size=(3, 3), stride=(1, 1), padding=(1, 1), padding_mode=reflect)
        (1): ReLU(inplace=True)
        (2): ReflectionPad2d((1, 1, 1, 1))
        (3): Conv2d(35, 35, kernel_size=(3, 3), stride=(1, 1))
      )
      (resm3): Sequential(
        (0): Conv2d(35, 35, kernel_size=(3, 3), stride=(1, 1), padding=(1, 1), padding_mode=reflect)
        (1): ReLU(inplace=True)
        (2): ReflectionPad2d((1, 1, 1, 1))
        (3): Conv2d(35, 35, kernel_size=(3, 3), stride=(1, 1))
      )
      (resm4): Sequential(
        (0): Conv2d(35, 35, kernel_size=(3, 3), stride=(1, 1), padding=(1, 1), padding_mode=reflect)
        (1): ReLU(inplace=True)
        (2): ReflectionPad2d((1, 1, 1, 1))
        (3): Conv2d(35, 35, kernel_size=(3, 3), stride=(1, 1))
      )
    )
  )
  (conv_l): Conv2d(1, 29, kernel_size=(3, 3), stride=(1, 1), padding=(1, 1), padding_mode=reflect)
  (conv_r): Conv2d(3, 32, kernel_size=(3, 3), stride=(1, 1), padding=(1, 1), padding_mode=reflect)
)
Mainnet(
  (renet): Renet(
    (relu): ReLU(inplace=True)
    (res1): Sequential(
      (0): Conv2d(4, 32, kernel_size=(3, 3), stride=(1, 1), padding=(1, 1), padding_mode=reflect)
      (1): ReLU()
      (2): Conv2d(32, 4, kernel_size=(3, 3), stride=(1, 1), padding=(1, 1), padding_mode=reflect)
    )
    (res2): Sequential(
      (0): Conv2d(4, 32, kernel_size=(3, 3), stride=(1, 1), padding=(1, 1), padding_mode=reflect)
      (1): ReLU()
      (2): Conv2d(32, 4, kernel_size=(3, 3), stride=(1, 1), padding=(1, 1), padding_mode=reflect)
    )
    (res3): Sequential(
      (0): Conv2d(4, 32, kernel_size=(3, 3), stride=(1, 1), padding=(1, 1), padding_mode=reflect)
      (1): ReLU()
      (2): Conv2d(32, 4, kernel_size=(3, 3), stride=(1, 1), padding=(1, 1), padding_mode=reflect)
    )
    (res4): Sequential(
      (0): Conv2d(4, 32, kernel_size=(3, 3), stride=(1, 1), padding=(1, 1), padding_mode=reflect)
      (1): ReLU()
      (2): Conv2d(32, 4, kernel_size=(3, 3), stride=(1, 1), padding=(1, 1), padding_mode=reflect)
    )
  )
  (lenet): Lenet(
    (relu): ReLU(inplace=True)
    (res1): Sequential(
      (0): Conv2d(1, 32, kernel_size=(3, 3), stride=(1, 1), padding=(1, 1), padding_mode=reflect)
      (1): ReLU(inplace=True)
      (2): Conv2d(32, 1, kernel_size=(3, 3), stride=(1, 1), padding=(1, 1), padding_mode=reflect)
    )
    (res2): Sequential(
      (0): Conv2d(1, 32, kernel_size=(3, 3), stride=(1, 1), padding=(1, 1), padding_mode=reflect)
      (1): ReLU(inplace=True)
      (2): Conv2d(32, 1, kernel_size=(3, 3), stride=(1, 1), padding=(1, 1), padding_mode=reflect)
    )
    (scale): Sequential(
      (0): Linear(in_features=1, out_features=100, bias=True)
      (1): ReLU(inplace=True)
      (2): Linear(in_features=100, out_features=1, bias=True)
      (3): Sigmoid()
    )
  )
  (scale): Scale(
    (conv1): Sequential(
      (0): Conv2d(3, 64, kernel_size=(3, 3), stride=(1, 1), padding=(1, 1), padding_mode=reflect)
      (1): LeakyReLU(negative_slope=0.01, inplace=True)
      (2): Conv2d(64, 1, kernel_size=(1, 1), stride=(1, 1), padding_mode=reflect)
      (3): Sigmoid()
    )
  )
)
[Epoch 2]	Learning rate: 1.00e-5
[Epoch 2]	Learning rate of rec: 1.00e-3
Mainnet(
  (lnet): Lnet(
    (conv1): Sequential(
      (0): Conv2d(34, 34, kernel_size=(3, 3), stride=(1, 1), padding=(1, 1), padding_mode=reflect)
      (1): LeakyReLU(negative_slope=0.01, inplace=True)
    )
    (conv2): Sequential(
      (0): Conv2d(66, 34, kernel_size=(1, 1), stride=(1, 1))
    )
  )
  (rnet): Rnet(
    (relu): ReLU(inplace=True)
    (resm1): Sequential(
      (0): Conv2d(35, 35, kernel_size=(3, 3), stride=(1, 1), padding=(1, 1), padding_mode=reflect)
      (1): ReLU(inplace=True)
      (2): ReflectionPad2d((1, 1, 1, 1))
      (3): Conv2d(35, 35, kernel_size=(3, 3), stride=(1, 1))
    )
    (resm2): Sequential(
      (0): Conv2d(35, 35, kernel_size=(3, 3), stride=(1, 1), padding=(1, 1), padding_mode=reflect)
      (1): ReLU(inplace=True)
      (2): ReflectionPad2d((1, 1, 1, 1))
      (3): Conv2d(35, 35, kernel_size=(3, 3), stride=(1, 1))
    )
    (resm3): Sequential(
      (0): Conv2d(35, 35, kernel_size=(3, 3), stride=(1, 1), padding=(1, 1), padding_mode=reflect)
      (1): ReLU(inplace=True)
      (2): ReflectionPad2d((1, 1, 1, 1))
      (3): Conv2d(35, 35, kernel_size=(3, 3), stride=(1, 1))
    )
    (resm4): Sequential(
      (0): Conv2d(35, 35, kernel_size=(3, 3), stride=(1, 1), padding=(1, 1), padding_mode=reflect)
      (1): ReLU(inplace=True)
      (2): ReflectionPad2d((1, 1, 1, 1))
      (3): Conv2d(35, 35, kernel_size=(3, 3), stride=(1, 1))
    )
  )
  (l_stage): Sequential(
    (0): Lnet(
      (conv1): Sequential(
        (0): Conv2d(34, 34, kernel_size=(3, 3), stride=(1, 1), padding=(1, 1), padding_mode=reflect)
        (1): LeakyReLU(negative_slope=0.01, inplace=True)
      )
      (conv2): Sequential(
        (0): Conv2d(66, 34, kernel_size=(1, 1), stride=(1, 1))
      )
    )
    (1): Lnet(
      (conv1): Sequential(
        (0): Conv2d(34, 34, kernel_size=(3, 3), stride=(1, 1), padding=(1, 1), padding_mode=reflect)
        (1): LeakyReLU(negative_slope=0.01, inplace=True)
      )
      (conv2): Sequential(
        (0): Conv2d(66, 34, kernel_size=(1, 1), stride=(1, 1))
      )
    )
    (2): Lnet(
      (conv1): Sequential(
        (0): Conv2d(34, 34, kernel_size=(3, 3), stride=(1, 1), padding=(1, 1), padding_mode=reflect)
        (1): LeakyReLU(negative_slope=0.01, inplace=True)
      )
      (conv2): Sequential(
        (0): Conv2d(66, 34, kernel_size=(1, 1), stride=(1, 1))
      )
    )
    (3): Lnet(
      (conv1): Sequential(
        (0): Conv2d(34, 34, kernel_size=(3, 3), stride=(1, 1), padding=(1, 1), padding_mode=reflect)
        (1): LeakyReLU(negative_slope=0.01, inplace=True)
      )
      (conv2): Sequential(
        (0): Conv2d(66, 34, kernel_size=(1, 1), stride=(1, 1))
      )
    )
    (4): Lnet(
      (conv1): Sequential(
        (0): Conv2d(34, 34, kernel_size=(3, 3), stride=(1, 1), padding=(1, 1), padding_mode=reflect)
        (1): LeakyReLU(negative_slope=0.01, inplace=True)
      )
      (conv2): Sequential(
        (0): Conv2d(66, 34, kernel_size=(1, 1), stride=(1, 1))
      )
    )
    (5): Lnet(
      (conv1): Sequential(
        (0): Conv2d(34, 34, kernel_size=(3, 3), stride=(1, 1), padding=(1, 1), padding_mode=reflect)
        (1): LeakyReLU(negative_slope=0.01, inplace=True)
      )
      (conv2): Sequential(
        (0): Conv2d(66, 34, kernel_size=(1, 1), stride=(1, 1))
      )
    )
    (6): Lnet(
      (conv1): Sequential(
        (0): Conv2d(34, 34, kernel_size=(3, 3), stride=(1, 1), padding=(1, 1), padding_mode=reflect)
        (1): LeakyReLU(negative_slope=0.01, inplace=True)
      )
      (conv2): Sequential(
        (0): Conv2d(66, 34, kernel_size=(1, 1), stride=(1, 1))
      )
    )
    (7): Lnet(
      (conv1): Sequential(
        (0): Conv2d(34, 34, kernel_size=(3, 3), stride=(1, 1), padding=(1, 1), padding_mode=reflect)
        (1): LeakyReLU(negative_slope=0.01, inplace=True)
      )
      (conv2): Sequential(
        (0): Conv2d(66, 34, kernel_size=(1, 1), stride=(1, 1))
      )
    )
    (8): Lnet(
      (conv1): Sequential(
        (0): Conv2d(34, 34, kernel_size=(3, 3), stride=(1, 1), padding=(1, 1), padding_mode=reflect)
        (1): LeakyReLU(negative_slope=0.01, inplace=True)
      )
      (conv2): Sequential(
        (0): Conv2d(66, 34, kernel_size=(1, 1), stride=(1, 1))
      )
    )
    (9): Lnet(
      (conv1): Sequential(
        (0): Conv2d(34, 34, kernel_size=(3, 3), stride=(1, 1), padding=(1, 1), padding_mode=reflect)
        (1): LeakyReLU(negative_slope=0.01, inplace=True)
      )
      (conv2): Sequential(
        (0): Conv2d(66, 34, kernel_size=(1, 1), stride=(1, 1))
      )
    )
    (10): Lnet(
      (conv1): Sequential(
        (0): Conv2d(34, 34, kernel_size=(3, 3), stride=(1, 1), padding=(1, 1), padding_mode=reflect)
        (1): LeakyReLU(negative_slope=0.01, inplace=True)
      )
      (conv2): Sequential(
        (0): Conv2d(66, 34, kernel_size=(1, 1), stride=(1, 1))
      )
    )
    (11): Lnet(
      (conv1): Sequential(
        (0): Conv2d(34, 34, kernel_size=(3, 3), stride=(1, 1), padding=(1, 1), padding_mode=reflect)
        (1): LeakyReLU(negative_slope=0.01, inplace=True)
      )
      (conv2): Sequential(
        (0): Conv2d(66, 34, kernel_size=(1, 1), stride=(1, 1))
      )
    )
    (12): Lnet(
      (conv1): Sequential(
        (0): Conv2d(34, 34, kernel_size=(3, 3), stride=(1, 1), padding=(1, 1), padding_mode=reflect)
        (1): LeakyReLU(negative_slope=0.01, inplace=True)
      )
      (conv2): Sequential(
        (0): Conv2d(66, 34, kernel_size=(1, 1), stride=(1, 1))
      )
    )
  )
  (r_stage): Sequential(
    (0): Rnet(
      (relu): ReLU(inplace=True)
      (resm1): Sequential(
        (0): Conv2d(35, 35, kernel_size=(3, 3), stride=(1, 1), padding=(1, 1), padding_mode=reflect)
        (1): ReLU(inplace=True)
        (2): ReflectionPad2d((1, 1, 1, 1))
        (3): Conv2d(35, 35, kernel_size=(3, 3), stride=(1, 1))
      )
      (resm2): Sequential(
        (0): Conv2d(35, 35, kernel_size=(3, 3), stride=(1, 1), padding=(1, 1), padding_mode=reflect)
        (1): ReLU(inplace=True)
        (2): ReflectionPad2d((1, 1, 1, 1))
        (3): Conv2d(35, 35, kernel_size=(3, 3), stride=(1, 1))
      )
      (resm3): Sequential(
        (0): Conv2d(35, 35, kernel_size=(3, 3), stride=(1, 1), padding=(1, 1), padding_mode=reflect)
        (1): ReLU(inplace=True)
        (2): ReflectionPad2d((1, 1, 1, 1))
        (3): Conv2d(35, 35, kernel_size=(3, 3), stride=(1, 1))
      )
      (resm4): Sequential(
        (0): Conv2d(35, 35, kernel_size=(3, 3), stride=(1, 1), padding=(1, 1), padding_mode=reflect)
        (1): ReLU(inplace=True)
        (2): ReflectionPad2d((1, 1, 1, 1))
        (3): Conv2d(35, 35, kernel_size=(3, 3), stride=(1, 1))
      )
    )
    (1): Rnet(
      (relu): ReLU(inplace=True)
      (resm1): Sequential(
        (0): Conv2d(35, 35, kernel_size=(3, 3), stride=(1, 1), padding=(1, 1), padding_mode=reflect)
        (1): ReLU(inplace=True)
        (2): ReflectionPad2d((1, 1, 1, 1))
        (3): Conv2d(35, 35, kernel_size=(3, 3), stride=(1, 1))
      )
      (resm2): Sequential(
        (0): Conv2d(35, 35, kernel_size=(3, 3), stride=(1, 1), padding=(1, 1), padding_mode=reflect)
        (1): ReLU(inplace=True)
        (2): ReflectionPad2d((1, 1, 1, 1))
        (3): Conv2d(35, 35, kernel_size=(3, 3), stride=(1, 1))
      )
      (resm3): Sequential(
        (0): Conv2d(35, 35, kernel_size=(3, 3), stride=(1, 1), padding=(1, 1), padding_mode=reflect)
        (1): ReLU(inplace=True)
        (2): ReflectionPad2d((1, 1, 1, 1))
        (3): Conv2d(35, 35, kernel_size=(3, 3), stride=(1, 1))
      )
      (resm4): Sequential(
        (0): Conv2d(35, 35, kernel_size=(3, 3), stride=(1, 1), padding=(1, 1), padding_mode=reflect)
        (1): ReLU(inplace=True)
        (2): ReflectionPad2d((1, 1, 1, 1))
        (3): Conv2d(35, 35, kernel_size=(3, 3), stride=(1, 1))
      )
    )
    (2): Rnet(
      (relu): ReLU(inplace=True)
      (resm1): Sequential(
        (0): Conv2d(35, 35, kernel_size=(3, 3), stride=(1, 1), padding=(1, 1), padding_mode=reflect)
        (1): ReLU(inplace=True)
        (2): ReflectionPad2d((1, 1, 1, 1))
        (3): Conv2d(35, 35, kernel_size=(3, 3), stride=(1, 1))
      )
      (resm2): Sequential(
        (0): Conv2d(35, 35, kernel_size=(3, 3), stride=(1, 1), padding=(1, 1), padding_mode=reflect)
        (1): ReLU(inplace=True)
        (2): ReflectionPad2d((1, 1, 1, 1))
        (3): Conv2d(35, 35, kernel_size=(3, 3), stride=(1, 1))
      )
      (resm3): Sequential(
        (0): Conv2d(35, 35, kernel_size=(3, 3), stride=(1, 1), padding=(1, 1), padding_mode=reflect)
        (1): ReLU(inplace=True)
        (2): ReflectionPad2d((1, 1, 1, 1))
        (3): Conv2d(35, 35, kernel_size=(3, 3), stride=(1, 1))
      )
      (resm4): Sequential(
        (0): Conv2d(35, 35, kernel_size=(3, 3), stride=(1, 1), padding=(1, 1), padding_mode=reflect)
        (1): ReLU(inplace=True)
        (2): ReflectionPad2d((1, 1, 1, 1))
        (3): Conv2d(35, 35, kernel_size=(3, 3), stride=(1, 1))
      )
    )
    (3): Rnet(
      (relu): ReLU(inplace=True)
      (resm1): Sequential(
        (0): Conv2d(35, 35, kernel_size=(3, 3), stride=(1, 1), padding=(1, 1), padding_mode=reflect)
        (1): ReLU(inplace=True)
        (2): ReflectionPad2d((1, 1, 1, 1))
        (3): Conv2d(35, 35, kernel_size=(3, 3), stride=(1, 1))
      )
      (resm2): Sequential(
        (0): Conv2d(35, 35, kernel_size=(3, 3), stride=(1, 1), padding=(1, 1), padding_mode=reflect)
        (1): ReLU(inplace=True)
        (2): ReflectionPad2d((1, 1, 1, 1))
        (3): Conv2d(35, 35, kernel_size=(3, 3), stride=(1, 1))
      )
      (resm3): Sequential(
        (0): Conv2d(35, 35, kernel_size=(3, 3), stride=(1, 1), padding=(1, 1), padding_mode=reflect)
        (1): ReLU(inplace=True)
        (2): ReflectionPad2d((1, 1, 1, 1))
        (3): Conv2d(35, 35, kernel_size=(3, 3), stride=(1, 1))
      )
      (resm4): Sequential(
        (0): Conv2d(35, 35, kernel_size=(3, 3), stride=(1, 1), padding=(1, 1), padding_mode=reflect)
        (1): ReLU(inplace=True)
        (2): ReflectionPad2d((1, 1, 1, 1))
        (3): Conv2d(35, 35, kernel_size=(3, 3), stride=(1, 1))
      )
    )
    (4): Rnet(
      (relu): ReLU(inplace=True)
      (resm1): Sequential(
        (0): Conv2d(35, 35, kernel_size=(3, 3), stride=(1, 1), padding=(1, 1), padding_mode=reflect)
        (1): ReLU(inplace=True)
        (2): ReflectionPad2d((1, 1, 1, 1))
        (3): Conv2d(35, 35, kernel_size=(3, 3), stride=(1, 1))
      )
      (resm2): Sequential(
        (0): Conv2d(35, 35, kernel_size=(3, 3), stride=(1, 1), padding=(1, 1), padding_mode=reflect)
        (1): ReLU(inplace=True)
        (2): ReflectionPad2d((1, 1, 1, 1))
        (3): Conv2d(35, 35, kernel_size=(3, 3), stride=(1, 1))
      )
      (resm3): Sequential(
        (0): Conv2d(35, 35, kernel_size=(3, 3), stride=(1, 1), padding=(1, 1), padding_mode=reflect)
        (1): ReLU(inplace=True)
        (2): ReflectionPad2d((1, 1, 1, 1))
        (3): Conv2d(35, 35, kernel_size=(3, 3), stride=(1, 1))
      )
      (resm4): Sequential(
        (0): Conv2d(35, 35, kernel_size=(3, 3), stride=(1, 1), padding=(1, 1), padding_mode=reflect)
        (1): ReLU(inplace=True)
        (2): ReflectionPad2d((1, 1, 1, 1))
        (3): Conv2d(35, 35, kernel_size=(3, 3), stride=(1, 1))
      )
    )
    (5): Rnet(
      (relu): ReLU(inplace=True)
      (resm1): Sequential(
        (0): Conv2d(35, 35, kernel_size=(3, 3), stride=(1, 1), padding=(1, 1), padding_mode=reflect)
        (1): ReLU(inplace=True)
        (2): ReflectionPad2d((1, 1, 1, 1))
        (3): Conv2d(35, 35, kernel_size=(3, 3), stride=(1, 1))
      )
      (resm2): Sequential(
        (0): Conv2d(35, 35, kernel_size=(3, 3), stride=(1, 1), padding=(1, 1), padding_mode=reflect)
        (1): ReLU(inplace=True)
        (2): ReflectionPad2d((1, 1, 1, 1))
        (3): Conv2d(35, 35, kernel_size=(3, 3), stride=(1, 1))
      )
      (resm3): Sequential(
        (0): Conv2d(35, 35, kernel_size=(3, 3), stride=(1, 1), padding=(1, 1), padding_mode=reflect)
        (1): ReLU(inplace=True)
        (2): ReflectionPad2d((1, 1, 1, 1))
        (3): Conv2d(35, 35, kernel_size=(3, 3), stride=(1, 1))
      )
      (resm4): Sequential(
        (0): Conv2d(35, 35, kernel_size=(3, 3), stride=(1, 1), padding=(1, 1), padding_mode=reflect)
        (1): ReLU(inplace=True)
        (2): ReflectionPad2d((1, 1, 1, 1))
        (3): Conv2d(35, 35, kernel_size=(3, 3), stride=(1, 1))
      )
    )
    (6): Rnet(
      (relu): ReLU(inplace=True)
      (resm1): Sequential(
        (0): Conv2d(35, 35, kernel_size=(3, 3), stride=(1, 1), padding=(1, 1), padding_mode=reflect)
        (1): ReLU(inplace=True)
        (2): ReflectionPad2d((1, 1, 1, 1))
        (3): Conv2d(35, 35, kernel_size=(3, 3), stride=(1, 1))
      )
      (resm2): Sequential(
        (0): Conv2d(35, 35, kernel_size=(3, 3), stride=(1, 1), padding=(1, 1), padding_mode=reflect)
        (1): ReLU(inplace=True)
        (2): ReflectionPad2d((1, 1, 1, 1))
        (3): Conv2d(35, 35, kernel_size=(3, 3), stride=(1, 1))
      )
      (resm3): Sequential(
        (0): Conv2d(35, 35, kernel_size=(3, 3), stride=(1, 1), padding=(1, 1), padding_mode=reflect)
        (1): ReLU(inplace=True)
        (2): ReflectionPad2d((1, 1, 1, 1))
        (3): Conv2d(35, 35, kernel_size=(3, 3), stride=(1, 1))
      )
      (resm4): Sequential(
        (0): Conv2d(35, 35, kernel_size=(3, 3), stride=(1, 1), padding=(1, 1), padding_mode=reflect)
        (1): ReLU(inplace=True)
        (2): ReflectionPad2d((1, 1, 1, 1))
        (3): Conv2d(35, 35, kernel_size=(3, 3), stride=(1, 1))
      )
    )
    (7): Rnet(
      (relu): ReLU(inplace=True)
      (resm1): Sequential(
        (0): Conv2d(35, 35, kernel_size=(3, 3), stride=(1, 1), padding=(1, 1), padding_mode=reflect)
        (1): ReLU(inplace=True)
        (2): ReflectionPad2d((1, 1, 1, 1))
        (3): Conv2d(35, 35, kernel_size=(3, 3), stride=(1, 1))
      )
      (resm2): Sequential(
        (0): Conv2d(35, 35, kernel_size=(3, 3), stride=(1, 1), padding=(1, 1), padding_mode=reflect)
        (1): ReLU(inplace=True)
        (2): ReflectionPad2d((1, 1, 1, 1))
        (3): Conv2d(35, 35, kernel_size=(3, 3), stride=(1, 1))
      )
      (resm3): Sequential(
        (0): Conv2d(35, 35, kernel_size=(3, 3), stride=(1, 1), padding=(1, 1), padding_mode=reflect)
        (1): ReLU(inplace=True)
        (2): ReflectionPad2d((1, 1, 1, 1))
        (3): Conv2d(35, 35, kernel_size=(3, 3), stride=(1, 1))
      )
      (resm4): Sequential(
        (0): Conv2d(35, 35, kernel_size=(3, 3), stride=(1, 1), padding=(1, 1), padding_mode=reflect)
        (1): ReLU(inplace=True)
        (2): ReflectionPad2d((1, 1, 1, 1))
        (3): Conv2d(35, 35, kernel_size=(3, 3), stride=(1, 1))
      )
    )
    (8): Rnet(
      (relu): ReLU(inplace=True)
      (resm1): Sequential(
        (0): Conv2d(35, 35, kernel_size=(3, 3), stride=(1, 1), padding=(1, 1), padding_mode=reflect)
        (1): ReLU(inplace=True)
        (2): ReflectionPad2d((1, 1, 1, 1))
        (3): Conv2d(35, 35, kernel_size=(3, 3), stride=(1, 1))
      )
      (resm2): Sequential(
        (0): Conv2d(35, 35, kernel_size=(3, 3), stride=(1, 1), padding=(1, 1), padding_mode=reflect)
        (1): ReLU(inplace=True)
        (2): ReflectionPad2d((1, 1, 1, 1))
        (3): Conv2d(35, 35, kernel_size=(3, 3), stride=(1, 1))
      )
      (resm3): Sequential(
        (0): Conv2d(35, 35, kernel_size=(3, 3), stride=(1, 1), padding=(1, 1), padding_mode=reflect)
        (1): ReLU(inplace=True)
        (2): ReflectionPad2d((1, 1, 1, 1))
        (3): Conv2d(35, 35, kernel_size=(3, 3), stride=(1, 1))
      )
      (resm4): Sequential(
        (0): Conv2d(35, 35, kernel_size=(3, 3), stride=(1, 1), padding=(1, 1), padding_mode=reflect)
        (1): ReLU(inplace=True)
        (2): ReflectionPad2d((1, 1, 1, 1))
        (3): Conv2d(35, 35, kernel_size=(3, 3), stride=(1, 1))
      )
    )
    (9): Rnet(
      (relu): ReLU(inplace=True)
      (resm1): Sequential(
        (0): Conv2d(35, 35, kernel_size=(3, 3), stride=(1, 1), padding=(1, 1), padding_mode=reflect)
        (1): ReLU(inplace=True)
        (2): ReflectionPad2d((1, 1, 1, 1))
        (3): Conv2d(35, 35, kernel_size=(3, 3), stride=(1, 1))
      )
      (resm2): Sequential(
        (0): Conv2d(35, 35, kernel_size=(3, 3), stride=(1, 1), padding=(1, 1), padding_mode=reflect)
        (1): ReLU(inplace=True)
        (2): ReflectionPad2d((1, 1, 1, 1))
        (3): Conv2d(35, 35, kernel_size=(3, 3), stride=(1, 1))
      )
      (resm3): Sequential(
        (0): Conv2d(35, 35, kernel_size=(3, 3), stride=(1, 1), padding=(1, 1), padding_mode=reflect)
        (1): ReLU(inplace=True)
        (2): ReflectionPad2d((1, 1, 1, 1))
        (3): Conv2d(35, 35, kernel_size=(3, 3), stride=(1, 1))
      )
      (resm4): Sequential(
        (0): Conv2d(35, 35, kernel_size=(3, 3), stride=(1, 1), padding=(1, 1), padding_mode=reflect)
        (1): ReLU(inplace=True)
        (2): ReflectionPad2d((1, 1, 1, 1))
        (3): Conv2d(35, 35, kernel_size=(3, 3), stride=(1, 1))
      )
    )
    (10): Rnet(
      (relu): ReLU(inplace=True)
      (resm1): Sequential(
        (0): Conv2d(35, 35, kernel_size=(3, 3), stride=(1, 1), padding=(1, 1), padding_mode=reflect)
        (1): ReLU(inplace=True)
        (2): ReflectionPad2d((1, 1, 1, 1))
        (3): Conv2d(35, 35, kernel_size=(3, 3), stride=(1, 1))
      )
      (resm2): Sequential(
        (0): Conv2d(35, 35, kernel_size=(3, 3), stride=(1, 1), padding=(1, 1), padding_mode=reflect)
        (1): ReLU(inplace=True)
        (2): ReflectionPad2d((1, 1, 1, 1))
        (3): Conv2d(35, 35, kernel_size=(3, 3), stride=(1, 1))
      )
      (resm3): Sequential(
        (0): Conv2d(35, 35, kernel_size=(3, 3), stride=(1, 1), padding=(1, 1), padding_mode=reflect)
        (1): ReLU(inplace=True)
        (2): ReflectionPad2d((1, 1, 1, 1))
        (3): Conv2d(35, 35, kernel_size=(3, 3), stride=(1, 1))
      )
      (resm4): Sequential(
        (0): Conv2d(35, 35, kernel_size=(3, 3), stride=(1, 1), padding=(1, 1), padding_mode=reflect)
        (1): ReLU(inplace=True)
        (2): ReflectionPad2d((1, 1, 1, 1))
        (3): Conv2d(35, 35, kernel_size=(3, 3), stride=(1, 1))
      )
    )
    (11): Rnet(
      (relu): ReLU(inplace=True)
      (resm1): Sequential(
        (0): Conv2d(35, 35, kernel_size=(3, 3), stride=(1, 1), padding=(1, 1), padding_mode=reflect)
        (1): ReLU(inplace=True)
        (2): ReflectionPad2d((1, 1, 1, 1))
        (3): Conv2d(35, 35, kernel_size=(3, 3), stride=(1, 1))
      )
      (resm2): Sequential(
        (0): Conv2d(35, 35, kernel_size=(3, 3), stride=(1, 1), padding=(1, 1), padding_mode=reflect)
        (1): ReLU(inplace=True)
        (2): ReflectionPad2d((1, 1, 1, 1))
        (3): Conv2d(35, 35, kernel_size=(3, 3), stride=(1, 1))
      )
      (resm3): Sequential(
        (0): Conv2d(35, 35, kernel_size=(3, 3), stride=(1, 1), padding=(1, 1), padding_mode=reflect)
        (1): ReLU(inplace=True)
        (2): ReflectionPad2d((1, 1, 1, 1))
        (3): Conv2d(35, 35, kernel_size=(3, 3), stride=(1, 1))
      )
      (resm4): Sequential(
        (0): Conv2d(35, 35, kernel_size=(3, 3), stride=(1, 1), padding=(1, 1), padding_mode=reflect)
        (1): ReLU(inplace=True)
        (2): ReflectionPad2d((1, 1, 1, 1))
        (3): Conv2d(35, 35, kernel_size=(3, 3), stride=(1, 1))
      )
    )
    (12): Rnet(
      (relu): ReLU(inplace=True)
      (resm1): Sequential(
        (0): Conv2d(35, 35, kernel_size=(3, 3), stride=(1, 1), padding=(1, 1), padding_mode=reflect)
        (1): ReLU(inplace=True)
        (2): ReflectionPad2d((1, 1, 1, 1))
        (3): Conv2d(35, 35, kernel_size=(3, 3), stride=(1, 1))
      )
      (resm2): Sequential(
        (0): Conv2d(35, 35, kernel_size=(3, 3), stride=(1, 1), padding=(1, 1), padding_mode=reflect)
        (1): ReLU(inplace=True)
        (2): ReflectionPad2d((1, 1, 1, 1))
        (3): Conv2d(35, 35, kernel_size=(3, 3), stride=(1, 1))
      )
      (resm3): Sequential(
        (0): Conv2d(35, 35, kernel_size=(3, 3), stride=(1, 1), padding=(1, 1), padding_mode=reflect)
        (1): ReLU(inplace=True)
        (2): ReflectionPad2d((1, 1, 1, 1))
        (3): Conv2d(35, 35, kernel_size=(3, 3), stride=(1, 1))
      )
      (resm4): Sequential(
        (0): Conv2d(35, 35, kernel_size=(3, 3), stride=(1, 1), padding=(1, 1), padding_mode=reflect)
        (1): ReLU(inplace=True)
        (2): ReflectionPad2d((1, 1, 1, 1))
        (3): Conv2d(35, 35, kernel_size=(3, 3), stride=(1, 1))
      )
    )
  )
  (conv_l): Conv2d(1, 29, kernel_size=(3, 3), stride=(1, 1), padding=(1, 1), padding_mode=reflect)
  (conv_r): Conv2d(3, 32, kernel_size=(3, 3), stride=(1, 1), padding=(1, 1), padding_mode=reflect)
)
Mainnet(
  (renet): Renet(
    (relu): ReLU(inplace=True)
    (res1): Sequential(
      (0): Conv2d(4, 32, kernel_size=(3, 3), stride=(1, 1), padding=(1, 1), padding_mode=reflect)
      (1): ReLU()
      (2): Conv2d(32, 4, kernel_size=(3, 3), stride=(1, 1), padding=(1, 1), padding_mode=reflect)
    )
    (res2): Sequential(
      (0): Conv2d(4, 32, kernel_size=(3, 3), stride=(1, 1), padding=(1, 1), padding_mode=reflect)
      (1): ReLU()
      (2): Conv2d(32, 4, kernel_size=(3, 3), stride=(1, 1), padding=(1, 1), padding_mode=reflect)
    )
    (res3): Sequential(
      (0): Conv2d(4, 32, kernel_size=(3, 3), stride=(1, 1), padding=(1, 1), padding_mode=reflect)
      (1): ReLU()
      (2): Conv2d(32, 4, kernel_size=(3, 3), stride=(1, 1), padding=(1, 1), padding_mode=reflect)
    )
    (res4): Sequential(
      (0): Conv2d(4, 32, kernel_size=(3, 3), stride=(1, 1), padding=(1, 1), padding_mode=reflect)
      (1): ReLU()
      (2): Conv2d(32, 4, kernel_size=(3, 3), stride=(1, 1), padding=(1, 1), padding_mode=reflect)
    )
  )
  (lenet): Lenet(
    (relu): ReLU(inplace=True)
    (res1): Sequential(
      (0): Conv2d(1, 32, kernel_size=(3, 3), stride=(1, 1), padding=(1, 1), padding_mode=reflect)
      (1): ReLU(inplace=True)
      (2): Conv2d(32, 1, kernel_size=(3, 3), stride=(1, 1), padding=(1, 1), padding_mode=reflect)
    )
    (res2): Sequential(
      (0): Conv2d(1, 32, kernel_size=(3, 3), stride=(1, 1), padding=(1, 1), padding_mode=reflect)
      (1): ReLU(inplace=True)
      (2): Conv2d(32, 1, kernel_size=(3, 3), stride=(1, 1), padding=(1, 1), padding_mode=reflect)
    )
    (scale): Sequential(
      (0): Linear(in_features=1, out_features=100, bias=True)
      (1): ReLU(inplace=True)
      (2): Linear(in_features=100, out_features=1, bias=True)
      (3): Sigmoid()
    )
  )
  (scale): Scale(
    (conv1): Sequential(
      (0): Conv2d(3, 64, kernel_size=(3, 3), stride=(1, 1), padding=(1, 1), padding_mode=reflect)
      (1): LeakyReLU(negative_slope=0.01, inplace=True)
      (2): Conv2d(64, 1, kernel_size=(1, 1), stride=(1, 1), padding_mode=reflect)
      (3): Sigmoid()
    )
  )
)
[Epoch 2]	Learning rate: 1.00e-5
[Epoch 2]	Learning rate of rec: 1.00e-3
Mainnet(
  (lnet): Lnet(
    (conv1): Sequential(
      (0): Conv2d(34, 34, kernel_size=(3, 3), stride=(1, 1), padding=(1, 1), padding_mode=reflect)
      (1): LeakyReLU(negative_slope=0.01, inplace=True)
    )
    (conv2): Sequential(
      (0): Conv2d(66, 34, kernel_size=(1, 1), stride=(1, 1))
    )
  )
  (rnet): Rnet(
    (relu): ReLU(inplace=True)
    (resm1): Sequential(
      (0): Conv2d(35, 35, kernel_size=(3, 3), stride=(1, 1), padding=(1, 1), padding_mode=reflect)
      (1): ReLU(inplace=True)
      (2): ReflectionPad2d((1, 1, 1, 1))
      (3): Conv2d(35, 35, kernel_size=(3, 3), stride=(1, 1))
    )
    (resm2): Sequential(
      (0): Conv2d(35, 35, kernel_size=(3, 3), stride=(1, 1), padding=(1, 1), padding_mode=reflect)
      (1): ReLU(inplace=True)
      (2): ReflectionPad2d((1, 1, 1, 1))
      (3): Conv2d(35, 35, kernel_size=(3, 3), stride=(1, 1))
    )
    (resm3): Sequential(
      (0): Conv2d(35, 35, kernel_size=(3, 3), stride=(1, 1), padding=(1, 1), padding_mode=reflect)
      (1): ReLU(inplace=True)
      (2): ReflectionPad2d((1, 1, 1, 1))
      (3): Conv2d(35, 35, kernel_size=(3, 3), stride=(1, 1))
    )
    (resm4): Sequential(
      (0): Conv2d(35, 35, kernel_size=(3, 3), stride=(1, 1), padding=(1, 1), padding_mode=reflect)
      (1): ReLU(inplace=True)
      (2): ReflectionPad2d((1, 1, 1, 1))
      (3): Conv2d(35, 35, kernel_size=(3, 3), stride=(1, 1))
    )
  )
  (l_stage): Sequential(
    (0): Lnet(
      (conv1): Sequential(
        (0): Conv2d(34, 34, kernel_size=(3, 3), stride=(1, 1), padding=(1, 1), padding_mode=reflect)
        (1): LeakyReLU(negative_slope=0.01, inplace=True)
      )
      (conv2): Sequential(
        (0): Conv2d(66, 34, kernel_size=(1, 1), stride=(1, 1))
      )
    )
    (1): Lnet(
      (conv1): Sequential(
        (0): Conv2d(34, 34, kernel_size=(3, 3), stride=(1, 1), padding=(1, 1), padding_mode=reflect)
        (1): LeakyReLU(negative_slope=0.01, inplace=True)
      )
      (conv2): Sequential(
        (0): Conv2d(66, 34, kernel_size=(1, 1), stride=(1, 1))
      )
    )
    (2): Lnet(
      (conv1): Sequential(
        (0): Conv2d(34, 34, kernel_size=(3, 3), stride=(1, 1), padding=(1, 1), padding_mode=reflect)
        (1): LeakyReLU(negative_slope=0.01, inplace=True)
      )
      (conv2): Sequential(
        (0): Conv2d(66, 34, kernel_size=(1, 1), stride=(1, 1))
      )
    )
    (3): Lnet(
      (conv1): Sequential(
        (0): Conv2d(34, 34, kernel_size=(3, 3), stride=(1, 1), padding=(1, 1), padding_mode=reflect)
        (1): LeakyReLU(negative_slope=0.01, inplace=True)
      )
      (conv2): Sequential(
        (0): Conv2d(66, 34, kernel_size=(1, 1), stride=(1, 1))
      )
    )
    (4): Lnet(
      (conv1): Sequential(
        (0): Conv2d(34, 34, kernel_size=(3, 3), stride=(1, 1), padding=(1, 1), padding_mode=reflect)
        (1): LeakyReLU(negative_slope=0.01, inplace=True)
      )
      (conv2): Sequential(
        (0): Conv2d(66, 34, kernel_size=(1, 1), stride=(1, 1))
      )
    )
    (5): Lnet(
      (conv1): Sequential(
        (0): Conv2d(34, 34, kernel_size=(3, 3), stride=(1, 1), padding=(1, 1), padding_mode=reflect)
        (1): LeakyReLU(negative_slope=0.01, inplace=True)
      )
      (conv2): Sequential(
        (0): Conv2d(66, 34, kernel_size=(1, 1), stride=(1, 1))
      )
    )
    (6): Lnet(
      (conv1): Sequential(
        (0): Conv2d(34, 34, kernel_size=(3, 3), stride=(1, 1), padding=(1, 1), padding_mode=reflect)
        (1): LeakyReLU(negative_slope=0.01, inplace=True)
      )
      (conv2): Sequential(
        (0): Conv2d(66, 34, kernel_size=(1, 1), stride=(1, 1))
      )
    )
    (7): Lnet(
      (conv1): Sequential(
        (0): Conv2d(34, 34, kernel_size=(3, 3), stride=(1, 1), padding=(1, 1), padding_mode=reflect)
        (1): LeakyReLU(negative_slope=0.01, inplace=True)
      )
      (conv2): Sequential(
        (0): Conv2d(66, 34, kernel_size=(1, 1), stride=(1, 1))
      )
    )
    (8): Lnet(
      (conv1): Sequential(
        (0): Conv2d(34, 34, kernel_size=(3, 3), stride=(1, 1), padding=(1, 1), padding_mode=reflect)
        (1): LeakyReLU(negative_slope=0.01, inplace=True)
      )
      (conv2): Sequential(
        (0): Conv2d(66, 34, kernel_size=(1, 1), stride=(1, 1))
      )
    )
    (9): Lnet(
      (conv1): Sequential(
        (0): Conv2d(34, 34, kernel_size=(3, 3), stride=(1, 1), padding=(1, 1), padding_mode=reflect)
        (1): LeakyReLU(negative_slope=0.01, inplace=True)
      )
      (conv2): Sequential(
        (0): Conv2d(66, 34, kernel_size=(1, 1), stride=(1, 1))
      )
    )
    (10): Lnet(
      (conv1): Sequential(
        (0): Conv2d(34, 34, kernel_size=(3, 3), stride=(1, 1), padding=(1, 1), padding_mode=reflect)
        (1): LeakyReLU(negative_slope=0.01, inplace=True)
      )
      (conv2): Sequential(
        (0): Conv2d(66, 34, kernel_size=(1, 1), stride=(1, 1))
      )
    )
    (11): Lnet(
      (conv1): Sequential(
        (0): Conv2d(34, 34, kernel_size=(3, 3), stride=(1, 1), padding=(1, 1), padding_mode=reflect)
        (1): LeakyReLU(negative_slope=0.01, inplace=True)
      )
      (conv2): Sequential(
        (0): Conv2d(66, 34, kernel_size=(1, 1), stride=(1, 1))
      )
    )
    (12): Lnet(
      (conv1): Sequential(
        (0): Conv2d(34, 34, kernel_size=(3, 3), stride=(1, 1), padding=(1, 1), padding_mode=reflect)
        (1): LeakyReLU(negative_slope=0.01, inplace=True)
      )
      (conv2): Sequential(
        (0): Conv2d(66, 34, kernel_size=(1, 1), stride=(1, 1))
      )
    )
  )
  (r_stage): Sequential(
    (0): Rnet(
      (relu): ReLU(inplace=True)
      (resm1): Sequential(
        (0): Conv2d(35, 35, kernel_size=(3, 3), stride=(1, 1), padding=(1, 1), padding_mode=reflect)
        (1): ReLU(inplace=True)
        (2): ReflectionPad2d((1, 1, 1, 1))
        (3): Conv2d(35, 35, kernel_size=(3, 3), stride=(1, 1))
      )
      (resm2): Sequential(
        (0): Conv2d(35, 35, kernel_size=(3, 3), stride=(1, 1), padding=(1, 1), padding_mode=reflect)
        (1): ReLU(inplace=True)
        (2): ReflectionPad2d((1, 1, 1, 1))
        (3): Conv2d(35, 35, kernel_size=(3, 3), stride=(1, 1))
      )
      (resm3): Sequential(
        (0): Conv2d(35, 35, kernel_size=(3, 3), stride=(1, 1), padding=(1, 1), padding_mode=reflect)
        (1): ReLU(inplace=True)
        (2): ReflectionPad2d((1, 1, 1, 1))
        (3): Conv2d(35, 35, kernel_size=(3, 3), stride=(1, 1))
      )
      (resm4): Sequential(
        (0): Conv2d(35, 35, kernel_size=(3, 3), stride=(1, 1), padding=(1, 1), padding_mode=reflect)
        (1): ReLU(inplace=True)
        (2): ReflectionPad2d((1, 1, 1, 1))
        (3): Conv2d(35, 35, kernel_size=(3, 3), stride=(1, 1))
      )
    )
    (1): Rnet(
      (relu): ReLU(inplace=True)
      (resm1): Sequential(
        (0): Conv2d(35, 35, kernel_size=(3, 3), stride=(1, 1), padding=(1, 1), padding_mode=reflect)
        (1): ReLU(inplace=True)
        (2): ReflectionPad2d((1, 1, 1, 1))
        (3): Conv2d(35, 35, kernel_size=(3, 3), stride=(1, 1))
      )
      (resm2): Sequential(
        (0): Conv2d(35, 35, kernel_size=(3, 3), stride=(1, 1), padding=(1, 1), padding_mode=reflect)
        (1): ReLU(inplace=True)
        (2): ReflectionPad2d((1, 1, 1, 1))
        (3): Conv2d(35, 35, kernel_size=(3, 3), stride=(1, 1))
      )
      (resm3): Sequential(
        (0): Conv2d(35, 35, kernel_size=(3, 3), stride=(1, 1), padding=(1, 1), padding_mode=reflect)
        (1): ReLU(inplace=True)
        (2): ReflectionPad2d((1, 1, 1, 1))
        (3): Conv2d(35, 35, kernel_size=(3, 3), stride=(1, 1))
      )
      (resm4): Sequential(
        (0): Conv2d(35, 35, kernel_size=(3, 3), stride=(1, 1), padding=(1, 1), padding_mode=reflect)
        (1): ReLU(inplace=True)
        (2): ReflectionPad2d((1, 1, 1, 1))
        (3): Conv2d(35, 35, kernel_size=(3, 3), stride=(1, 1))
      )
    )
    (2): Rnet(
      (relu): ReLU(inplace=True)
      (resm1): Sequential(
        (0): Conv2d(35, 35, kernel_size=(3, 3), stride=(1, 1), padding=(1, 1), padding_mode=reflect)
        (1): ReLU(inplace=True)
        (2): ReflectionPad2d((1, 1, 1, 1))
        (3): Conv2d(35, 35, kernel_size=(3, 3), stride=(1, 1))
      )
      (resm2): Sequential(
        (0): Conv2d(35, 35, kernel_size=(3, 3), stride=(1, 1), padding=(1, 1), padding_mode=reflect)
        (1): ReLU(inplace=True)
        (2): ReflectionPad2d((1, 1, 1, 1))
        (3): Conv2d(35, 35, kernel_size=(3, 3), stride=(1, 1))
      )
      (resm3): Sequential(
        (0): Conv2d(35, 35, kernel_size=(3, 3), stride=(1, 1), padding=(1, 1), padding_mode=reflect)
        (1): ReLU(inplace=True)
        (2): ReflectionPad2d((1, 1, 1, 1))
        (3): Conv2d(35, 35, kernel_size=(3, 3), stride=(1, 1))
      )
      (resm4): Sequential(
        (0): Conv2d(35, 35, kernel_size=(3, 3), stride=(1, 1), padding=(1, 1), padding_mode=reflect)
        (1): ReLU(inplace=True)
        (2): ReflectionPad2d((1, 1, 1, 1))
        (3): Conv2d(35, 35, kernel_size=(3, 3), stride=(1, 1))
      )
    )
    (3): Rnet(
      (relu): ReLU(inplace=True)
      (resm1): Sequential(
        (0): Conv2d(35, 35, kernel_size=(3, 3), stride=(1, 1), padding=(1, 1), padding_mode=reflect)
        (1): ReLU(inplace=True)
        (2): ReflectionPad2d((1, 1, 1, 1))
        (3): Conv2d(35, 35, kernel_size=(3, 3), stride=(1, 1))
      )
      (resm2): Sequential(
        (0): Conv2d(35, 35, kernel_size=(3, 3), stride=(1, 1), padding=(1, 1), padding_mode=reflect)
        (1): ReLU(inplace=True)
        (2): ReflectionPad2d((1, 1, 1, 1))
        (3): Conv2d(35, 35, kernel_size=(3, 3), stride=(1, 1))
      )
      (resm3): Sequential(
        (0): Conv2d(35, 35, kernel_size=(3, 3), stride=(1, 1), padding=(1, 1), padding_mode=reflect)
        (1): ReLU(inplace=True)
        (2): ReflectionPad2d((1, 1, 1, 1))
        (3): Conv2d(35, 35, kernel_size=(3, 3), stride=(1, 1))
      )
      (resm4): Sequential(
        (0): Conv2d(35, 35, kernel_size=(3, 3), stride=(1, 1), padding=(1, 1), padding_mode=reflect)
        (1): ReLU(inplace=True)
        (2): ReflectionPad2d((1, 1, 1, 1))
        (3): Conv2d(35, 35, kernel_size=(3, 3), stride=(1, 1))
      )
    )
    (4): Rnet(
      (relu): ReLU(inplace=True)
      (resm1): Sequential(
        (0): Conv2d(35, 35, kernel_size=(3, 3), stride=(1, 1), padding=(1, 1), padding_mode=reflect)
        (1): ReLU(inplace=True)
        (2): ReflectionPad2d((1, 1, 1, 1))
        (3): Conv2d(35, 35, kernel_size=(3, 3), stride=(1, 1))
      )
      (resm2): Sequential(
        (0): Conv2d(35, 35, kernel_size=(3, 3), stride=(1, 1), padding=(1, 1), padding_mode=reflect)
        (1): ReLU(inplace=True)
        (2): ReflectionPad2d((1, 1, 1, 1))
        (3): Conv2d(35, 35, kernel_size=(3, 3), stride=(1, 1))
      )
      (resm3): Sequential(
        (0): Conv2d(35, 35, kernel_size=(3, 3), stride=(1, 1), padding=(1, 1), padding_mode=reflect)
        (1): ReLU(inplace=True)
        (2): ReflectionPad2d((1, 1, 1, 1))
        (3): Conv2d(35, 35, kernel_size=(3, 3), stride=(1, 1))
      )
      (resm4): Sequential(
        (0): Conv2d(35, 35, kernel_size=(3, 3), stride=(1, 1), padding=(1, 1), padding_mode=reflect)
        (1): ReLU(inplace=True)
        (2): ReflectionPad2d((1, 1, 1, 1))
        (3): Conv2d(35, 35, kernel_size=(3, 3), stride=(1, 1))
      )
    )
    (5): Rnet(
      (relu): ReLU(inplace=True)
      (resm1): Sequential(
        (0): Conv2d(35, 35, kernel_size=(3, 3), stride=(1, 1), padding=(1, 1), padding_mode=reflect)
        (1): ReLU(inplace=True)
        (2): ReflectionPad2d((1, 1, 1, 1))
        (3): Conv2d(35, 35, kernel_size=(3, 3), stride=(1, 1))
      )
      (resm2): Sequential(
        (0): Conv2d(35, 35, kernel_size=(3, 3), stride=(1, 1), padding=(1, 1), padding_mode=reflect)
        (1): ReLU(inplace=True)
        (2): ReflectionPad2d((1, 1, 1, 1))
        (3): Conv2d(35, 35, kernel_size=(3, 3), stride=(1, 1))
      )
      (resm3): Sequential(
        (0): Conv2d(35, 35, kernel_size=(3, 3), stride=(1, 1), padding=(1, 1), padding_mode=reflect)
        (1): ReLU(inplace=True)
        (2): ReflectionPad2d((1, 1, 1, 1))
        (3): Conv2d(35, 35, kernel_size=(3, 3), stride=(1, 1))
      )
      (resm4): Sequential(
        (0): Conv2d(35, 35, kernel_size=(3, 3), stride=(1, 1), padding=(1, 1), padding_mode=reflect)
        (1): ReLU(inplace=True)
        (2): ReflectionPad2d((1, 1, 1, 1))
        (3): Conv2d(35, 35, kernel_size=(3, 3), stride=(1, 1))
      )
    )
    (6): Rnet(
      (relu): ReLU(inplace=True)
      (resm1): Sequential(
        (0): Conv2d(35, 35, kernel_size=(3, 3), stride=(1, 1), padding=(1, 1), padding_mode=reflect)
        (1): ReLU(inplace=True)
        (2): ReflectionPad2d((1, 1, 1, 1))
        (3): Conv2d(35, 35, kernel_size=(3, 3), stride=(1, 1))
      )
      (resm2): Sequential(
        (0): Conv2d(35, 35, kernel_size=(3, 3), stride=(1, 1), padding=(1, 1), padding_mode=reflect)
        (1): ReLU(inplace=True)
        (2): ReflectionPad2d((1, 1, 1, 1))
        (3): Conv2d(35, 35, kernel_size=(3, 3), stride=(1, 1))
      )
      (resm3): Sequential(
        (0): Conv2d(35, 35, kernel_size=(3, 3), stride=(1, 1), padding=(1, 1), padding_mode=reflect)
        (1): ReLU(inplace=True)
        (2): ReflectionPad2d((1, 1, 1, 1))
        (3): Conv2d(35, 35, kernel_size=(3, 3), stride=(1, 1))
      )
      (resm4): Sequential(
        (0): Conv2d(35, 35, kernel_size=(3, 3), stride=(1, 1), padding=(1, 1), padding_mode=reflect)
        (1): ReLU(inplace=True)
        (2): ReflectionPad2d((1, 1, 1, 1))
        (3): Conv2d(35, 35, kernel_size=(3, 3), stride=(1, 1))
      )
    )
    (7): Rnet(
      (relu): ReLU(inplace=True)
      (resm1): Sequential(
        (0): Conv2d(35, 35, kernel_size=(3, 3), stride=(1, 1), padding=(1, 1), padding_mode=reflect)
        (1): ReLU(inplace=True)
        (2): ReflectionPad2d((1, 1, 1, 1))
        (3): Conv2d(35, 35, kernel_size=(3, 3), stride=(1, 1))
      )
      (resm2): Sequential(
        (0): Conv2d(35, 35, kernel_size=(3, 3), stride=(1, 1), padding=(1, 1), padding_mode=reflect)
        (1): ReLU(inplace=True)
        (2): ReflectionPad2d((1, 1, 1, 1))
        (3): Conv2d(35, 35, kernel_size=(3, 3), stride=(1, 1))
      )
      (resm3): Sequential(
        (0): Conv2d(35, 35, kernel_size=(3, 3), stride=(1, 1), padding=(1, 1), padding_mode=reflect)
        (1): ReLU(inplace=True)
        (2): ReflectionPad2d((1, 1, 1, 1))
        (3): Conv2d(35, 35, kernel_size=(3, 3), stride=(1, 1))
      )
      (resm4): Sequential(
        (0): Conv2d(35, 35, kernel_size=(3, 3), stride=(1, 1), padding=(1, 1), padding_mode=reflect)
        (1): ReLU(inplace=True)
        (2): ReflectionPad2d((1, 1, 1, 1))
        (3): Conv2d(35, 35, kernel_size=(3, 3), stride=(1, 1))
      )
    )
    (8): Rnet(
      (relu): ReLU(inplace=True)
      (resm1): Sequential(
        (0): Conv2d(35, 35, kernel_size=(3, 3), stride=(1, 1), padding=(1, 1), padding_mode=reflect)
        (1): ReLU(inplace=True)
        (2): ReflectionPad2d((1, 1, 1, 1))
        (3): Conv2d(35, 35, kernel_size=(3, 3), stride=(1, 1))
      )
      (resm2): Sequential(
        (0): Conv2d(35, 35, kernel_size=(3, 3), stride=(1, 1), padding=(1, 1), padding_mode=reflect)
        (1): ReLU(inplace=True)
        (2): ReflectionPad2d((1, 1, 1, 1))
        (3): Conv2d(35, 35, kernel_size=(3, 3), stride=(1, 1))
      )
      (resm3): Sequential(
        (0): Conv2d(35, 35, kernel_size=(3, 3), stride=(1, 1), padding=(1, 1), padding_mode=reflect)
        (1): ReLU(inplace=True)
        (2): ReflectionPad2d((1, 1, 1, 1))
        (3): Conv2d(35, 35, kernel_size=(3, 3), stride=(1, 1))
      )
      (resm4): Sequential(
        (0): Conv2d(35, 35, kernel_size=(3, 3), stride=(1, 1), padding=(1, 1), padding_mode=reflect)
        (1): ReLU(inplace=True)
        (2): ReflectionPad2d((1, 1, 1, 1))
        (3): Conv2d(35, 35, kernel_size=(3, 3), stride=(1, 1))
      )
    )
    (9): Rnet(
      (relu): ReLU(inplace=True)
      (resm1): Sequential(
        (0): Conv2d(35, 35, kernel_size=(3, 3), stride=(1, 1), padding=(1, 1), padding_mode=reflect)
        (1): ReLU(inplace=True)
        (2): ReflectionPad2d((1, 1, 1, 1))
        (3): Conv2d(35, 35, kernel_size=(3, 3), stride=(1, 1))
      )
      (resm2): Sequential(
        (0): Conv2d(35, 35, kernel_size=(3, 3), stride=(1, 1), padding=(1, 1), padding_mode=reflect)
        (1): ReLU(inplace=True)
        (2): ReflectionPad2d((1, 1, 1, 1))
        (3): Conv2d(35, 35, kernel_size=(3, 3), stride=(1, 1))
      )
      (resm3): Sequential(
        (0): Conv2d(35, 35, kernel_size=(3, 3), stride=(1, 1), padding=(1, 1), padding_mode=reflect)
        (1): ReLU(inplace=True)
        (2): ReflectionPad2d((1, 1, 1, 1))
        (3): Conv2d(35, 35, kernel_size=(3, 3), stride=(1, 1))
      )
      (resm4): Sequential(
        (0): Conv2d(35, 35, kernel_size=(3, 3), stride=(1, 1), padding=(1, 1), padding_mode=reflect)
        (1): ReLU(inplace=True)
        (2): ReflectionPad2d((1, 1, 1, 1))
        (3): Conv2d(35, 35, kernel_size=(3, 3), stride=(1, 1))
      )
    )
    (10): Rnet(
      (relu): ReLU(inplace=True)
      (resm1): Sequential(
        (0): Conv2d(35, 35, kernel_size=(3, 3), stride=(1, 1), padding=(1, 1), padding_mode=reflect)
        (1): ReLU(inplace=True)
        (2): ReflectionPad2d((1, 1, 1, 1))
        (3): Conv2d(35, 35, kernel_size=(3, 3), stride=(1, 1))
      )
      (resm2): Sequential(
        (0): Conv2d(35, 35, kernel_size=(3, 3), stride=(1, 1), padding=(1, 1), padding_mode=reflect)
        (1): ReLU(inplace=True)
        (2): ReflectionPad2d((1, 1, 1, 1))
        (3): Conv2d(35, 35, kernel_size=(3, 3), stride=(1, 1))
      )
      (resm3): Sequential(
        (0): Conv2d(35, 35, kernel_size=(3, 3), stride=(1, 1), padding=(1, 1), padding_mode=reflect)
        (1): ReLU(inplace=True)
        (2): ReflectionPad2d((1, 1, 1, 1))
        (3): Conv2d(35, 35, kernel_size=(3, 3), stride=(1, 1))
      )
      (resm4): Sequential(
        (0): Conv2d(35, 35, kernel_size=(3, 3), stride=(1, 1), padding=(1, 1), padding_mode=reflect)
        (1): ReLU(inplace=True)
        (2): ReflectionPad2d((1, 1, 1, 1))
        (3): Conv2d(35, 35, kernel_size=(3, 3), stride=(1, 1))
      )
    )
    (11): Rnet(
      (relu): ReLU(inplace=True)
      (resm1): Sequential(
        (0): Conv2d(35, 35, kernel_size=(3, 3), stride=(1, 1), padding=(1, 1), padding_mode=reflect)
        (1): ReLU(inplace=True)
        (2): ReflectionPad2d((1, 1, 1, 1))
        (3): Conv2d(35, 35, kernel_size=(3, 3), stride=(1, 1))
      )
      (resm2): Sequential(
        (0): Conv2d(35, 35, kernel_size=(3, 3), stride=(1, 1), padding=(1, 1), padding_mode=reflect)
        (1): ReLU(inplace=True)
        (2): ReflectionPad2d((1, 1, 1, 1))
        (3): Conv2d(35, 35, kernel_size=(3, 3), stride=(1, 1))
      )
      (resm3): Sequential(
        (0): Conv2d(35, 35, kernel_size=(3, 3), stride=(1, 1), padding=(1, 1), padding_mode=reflect)
        (1): ReLU(inplace=True)
        (2): ReflectionPad2d((1, 1, 1, 1))
        (3): Conv2d(35, 35, kernel_size=(3, 3), stride=(1, 1))
      )
      (resm4): Sequential(
        (0): Conv2d(35, 35, kernel_size=(3, 3), stride=(1, 1), padding=(1, 1), padding_mode=reflect)
        (1): ReLU(inplace=True)
        (2): ReflectionPad2d((1, 1, 1, 1))
        (3): Conv2d(35, 35, kernel_size=(3, 3), stride=(1, 1))
      )
    )
    (12): Rnet(
      (relu): ReLU(inplace=True)
      (resm1): Sequential(
        (0): Conv2d(35, 35, kernel_size=(3, 3), stride=(1, 1), padding=(1, 1), padding_mode=reflect)
        (1): ReLU(inplace=True)
        (2): ReflectionPad2d((1, 1, 1, 1))
        (3): Conv2d(35, 35, kernel_size=(3, 3), stride=(1, 1))
      )
      (resm2): Sequential(
        (0): Conv2d(35, 35, kernel_size=(3, 3), stride=(1, 1), padding=(1, 1), padding_mode=reflect)
        (1): ReLU(inplace=True)
        (2): ReflectionPad2d((1, 1, 1, 1))
        (3): Conv2d(35, 35, kernel_size=(3, 3), stride=(1, 1))
      )
      (resm3): Sequential(
        (0): Conv2d(35, 35, kernel_size=(3, 3), stride=(1, 1), padding=(1, 1), padding_mode=reflect)
        (1): ReLU(inplace=True)
        (2): ReflectionPad2d((1, 1, 1, 1))
        (3): Conv2d(35, 35, kernel_size=(3, 3), stride=(1, 1))
      )
      (resm4): Sequential(
        (0): Conv2d(35, 35, kernel_size=(3, 3), stride=(1, 1), padding=(1, 1), padding_mode=reflect)
        (1): ReLU(inplace=True)
        (2): ReflectionPad2d((1, 1, 1, 1))
        (3): Conv2d(35, 35, kernel_size=(3, 3), stride=(1, 1))
      )
    )
  )
  (conv_l): Conv2d(1, 29, kernel_size=(3, 3), stride=(1, 1), padding=(1, 1), padding_mode=reflect)
  (conv_r): Conv2d(3, 32, kernel_size=(3, 3), stride=(1, 1), padding=(1, 1), padding_mode=reflect)
)
Mainnet(
  (renet): Renet(
    (relu): ReLU(inplace=True)
    (res1): Sequential(
      (0): Conv2d(4, 32, kernel_size=(3, 3), stride=(1, 1), padding=(1, 1), padding_mode=reflect)
      (1): ReLU()
      (2): Conv2d(32, 4, kernel_size=(3, 3), stride=(1, 1), padding=(1, 1), padding_mode=reflect)
    )
    (res2): Sequential(
      (0): Conv2d(4, 32, kernel_size=(3, 3), stride=(1, 1), padding=(1, 1), padding_mode=reflect)
      (1): ReLU()
      (2): Conv2d(32, 4, kernel_size=(3, 3), stride=(1, 1), padding=(1, 1), padding_mode=reflect)
    )
    (res3): Sequential(
      (0): Conv2d(4, 32, kernel_size=(3, 3), stride=(1, 1), padding=(1, 1), padding_mode=reflect)
      (1): ReLU()
      (2): Conv2d(32, 4, kernel_size=(3, 3), stride=(1, 1), padding=(1, 1), padding_mode=reflect)
    )
    (res4): Sequential(
      (0): Conv2d(4, 32, kernel_size=(3, 3), stride=(1, 1), padding=(1, 1), padding_mode=reflect)
      (1): ReLU()
      (2): Conv2d(32, 4, kernel_size=(3, 3), stride=(1, 1), padding=(1, 1), padding_mode=reflect)
    )
  )
  (lenet): Lenet(
    (relu): ReLU(inplace=True)
    (res1): Sequential(
      (0): Conv2d(1, 32, kernel_size=(3, 3), stride=(1, 1), padding=(1, 1), padding_mode=reflect)
      (1): ReLU(inplace=True)
      (2): Conv2d(32, 1, kernel_size=(3, 3), stride=(1, 1), padding=(1, 1), padding_mode=reflect)
    )
    (res2): Sequential(
      (0): Conv2d(1, 32, kernel_size=(3, 3), stride=(1, 1), padding=(1, 1), padding_mode=reflect)
      (1): ReLU(inplace=True)
      (2): Conv2d(32, 1, kernel_size=(3, 3), stride=(1, 1), padding=(1, 1), padding_mode=reflect)
    )
    (scale): Sequential(
      (0): Linear(in_features=1, out_features=100, bias=True)
      (1): ReLU(inplace=True)
      (2): Linear(in_features=100, out_features=1, bias=True)
      (3): Sigmoid()
    )
  )
  (scale): Scale(
    (conv1): Sequential(
      (0): Conv2d(3, 64, kernel_size=(3, 3), stride=(1, 1), padding=(1, 1), padding_mode=reflect)
      (1): LeakyReLU(negative_slope=0.01, inplace=True)
      (2): Conv2d(64, 1, kernel_size=(1, 1), stride=(1, 1), padding_mode=reflect)
      (3): Sigmoid()
    )
  )
)
[Epoch 2]	Learning rate: 1.00e-5
[Epoch 2]	Learning rate of rec: 1.00e-3
Mainnet(
  (lnet): Lnet(
    (conv1): Sequential(
      (0): Conv2d(34, 34, kernel_size=(3, 3), stride=(1, 1), padding=(1, 1), padding_mode=reflect)
      (1): LeakyReLU(negative_slope=0.01, inplace=True)
    )
    (conv2): Sequential(
      (0): Conv2d(66, 34, kernel_size=(1, 1), stride=(1, 1))
    )
  )
  (rnet): Rnet(
    (relu): ReLU(inplace=True)
    (resm1): Sequential(
      (0): Conv2d(35, 35, kernel_size=(3, 3), stride=(1, 1), padding=(1, 1), padding_mode=reflect)
      (1): ReLU(inplace=True)
      (2): ReflectionPad2d((1, 1, 1, 1))
      (3): Conv2d(35, 35, kernel_size=(3, 3), stride=(1, 1))
    )
    (resm2): Sequential(
      (0): Conv2d(35, 35, kernel_size=(3, 3), stride=(1, 1), padding=(1, 1), padding_mode=reflect)
      (1): ReLU(inplace=True)
      (2): ReflectionPad2d((1, 1, 1, 1))
      (3): Conv2d(35, 35, kernel_size=(3, 3), stride=(1, 1))
    )
    (resm3): Sequential(
      (0): Conv2d(35, 35, kernel_size=(3, 3), stride=(1, 1), padding=(1, 1), padding_mode=reflect)
      (1): ReLU(inplace=True)
      (2): ReflectionPad2d((1, 1, 1, 1))
      (3): Conv2d(35, 35, kernel_size=(3, 3), stride=(1, 1))
    )
    (resm4): Sequential(
      (0): Conv2d(35, 35, kernel_size=(3, 3), stride=(1, 1), padding=(1, 1), padding_mode=reflect)
      (1): ReLU(inplace=True)
      (2): ReflectionPad2d((1, 1, 1, 1))
      (3): Conv2d(35, 35, kernel_size=(3, 3), stride=(1, 1))
    )
  )
  (l_stage): Sequential(
    (0): Lnet(
      (conv1): Sequential(
        (0): Conv2d(34, 34, kernel_size=(3, 3), stride=(1, 1), padding=(1, 1), padding_mode=reflect)
        (1): LeakyReLU(negative_slope=0.01, inplace=True)
      )
      (conv2): Sequential(
        (0): Conv2d(66, 34, kernel_size=(1, 1), stride=(1, 1))
      )
    )
    (1): Lnet(
      (conv1): Sequential(
        (0): Conv2d(34, 34, kernel_size=(3, 3), stride=(1, 1), padding=(1, 1), padding_mode=reflect)
        (1): LeakyReLU(negative_slope=0.01, inplace=True)
      )
      (conv2): Sequential(
        (0): Conv2d(66, 34, kernel_size=(1, 1), stride=(1, 1))
      )
    )
    (2): Lnet(
      (conv1): Sequential(
        (0): Conv2d(34, 34, kernel_size=(3, 3), stride=(1, 1), padding=(1, 1), padding_mode=reflect)
        (1): LeakyReLU(negative_slope=0.01, inplace=True)
      )
      (conv2): Sequential(
        (0): Conv2d(66, 34, kernel_size=(1, 1), stride=(1, 1))
      )
    )
    (3): Lnet(
      (conv1): Sequential(
        (0): Conv2d(34, 34, kernel_size=(3, 3), stride=(1, 1), padding=(1, 1), padding_mode=reflect)
        (1): LeakyReLU(negative_slope=0.01, inplace=True)
      )
      (conv2): Sequential(
        (0): Conv2d(66, 34, kernel_size=(1, 1), stride=(1, 1))
      )
    )
    (4): Lnet(
      (conv1): Sequential(
        (0): Conv2d(34, 34, kernel_size=(3, 3), stride=(1, 1), padding=(1, 1), padding_mode=reflect)
        (1): LeakyReLU(negative_slope=0.01, inplace=True)
      )
      (conv2): Sequential(
        (0): Conv2d(66, 34, kernel_size=(1, 1), stride=(1, 1))
      )
    )
    (5): Lnet(
      (conv1): Sequential(
        (0): Conv2d(34, 34, kernel_size=(3, 3), stride=(1, 1), padding=(1, 1), padding_mode=reflect)
        (1): LeakyReLU(negative_slope=0.01, inplace=True)
      )
      (conv2): Sequential(
        (0): Conv2d(66, 34, kernel_size=(1, 1), stride=(1, 1))
      )
    )
    (6): Lnet(
      (conv1): Sequential(
        (0): Conv2d(34, 34, kernel_size=(3, 3), stride=(1, 1), padding=(1, 1), padding_mode=reflect)
        (1): LeakyReLU(negative_slope=0.01, inplace=True)
      )
      (conv2): Sequential(
        (0): Conv2d(66, 34, kernel_size=(1, 1), stride=(1, 1))
      )
    )
    (7): Lnet(
      (conv1): Sequential(
        (0): Conv2d(34, 34, kernel_size=(3, 3), stride=(1, 1), padding=(1, 1), padding_mode=reflect)
        (1): LeakyReLU(negative_slope=0.01, inplace=True)
      )
      (conv2): Sequential(
        (0): Conv2d(66, 34, kernel_size=(1, 1), stride=(1, 1))
      )
    )
    (8): Lnet(
      (conv1): Sequential(
        (0): Conv2d(34, 34, kernel_size=(3, 3), stride=(1, 1), padding=(1, 1), padding_mode=reflect)
        (1): LeakyReLU(negative_slope=0.01, inplace=True)
      )
      (conv2): Sequential(
        (0): Conv2d(66, 34, kernel_size=(1, 1), stride=(1, 1))
      )
    )
    (9): Lnet(
      (conv1): Sequential(
        (0): Conv2d(34, 34, kernel_size=(3, 3), stride=(1, 1), padding=(1, 1), padding_mode=reflect)
        (1): LeakyReLU(negative_slope=0.01, inplace=True)
      )
      (conv2): Sequential(
        (0): Conv2d(66, 34, kernel_size=(1, 1), stride=(1, 1))
      )
    )
    (10): Lnet(
      (conv1): Sequential(
        (0): Conv2d(34, 34, kernel_size=(3, 3), stride=(1, 1), padding=(1, 1), padding_mode=reflect)
        (1): LeakyReLU(negative_slope=0.01, inplace=True)
      )
      (conv2): Sequential(
        (0): Conv2d(66, 34, kernel_size=(1, 1), stride=(1, 1))
      )
    )
    (11): Lnet(
      (conv1): Sequential(
        (0): Conv2d(34, 34, kernel_size=(3, 3), stride=(1, 1), padding=(1, 1), padding_mode=reflect)
        (1): LeakyReLU(negative_slope=0.01, inplace=True)
      )
      (conv2): Sequential(
        (0): Conv2d(66, 34, kernel_size=(1, 1), stride=(1, 1))
      )
    )
    (12): Lnet(
      (conv1): Sequential(
        (0): Conv2d(34, 34, kernel_size=(3, 3), stride=(1, 1), padding=(1, 1), padding_mode=reflect)
        (1): LeakyReLU(negative_slope=0.01, inplace=True)
      )
      (conv2): Sequential(
        (0): Conv2d(66, 34, kernel_size=(1, 1), stride=(1, 1))
      )
    )
  )
  (r_stage): Sequential(
    (0): Rnet(
      (relu): ReLU(inplace=True)
      (resm1): Sequential(
        (0): Conv2d(35, 35, kernel_size=(3, 3), stride=(1, 1), padding=(1, 1), padding_mode=reflect)
        (1): ReLU(inplace=True)
        (2): ReflectionPad2d((1, 1, 1, 1))
        (3): Conv2d(35, 35, kernel_size=(3, 3), stride=(1, 1))
      )
      (resm2): Sequential(
        (0): Conv2d(35, 35, kernel_size=(3, 3), stride=(1, 1), padding=(1, 1), padding_mode=reflect)
        (1): ReLU(inplace=True)
        (2): ReflectionPad2d((1, 1, 1, 1))
        (3): Conv2d(35, 35, kernel_size=(3, 3), stride=(1, 1))
      )
      (resm3): Sequential(
        (0): Conv2d(35, 35, kernel_size=(3, 3), stride=(1, 1), padding=(1, 1), padding_mode=reflect)
        (1): ReLU(inplace=True)
        (2): ReflectionPad2d((1, 1, 1, 1))
        (3): Conv2d(35, 35, kernel_size=(3, 3), stride=(1, 1))
      )
      (resm4): Sequential(
        (0): Conv2d(35, 35, kernel_size=(3, 3), stride=(1, 1), padding=(1, 1), padding_mode=reflect)
        (1): ReLU(inplace=True)
        (2): ReflectionPad2d((1, 1, 1, 1))
        (3): Conv2d(35, 35, kernel_size=(3, 3), stride=(1, 1))
      )
    )
    (1): Rnet(
      (relu): ReLU(inplace=True)
      (resm1): Sequential(
        (0): Conv2d(35, 35, kernel_size=(3, 3), stride=(1, 1), padding=(1, 1), padding_mode=reflect)
        (1): ReLU(inplace=True)
        (2): ReflectionPad2d((1, 1, 1, 1))
        (3): Conv2d(35, 35, kernel_size=(3, 3), stride=(1, 1))
      )
      (resm2): Sequential(
        (0): Conv2d(35, 35, kernel_size=(3, 3), stride=(1, 1), padding=(1, 1), padding_mode=reflect)
        (1): ReLU(inplace=True)
        (2): ReflectionPad2d((1, 1, 1, 1))
        (3): Conv2d(35, 35, kernel_size=(3, 3), stride=(1, 1))
      )
      (resm3): Sequential(
        (0): Conv2d(35, 35, kernel_size=(3, 3), stride=(1, 1), padding=(1, 1), padding_mode=reflect)
        (1): ReLU(inplace=True)
        (2): ReflectionPad2d((1, 1, 1, 1))
        (3): Conv2d(35, 35, kernel_size=(3, 3), stride=(1, 1))
      )
      (resm4): Sequential(
        (0): Conv2d(35, 35, kernel_size=(3, 3), stride=(1, 1), padding=(1, 1), padding_mode=reflect)
        (1): ReLU(inplace=True)
        (2): ReflectionPad2d((1, 1, 1, 1))
        (3): Conv2d(35, 35, kernel_size=(3, 3), stride=(1, 1))
      )
    )
    (2): Rnet(
      (relu): ReLU(inplace=True)
      (resm1): Sequential(
        (0): Conv2d(35, 35, kernel_size=(3, 3), stride=(1, 1), padding=(1, 1), padding_mode=reflect)
        (1): ReLU(inplace=True)
        (2): ReflectionPad2d((1, 1, 1, 1))
        (3): Conv2d(35, 35, kernel_size=(3, 3), stride=(1, 1))
      )
      (resm2): Sequential(
        (0): Conv2d(35, 35, kernel_size=(3, 3), stride=(1, 1), padding=(1, 1), padding_mode=reflect)
        (1): ReLU(inplace=True)
        (2): ReflectionPad2d((1, 1, 1, 1))
        (3): Conv2d(35, 35, kernel_size=(3, 3), stride=(1, 1))
      )
      (resm3): Sequential(
        (0): Conv2d(35, 35, kernel_size=(3, 3), stride=(1, 1), padding=(1, 1), padding_mode=reflect)
        (1): ReLU(inplace=True)
        (2): ReflectionPad2d((1, 1, 1, 1))
        (3): Conv2d(35, 35, kernel_size=(3, 3), stride=(1, 1))
      )
      (resm4): Sequential(
        (0): Conv2d(35, 35, kernel_size=(3, 3), stride=(1, 1), padding=(1, 1), padding_mode=reflect)
        (1): ReLU(inplace=True)
        (2): ReflectionPad2d((1, 1, 1, 1))
        (3): Conv2d(35, 35, kernel_size=(3, 3), stride=(1, 1))
      )
    )
    (3): Rnet(
      (relu): ReLU(inplace=True)
      (resm1): Sequential(
        (0): Conv2d(35, 35, kernel_size=(3, 3), stride=(1, 1), padding=(1, 1), padding_mode=reflect)
        (1): ReLU(inplace=True)
        (2): ReflectionPad2d((1, 1, 1, 1))
        (3): Conv2d(35, 35, kernel_size=(3, 3), stride=(1, 1))
      )
      (resm2): Sequential(
        (0): Conv2d(35, 35, kernel_size=(3, 3), stride=(1, 1), padding=(1, 1), padding_mode=reflect)
        (1): ReLU(inplace=True)
        (2): ReflectionPad2d((1, 1, 1, 1))
        (3): Conv2d(35, 35, kernel_size=(3, 3), stride=(1, 1))
      )
      (resm3): Sequential(
        (0): Conv2d(35, 35, kernel_size=(3, 3), stride=(1, 1), padding=(1, 1), padding_mode=reflect)
        (1): ReLU(inplace=True)
        (2): ReflectionPad2d((1, 1, 1, 1))
        (3): Conv2d(35, 35, kernel_size=(3, 3), stride=(1, 1))
      )
      (resm4): Sequential(
        (0): Conv2d(35, 35, kernel_size=(3, 3), stride=(1, 1), padding=(1, 1), padding_mode=reflect)
        (1): ReLU(inplace=True)
        (2): ReflectionPad2d((1, 1, 1, 1))
        (3): Conv2d(35, 35, kernel_size=(3, 3), stride=(1, 1))
      )
    )
    (4): Rnet(
      (relu): ReLU(inplace=True)
      (resm1): Sequential(
        (0): Conv2d(35, 35, kernel_size=(3, 3), stride=(1, 1), padding=(1, 1), padding_mode=reflect)
        (1): ReLU(inplace=True)
        (2): ReflectionPad2d((1, 1, 1, 1))
        (3): Conv2d(35, 35, kernel_size=(3, 3), stride=(1, 1))
      )
      (resm2): Sequential(
        (0): Conv2d(35, 35, kernel_size=(3, 3), stride=(1, 1), padding=(1, 1), padding_mode=reflect)
        (1): ReLU(inplace=True)
        (2): ReflectionPad2d((1, 1, 1, 1))
        (3): Conv2d(35, 35, kernel_size=(3, 3), stride=(1, 1))
      )
      (resm3): Sequential(
        (0): Conv2d(35, 35, kernel_size=(3, 3), stride=(1, 1), padding=(1, 1), padding_mode=reflect)
        (1): ReLU(inplace=True)
        (2): ReflectionPad2d((1, 1, 1, 1))
        (3): Conv2d(35, 35, kernel_size=(3, 3), stride=(1, 1))
      )
      (resm4): Sequential(
        (0): Conv2d(35, 35, kernel_size=(3, 3), stride=(1, 1), padding=(1, 1), padding_mode=reflect)
        (1): ReLU(inplace=True)
        (2): ReflectionPad2d((1, 1, 1, 1))
        (3): Conv2d(35, 35, kernel_size=(3, 3), stride=(1, 1))
      )
    )
    (5): Rnet(
      (relu): ReLU(inplace=True)
      (resm1): Sequential(
        (0): Conv2d(35, 35, kernel_size=(3, 3), stride=(1, 1), padding=(1, 1), padding_mode=reflect)
        (1): ReLU(inplace=True)
        (2): ReflectionPad2d((1, 1, 1, 1))
        (3): Conv2d(35, 35, kernel_size=(3, 3), stride=(1, 1))
      )
      (resm2): Sequential(
        (0): Conv2d(35, 35, kernel_size=(3, 3), stride=(1, 1), padding=(1, 1), padding_mode=reflect)
        (1): ReLU(inplace=True)
        (2): ReflectionPad2d((1, 1, 1, 1))
        (3): Conv2d(35, 35, kernel_size=(3, 3), stride=(1, 1))
      )
      (resm3): Sequential(
        (0): Conv2d(35, 35, kernel_size=(3, 3), stride=(1, 1), padding=(1, 1), padding_mode=reflect)
        (1): ReLU(inplace=True)
        (2): ReflectionPad2d((1, 1, 1, 1))
        (3): Conv2d(35, 35, kernel_size=(3, 3), stride=(1, 1))
      )
      (resm4): Sequential(
        (0): Conv2d(35, 35, kernel_size=(3, 3), stride=(1, 1), padding=(1, 1), padding_mode=reflect)
        (1): ReLU(inplace=True)
        (2): ReflectionPad2d((1, 1, 1, 1))
        (3): Conv2d(35, 35, kernel_size=(3, 3), stride=(1, 1))
      )
    )
    (6): Rnet(
      (relu): ReLU(inplace=True)
      (resm1): Sequential(
        (0): Conv2d(35, 35, kernel_size=(3, 3), stride=(1, 1), padding=(1, 1), padding_mode=reflect)
        (1): ReLU(inplace=True)
        (2): ReflectionPad2d((1, 1, 1, 1))
        (3): Conv2d(35, 35, kernel_size=(3, 3), stride=(1, 1))
      )
      (resm2): Sequential(
        (0): Conv2d(35, 35, kernel_size=(3, 3), stride=(1, 1), padding=(1, 1), padding_mode=reflect)
        (1): ReLU(inplace=True)
        (2): ReflectionPad2d((1, 1, 1, 1))
        (3): Conv2d(35, 35, kernel_size=(3, 3), stride=(1, 1))
      )
      (resm3): Sequential(
        (0): Conv2d(35, 35, kernel_size=(3, 3), stride=(1, 1), padding=(1, 1), padding_mode=reflect)
        (1): ReLU(inplace=True)
        (2): ReflectionPad2d((1, 1, 1, 1))
        (3): Conv2d(35, 35, kernel_size=(3, 3), stride=(1, 1))
      )
      (resm4): Sequential(
        (0): Conv2d(35, 35, kernel_size=(3, 3), stride=(1, 1), padding=(1, 1), padding_mode=reflect)
        (1): ReLU(inplace=True)
        (2): ReflectionPad2d((1, 1, 1, 1))
        (3): Conv2d(35, 35, kernel_size=(3, 3), stride=(1, 1))
      )
    )
    (7): Rnet(
      (relu): ReLU(inplace=True)
      (resm1): Sequential(
        (0): Conv2d(35, 35, kernel_size=(3, 3), stride=(1, 1), padding=(1, 1), padding_mode=reflect)
        (1): ReLU(inplace=True)
        (2): ReflectionPad2d((1, 1, 1, 1))
        (3): Conv2d(35, 35, kernel_size=(3, 3), stride=(1, 1))
      )
      (resm2): Sequential(
        (0): Conv2d(35, 35, kernel_size=(3, 3), stride=(1, 1), padding=(1, 1), padding_mode=reflect)
        (1): ReLU(inplace=True)
        (2): ReflectionPad2d((1, 1, 1, 1))
        (3): Conv2d(35, 35, kernel_size=(3, 3), stride=(1, 1))
      )
      (resm3): Sequential(
        (0): Conv2d(35, 35, kernel_size=(3, 3), stride=(1, 1), padding=(1, 1), padding_mode=reflect)
        (1): ReLU(inplace=True)
        (2): ReflectionPad2d((1, 1, 1, 1))
        (3): Conv2d(35, 35, kernel_size=(3, 3), stride=(1, 1))
      )
      (resm4): Sequential(
        (0): Conv2d(35, 35, kernel_size=(3, 3), stride=(1, 1), padding=(1, 1), padding_mode=reflect)
        (1): ReLU(inplace=True)
        (2): ReflectionPad2d((1, 1, 1, 1))
        (3): Conv2d(35, 35, kernel_size=(3, 3), stride=(1, 1))
      )
    )
    (8): Rnet(
      (relu): ReLU(inplace=True)
      (resm1): Sequential(
        (0): Conv2d(35, 35, kernel_size=(3, 3), stride=(1, 1), padding=(1, 1), padding_mode=reflect)
        (1): ReLU(inplace=True)
        (2): ReflectionPad2d((1, 1, 1, 1))
        (3): Conv2d(35, 35, kernel_size=(3, 3), stride=(1, 1))
      )
      (resm2): Sequential(
        (0): Conv2d(35, 35, kernel_size=(3, 3), stride=(1, 1), padding=(1, 1), padding_mode=reflect)
        (1): ReLU(inplace=True)
        (2): ReflectionPad2d((1, 1, 1, 1))
        (3): Conv2d(35, 35, kernel_size=(3, 3), stride=(1, 1))
      )
      (resm3): Sequential(
        (0): Conv2d(35, 35, kernel_size=(3, 3), stride=(1, 1), padding=(1, 1), padding_mode=reflect)
        (1): ReLU(inplace=True)
        (2): ReflectionPad2d((1, 1, 1, 1))
        (3): Conv2d(35, 35, kernel_size=(3, 3), stride=(1, 1))
      )
      (resm4): Sequential(
        (0): Conv2d(35, 35, kernel_size=(3, 3), stride=(1, 1), padding=(1, 1), padding_mode=reflect)
        (1): ReLU(inplace=True)
        (2): ReflectionPad2d((1, 1, 1, 1))
        (3): Conv2d(35, 35, kernel_size=(3, 3), stride=(1, 1))
      )
    )
    (9): Rnet(
      (relu): ReLU(inplace=True)
      (resm1): Sequential(
        (0): Conv2d(35, 35, kernel_size=(3, 3), stride=(1, 1), padding=(1, 1), padding_mode=reflect)
        (1): ReLU(inplace=True)
        (2): ReflectionPad2d((1, 1, 1, 1))
        (3): Conv2d(35, 35, kernel_size=(3, 3), stride=(1, 1))
      )
      (resm2): Sequential(
        (0): Conv2d(35, 35, kernel_size=(3, 3), stride=(1, 1), padding=(1, 1), padding_mode=reflect)
        (1): ReLU(inplace=True)
        (2): ReflectionPad2d((1, 1, 1, 1))
        (3): Conv2d(35, 35, kernel_size=(3, 3), stride=(1, 1))
      )
      (resm3): Sequential(
        (0): Conv2d(35, 35, kernel_size=(3, 3), stride=(1, 1), padding=(1, 1), padding_mode=reflect)
        (1): ReLU(inplace=True)
        (2): ReflectionPad2d((1, 1, 1, 1))
        (3): Conv2d(35, 35, kernel_size=(3, 3), stride=(1, 1))
      )
      (resm4): Sequential(
        (0): Conv2d(35, 35, kernel_size=(3, 3), stride=(1, 1), padding=(1, 1), padding_mode=reflect)
        (1): ReLU(inplace=True)
        (2): ReflectionPad2d((1, 1, 1, 1))
        (3): Conv2d(35, 35, kernel_size=(3, 3), stride=(1, 1))
      )
    )
    (10): Rnet(
      (relu): ReLU(inplace=True)
      (resm1): Sequential(
        (0): Conv2d(35, 35, kernel_size=(3, 3), stride=(1, 1), padding=(1, 1), padding_mode=reflect)
        (1): ReLU(inplace=True)
        (2): ReflectionPad2d((1, 1, 1, 1))
        (3): Conv2d(35, 35, kernel_size=(3, 3), stride=(1, 1))
      )
      (resm2): Sequential(
        (0): Conv2d(35, 35, kernel_size=(3, 3), stride=(1, 1), padding=(1, 1), padding_mode=reflect)
        (1): ReLU(inplace=True)
        (2): ReflectionPad2d((1, 1, 1, 1))
        (3): Conv2d(35, 35, kernel_size=(3, 3), stride=(1, 1))
      )
      (resm3): Sequential(
        (0): Conv2d(35, 35, kernel_size=(3, 3), stride=(1, 1), padding=(1, 1), padding_mode=reflect)
        (1): ReLU(inplace=True)
        (2): ReflectionPad2d((1, 1, 1, 1))
        (3): Conv2d(35, 35, kernel_size=(3, 3), stride=(1, 1))
      )
      (resm4): Sequential(
        (0): Conv2d(35, 35, kernel_size=(3, 3), stride=(1, 1), padding=(1, 1), padding_mode=reflect)
        (1): ReLU(inplace=True)
        (2): ReflectionPad2d((1, 1, 1, 1))
        (3): Conv2d(35, 35, kernel_size=(3, 3), stride=(1, 1))
      )
    )
    (11): Rnet(
      (relu): ReLU(inplace=True)
      (resm1): Sequential(
        (0): Conv2d(35, 35, kernel_size=(3, 3), stride=(1, 1), padding=(1, 1), padding_mode=reflect)
        (1): ReLU(inplace=True)
        (2): ReflectionPad2d((1, 1, 1, 1))
        (3): Conv2d(35, 35, kernel_size=(3, 3), stride=(1, 1))
      )
      (resm2): Sequential(
        (0): Conv2d(35, 35, kernel_size=(3, 3), stride=(1, 1), padding=(1, 1), padding_mode=reflect)
        (1): ReLU(inplace=True)
        (2): ReflectionPad2d((1, 1, 1, 1))
        (3): Conv2d(35, 35, kernel_size=(3, 3), stride=(1, 1))
      )
      (resm3): Sequential(
        (0): Conv2d(35, 35, kernel_size=(3, 3), stride=(1, 1), padding=(1, 1), padding_mode=reflect)
        (1): ReLU(inplace=True)
        (2): ReflectionPad2d((1, 1, 1, 1))
        (3): Conv2d(35, 35, kernel_size=(3, 3), stride=(1, 1))
      )
      (resm4): Sequential(
        (0): Conv2d(35, 35, kernel_size=(3, 3), stride=(1, 1), padding=(1, 1), padding_mode=reflect)
        (1): ReLU(inplace=True)
        (2): ReflectionPad2d((1, 1, 1, 1))
        (3): Conv2d(35, 35, kernel_size=(3, 3), stride=(1, 1))
      )
    )
    (12): Rnet(
      (relu): ReLU(inplace=True)
      (resm1): Sequential(
        (0): Conv2d(35, 35, kernel_size=(3, 3), stride=(1, 1), padding=(1, 1), padding_mode=reflect)
        (1): ReLU(inplace=True)
        (2): ReflectionPad2d((1, 1, 1, 1))
        (3): Conv2d(35, 35, kernel_size=(3, 3), stride=(1, 1))
      )
      (resm2): Sequential(
        (0): Conv2d(35, 35, kernel_size=(3, 3), stride=(1, 1), padding=(1, 1), padding_mode=reflect)
        (1): ReLU(inplace=True)
        (2): ReflectionPad2d((1, 1, 1, 1))
        (3): Conv2d(35, 35, kernel_size=(3, 3), stride=(1, 1))
      )
      (resm3): Sequential(
        (0): Conv2d(35, 35, kernel_size=(3, 3), stride=(1, 1), padding=(1, 1), padding_mode=reflect)
        (1): ReLU(inplace=True)
        (2): ReflectionPad2d((1, 1, 1, 1))
        (3): Conv2d(35, 35, kernel_size=(3, 3), stride=(1, 1))
      )
      (resm4): Sequential(
        (0): Conv2d(35, 35, kernel_size=(3, 3), stride=(1, 1), padding=(1, 1), padding_mode=reflect)
        (1): ReLU(inplace=True)
        (2): ReflectionPad2d((1, 1, 1, 1))
        (3): Conv2d(35, 35, kernel_size=(3, 3), stride=(1, 1))
      )
    )
  )
  (conv_l): Conv2d(1, 29, kernel_size=(3, 3), stride=(1, 1), padding=(1, 1), padding_mode=reflect)
  (conv_r): Conv2d(3, 32, kernel_size=(3, 3), stride=(1, 1), padding=(1, 1), padding_mode=reflect)
)
Mainnet(
  (renet): Renet(
    (relu): ReLU(inplace=True)
    (res1): Sequential(
      (0): Conv2d(4, 32, kernel_size=(3, 3), stride=(1, 1), padding=(1, 1), padding_mode=reflect)
      (1): ReLU()
      (2): Conv2d(32, 4, kernel_size=(3, 3), stride=(1, 1), padding=(1, 1), padding_mode=reflect)
    )
    (res2): Sequential(
      (0): Conv2d(4, 32, kernel_size=(3, 3), stride=(1, 1), padding=(1, 1), padding_mode=reflect)
      (1): ReLU()
      (2): Conv2d(32, 4, kernel_size=(3, 3), stride=(1, 1), padding=(1, 1), padding_mode=reflect)
    )
    (res3): Sequential(
      (0): Conv2d(4, 32, kernel_size=(3, 3), stride=(1, 1), padding=(1, 1), padding_mode=reflect)
      (1): ReLU()
      (2): Conv2d(32, 4, kernel_size=(3, 3), stride=(1, 1), padding=(1, 1), padding_mode=reflect)
    )
    (res4): Sequential(
      (0): Conv2d(4, 32, kernel_size=(3, 3), stride=(1, 1), padding=(1, 1), padding_mode=reflect)
      (1): ReLU()
      (2): Conv2d(32, 4, kernel_size=(3, 3), stride=(1, 1), padding=(1, 1), padding_mode=reflect)
    )
  )
  (lenet): Lenet(
    (relu): ReLU(inplace=True)
    (res1): Sequential(
      (0): Conv2d(1, 32, kernel_size=(3, 3), stride=(1, 1), padding=(1, 1), padding_mode=reflect)
      (1): ReLU(inplace=True)
      (2): Conv2d(32, 1, kernel_size=(3, 3), stride=(1, 1), padding=(1, 1), padding_mode=reflect)
    )
    (res2): Sequential(
      (0): Conv2d(1, 32, kernel_size=(3, 3), stride=(1, 1), padding=(1, 1), padding_mode=reflect)
      (1): ReLU(inplace=True)
      (2): Conv2d(32, 1, kernel_size=(3, 3), stride=(1, 1), padding=(1, 1), padding_mode=reflect)
    )
    (scale): Sequential(
      (0): Linear(in_features=1, out_features=100, bias=True)
      (1): ReLU(inplace=True)
      (2): Linear(in_features=100, out_features=1, bias=True)
      (3): Sigmoid()
    )
  )
  (scale): Scale(
    (conv1): Sequential(
      (0): Conv2d(3, 64, kernel_size=(3, 3), stride=(1, 1), padding=(1, 1), padding_mode=reflect)
      (1): LeakyReLU(negative_slope=0.01, inplace=True)
      (2): Conv2d(64, 1, kernel_size=(1, 1), stride=(1, 1), padding_mode=reflect)
      (3): Sigmoid()
    )
  )
)
[Epoch 2]	Learning rate: 1.00e-5
[Epoch 2]	Learning rate of rec: 1.00e-3
[900/18000]	[VGG22: 0.0023]	25.7+0.3s
Mainnet(
  (lnet): Lnet(
    (conv1): Sequential(
      (0): Conv2d(34, 34, kernel_size=(3, 3), stride=(1, 1), padding=(1, 1), padding_mode=reflect)
      (1): LeakyReLU(negative_slope=0.01, inplace=True)
    )
    (conv2): Sequential(
      (0): Conv2d(66, 34, kernel_size=(1, 1), stride=(1, 1))
    )
  )
  (rnet): Rnet(
    (relu): ReLU(inplace=True)
    (resm1): Sequential(
      (0): Conv2d(35, 35, kernel_size=(3, 3), stride=(1, 1), padding=(1, 1), padding_mode=reflect)
      (1): ReLU(inplace=True)
      (2): ReflectionPad2d((1, 1, 1, 1))
      (3): Conv2d(35, 35, kernel_size=(3, 3), stride=(1, 1))
    )
    (resm2): Sequential(
      (0): Conv2d(35, 35, kernel_size=(3, 3), stride=(1, 1), padding=(1, 1), padding_mode=reflect)
      (1): ReLU(inplace=True)
      (2): ReflectionPad2d((1, 1, 1, 1))
      (3): Conv2d(35, 35, kernel_size=(3, 3), stride=(1, 1))
    )
    (resm3): Sequential(
      (0): Conv2d(35, 35, kernel_size=(3, 3), stride=(1, 1), padding=(1, 1), padding_mode=reflect)
      (1): ReLU(inplace=True)
      (2): ReflectionPad2d((1, 1, 1, 1))
      (3): Conv2d(35, 35, kernel_size=(3, 3), stride=(1, 1))
    )
    (resm4): Sequential(
      (0): Conv2d(35, 35, kernel_size=(3, 3), stride=(1, 1), padding=(1, 1), padding_mode=reflect)
      (1): ReLU(inplace=True)
      (2): ReflectionPad2d((1, 1, 1, 1))
      (3): Conv2d(35, 35, kernel_size=(3, 3), stride=(1, 1))
    )
  )
  (l_stage): Sequential(
    (0): Lnet(
      (conv1): Sequential(
        (0): Conv2d(34, 34, kernel_size=(3, 3), stride=(1, 1), padding=(1, 1), padding_mode=reflect)
        (1): LeakyReLU(negative_slope=0.01, inplace=True)
      )
      (conv2): Sequential(
        (0): Conv2d(66, 34, kernel_size=(1, 1), stride=(1, 1))
      )
    )
    (1): Lnet(
      (conv1): Sequential(
        (0): Conv2d(34, 34, kernel_size=(3, 3), stride=(1, 1), padding=(1, 1), padding_mode=reflect)
        (1): LeakyReLU(negative_slope=0.01, inplace=True)
      )
      (conv2): Sequential(
        (0): Conv2d(66, 34, kernel_size=(1, 1), stride=(1, 1))
      )
    )
    (2): Lnet(
      (conv1): Sequential(
        (0): Conv2d(34, 34, kernel_size=(3, 3), stride=(1, 1), padding=(1, 1), padding_mode=reflect)
        (1): LeakyReLU(negative_slope=0.01, inplace=True)
      )
      (conv2): Sequential(
        (0): Conv2d(66, 34, kernel_size=(1, 1), stride=(1, 1))
      )
    )
    (3): Lnet(
      (conv1): Sequential(
        (0): Conv2d(34, 34, kernel_size=(3, 3), stride=(1, 1), padding=(1, 1), padding_mode=reflect)
        (1): LeakyReLU(negative_slope=0.01, inplace=True)
      )
      (conv2): Sequential(
        (0): Conv2d(66, 34, kernel_size=(1, 1), stride=(1, 1))
      )
    )
    (4): Lnet(
      (conv1): Sequential(
        (0): Conv2d(34, 34, kernel_size=(3, 3), stride=(1, 1), padding=(1, 1), padding_mode=reflect)
        (1): LeakyReLU(negative_slope=0.01, inplace=True)
      )
      (conv2): Sequential(
        (0): Conv2d(66, 34, kernel_size=(1, 1), stride=(1, 1))
      )
    )
    (5): Lnet(
      (conv1): Sequential(
        (0): Conv2d(34, 34, kernel_size=(3, 3), stride=(1, 1), padding=(1, 1), padding_mode=reflect)
        (1): LeakyReLU(negative_slope=0.01, inplace=True)
      )
      (conv2): Sequential(
        (0): Conv2d(66, 34, kernel_size=(1, 1), stride=(1, 1))
      )
    )
    (6): Lnet(
      (conv1): Sequential(
        (0): Conv2d(34, 34, kernel_size=(3, 3), stride=(1, 1), padding=(1, 1), padding_mode=reflect)
        (1): LeakyReLU(negative_slope=0.01, inplace=True)
      )
      (conv2): Sequential(
        (0): Conv2d(66, 34, kernel_size=(1, 1), stride=(1, 1))
      )
    )
    (7): Lnet(
      (conv1): Sequential(
        (0): Conv2d(34, 34, kernel_size=(3, 3), stride=(1, 1), padding=(1, 1), padding_mode=reflect)
        (1): LeakyReLU(negative_slope=0.01, inplace=True)
      )
      (conv2): Sequential(
        (0): Conv2d(66, 34, kernel_size=(1, 1), stride=(1, 1))
      )
    )
    (8): Lnet(
      (conv1): Sequential(
        (0): Conv2d(34, 34, kernel_size=(3, 3), stride=(1, 1), padding=(1, 1), padding_mode=reflect)
        (1): LeakyReLU(negative_slope=0.01, inplace=True)
      )
      (conv2): Sequential(
        (0): Conv2d(66, 34, kernel_size=(1, 1), stride=(1, 1))
      )
    )
    (9): Lnet(
      (conv1): Sequential(
        (0): Conv2d(34, 34, kernel_size=(3, 3), stride=(1, 1), padding=(1, 1), padding_mode=reflect)
        (1): LeakyReLU(negative_slope=0.01, inplace=True)
      )
      (conv2): Sequential(
        (0): Conv2d(66, 34, kernel_size=(1, 1), stride=(1, 1))
      )
    )
    (10): Lnet(
      (conv1): Sequential(
        (0): Conv2d(34, 34, kernel_size=(3, 3), stride=(1, 1), padding=(1, 1), padding_mode=reflect)
        (1): LeakyReLU(negative_slope=0.01, inplace=True)
      )
      (conv2): Sequential(
        (0): Conv2d(66, 34, kernel_size=(1, 1), stride=(1, 1))
      )
    )
    (11): Lnet(
      (conv1): Sequential(
        (0): Conv2d(34, 34, kernel_size=(3, 3), stride=(1, 1), padding=(1, 1), padding_mode=reflect)
        (1): LeakyReLU(negative_slope=0.01, inplace=True)
      )
      (conv2): Sequential(
        (0): Conv2d(66, 34, kernel_size=(1, 1), stride=(1, 1))
      )
    )
    (12): Lnet(
      (conv1): Sequential(
        (0): Conv2d(34, 34, kernel_size=(3, 3), stride=(1, 1), padding=(1, 1), padding_mode=reflect)
        (1): LeakyReLU(negative_slope=0.01, inplace=True)
      )
      (conv2): Sequential(
        (0): Conv2d(66, 34, kernel_size=(1, 1), stride=(1, 1))
      )
    )
  )
  (r_stage): Sequential(
    (0): Rnet(
      (relu): ReLU(inplace=True)
      (resm1): Sequential(
        (0): Conv2d(35, 35, kernel_size=(3, 3), stride=(1, 1), padding=(1, 1), padding_mode=reflect)
        (1): ReLU(inplace=True)
        (2): ReflectionPad2d((1, 1, 1, 1))
        (3): Conv2d(35, 35, kernel_size=(3, 3), stride=(1, 1))
      )
      (resm2): Sequential(
        (0): Conv2d(35, 35, kernel_size=(3, 3), stride=(1, 1), padding=(1, 1), padding_mode=reflect)
        (1): ReLU(inplace=True)
        (2): ReflectionPad2d((1, 1, 1, 1))
        (3): Conv2d(35, 35, kernel_size=(3, 3), stride=(1, 1))
      )
      (resm3): Sequential(
        (0): Conv2d(35, 35, kernel_size=(3, 3), stride=(1, 1), padding=(1, 1), padding_mode=reflect)
        (1): ReLU(inplace=True)
        (2): ReflectionPad2d((1, 1, 1, 1))
        (3): Conv2d(35, 35, kernel_size=(3, 3), stride=(1, 1))
      )
      (resm4): Sequential(
        (0): Conv2d(35, 35, kernel_size=(3, 3), stride=(1, 1), padding=(1, 1), padding_mode=reflect)
        (1): ReLU(inplace=True)
        (2): ReflectionPad2d((1, 1, 1, 1))
        (3): Conv2d(35, 35, kernel_size=(3, 3), stride=(1, 1))
      )
    )
    (1): Rnet(
      (relu): ReLU(inplace=True)
      (resm1): Sequential(
        (0): Conv2d(35, 35, kernel_size=(3, 3), stride=(1, 1), padding=(1, 1), padding_mode=reflect)
        (1): ReLU(inplace=True)
        (2): ReflectionPad2d((1, 1, 1, 1))
        (3): Conv2d(35, 35, kernel_size=(3, 3), stride=(1, 1))
      )
      (resm2): Sequential(
        (0): Conv2d(35, 35, kernel_size=(3, 3), stride=(1, 1), padding=(1, 1), padding_mode=reflect)
        (1): ReLU(inplace=True)
        (2): ReflectionPad2d((1, 1, 1, 1))
        (3): Conv2d(35, 35, kernel_size=(3, 3), stride=(1, 1))
      )
      (resm3): Sequential(
        (0): Conv2d(35, 35, kernel_size=(3, 3), stride=(1, 1), padding=(1, 1), padding_mode=reflect)
        (1): ReLU(inplace=True)
        (2): ReflectionPad2d((1, 1, 1, 1))
        (3): Conv2d(35, 35, kernel_size=(3, 3), stride=(1, 1))
      )
      (resm4): Sequential(
        (0): Conv2d(35, 35, kernel_size=(3, 3), stride=(1, 1), padding=(1, 1), padding_mode=reflect)
        (1): ReLU(inplace=True)
        (2): ReflectionPad2d((1, 1, 1, 1))
        (3): Conv2d(35, 35, kernel_size=(3, 3), stride=(1, 1))
      )
    )
    (2): Rnet(
      (relu): ReLU(inplace=True)
      (resm1): Sequential(
        (0): Conv2d(35, 35, kernel_size=(3, 3), stride=(1, 1), padding=(1, 1), padding_mode=reflect)
        (1): ReLU(inplace=True)
        (2): ReflectionPad2d((1, 1, 1, 1))
        (3): Conv2d(35, 35, kernel_size=(3, 3), stride=(1, 1))
      )
      (resm2): Sequential(
        (0): Conv2d(35, 35, kernel_size=(3, 3), stride=(1, 1), padding=(1, 1), padding_mode=reflect)
        (1): ReLU(inplace=True)
        (2): ReflectionPad2d((1, 1, 1, 1))
        (3): Conv2d(35, 35, kernel_size=(3, 3), stride=(1, 1))
      )
      (resm3): Sequential(
        (0): Conv2d(35, 35, kernel_size=(3, 3), stride=(1, 1), padding=(1, 1), padding_mode=reflect)
        (1): ReLU(inplace=True)
        (2): ReflectionPad2d((1, 1, 1, 1))
        (3): Conv2d(35, 35, kernel_size=(3, 3), stride=(1, 1))
      )
      (resm4): Sequential(
        (0): Conv2d(35, 35, kernel_size=(3, 3), stride=(1, 1), padding=(1, 1), padding_mode=reflect)
        (1): ReLU(inplace=True)
        (2): ReflectionPad2d((1, 1, 1, 1))
        (3): Conv2d(35, 35, kernel_size=(3, 3), stride=(1, 1))
      )
    )
    (3): Rnet(
      (relu): ReLU(inplace=True)
      (resm1): Sequential(
        (0): Conv2d(35, 35, kernel_size=(3, 3), stride=(1, 1), padding=(1, 1), padding_mode=reflect)
        (1): ReLU(inplace=True)
        (2): ReflectionPad2d((1, 1, 1, 1))
        (3): Conv2d(35, 35, kernel_size=(3, 3), stride=(1, 1))
      )
      (resm2): Sequential(
        (0): Conv2d(35, 35, kernel_size=(3, 3), stride=(1, 1), padding=(1, 1), padding_mode=reflect)
        (1): ReLU(inplace=True)
        (2): ReflectionPad2d((1, 1, 1, 1))
        (3): Conv2d(35, 35, kernel_size=(3, 3), stride=(1, 1))
      )
      (resm3): Sequential(
        (0): Conv2d(35, 35, kernel_size=(3, 3), stride=(1, 1), padding=(1, 1), padding_mode=reflect)
        (1): ReLU(inplace=True)
        (2): ReflectionPad2d((1, 1, 1, 1))
        (3): Conv2d(35, 35, kernel_size=(3, 3), stride=(1, 1))
      )
      (resm4): Sequential(
        (0): Conv2d(35, 35, kernel_size=(3, 3), stride=(1, 1), padding=(1, 1), padding_mode=reflect)
        (1): ReLU(inplace=True)
        (2): ReflectionPad2d((1, 1, 1, 1))
        (3): Conv2d(35, 35, kernel_size=(3, 3), stride=(1, 1))
      )
    )
    (4): Rnet(
      (relu): ReLU(inplace=True)
      (resm1): Sequential(
        (0): Conv2d(35, 35, kernel_size=(3, 3), stride=(1, 1), padding=(1, 1), padding_mode=reflect)
        (1): ReLU(inplace=True)
        (2): ReflectionPad2d((1, 1, 1, 1))
        (3): Conv2d(35, 35, kernel_size=(3, 3), stride=(1, 1))
      )
      (resm2): Sequential(
        (0): Conv2d(35, 35, kernel_size=(3, 3), stride=(1, 1), padding=(1, 1), padding_mode=reflect)
        (1): ReLU(inplace=True)
        (2): ReflectionPad2d((1, 1, 1, 1))
        (3): Conv2d(35, 35, kernel_size=(3, 3), stride=(1, 1))
      )
      (resm3): Sequential(
        (0): Conv2d(35, 35, kernel_size=(3, 3), stride=(1, 1), padding=(1, 1), padding_mode=reflect)
        (1): ReLU(inplace=True)
        (2): ReflectionPad2d((1, 1, 1, 1))
        (3): Conv2d(35, 35, kernel_size=(3, 3), stride=(1, 1))
      )
      (resm4): Sequential(
        (0): Conv2d(35, 35, kernel_size=(3, 3), stride=(1, 1), padding=(1, 1), padding_mode=reflect)
        (1): ReLU(inplace=True)
        (2): ReflectionPad2d((1, 1, 1, 1))
        (3): Conv2d(35, 35, kernel_size=(3, 3), stride=(1, 1))
      )
    )
    (5): Rnet(
      (relu): ReLU(inplace=True)
      (resm1): Sequential(
        (0): Conv2d(35, 35, kernel_size=(3, 3), stride=(1, 1), padding=(1, 1), padding_mode=reflect)
        (1): ReLU(inplace=True)
        (2): ReflectionPad2d((1, 1, 1, 1))
        (3): Conv2d(35, 35, kernel_size=(3, 3), stride=(1, 1))
      )
      (resm2): Sequential(
        (0): Conv2d(35, 35, kernel_size=(3, 3), stride=(1, 1), padding=(1, 1), padding_mode=reflect)
        (1): ReLU(inplace=True)
        (2): ReflectionPad2d((1, 1, 1, 1))
        (3): Conv2d(35, 35, kernel_size=(3, 3), stride=(1, 1))
      )
      (resm3): Sequential(
        (0): Conv2d(35, 35, kernel_size=(3, 3), stride=(1, 1), padding=(1, 1), padding_mode=reflect)
        (1): ReLU(inplace=True)
        (2): ReflectionPad2d((1, 1, 1, 1))
        (3): Conv2d(35, 35, kernel_size=(3, 3), stride=(1, 1))
      )
      (resm4): Sequential(
        (0): Conv2d(35, 35, kernel_size=(3, 3), stride=(1, 1), padding=(1, 1), padding_mode=reflect)
        (1): ReLU(inplace=True)
        (2): ReflectionPad2d((1, 1, 1, 1))
        (3): Conv2d(35, 35, kernel_size=(3, 3), stride=(1, 1))
      )
    )
    (6): Rnet(
      (relu): ReLU(inplace=True)
      (resm1): Sequential(
        (0): Conv2d(35, 35, kernel_size=(3, 3), stride=(1, 1), padding=(1, 1), padding_mode=reflect)
        (1): ReLU(inplace=True)
        (2): ReflectionPad2d((1, 1, 1, 1))
        (3): Conv2d(35, 35, kernel_size=(3, 3), stride=(1, 1))
      )
      (resm2): Sequential(
        (0): Conv2d(35, 35, kernel_size=(3, 3), stride=(1, 1), padding=(1, 1), padding_mode=reflect)
        (1): ReLU(inplace=True)
        (2): ReflectionPad2d((1, 1, 1, 1))
        (3): Conv2d(35, 35, kernel_size=(3, 3), stride=(1, 1))
      )
      (resm3): Sequential(
        (0): Conv2d(35, 35, kernel_size=(3, 3), stride=(1, 1), padding=(1, 1), padding_mode=reflect)
        (1): ReLU(inplace=True)
        (2): ReflectionPad2d((1, 1, 1, 1))
        (3): Conv2d(35, 35, kernel_size=(3, 3), stride=(1, 1))
      )
      (resm4): Sequential(
        (0): Conv2d(35, 35, kernel_size=(3, 3), stride=(1, 1), padding=(1, 1), padding_mode=reflect)
        (1): ReLU(inplace=True)
        (2): ReflectionPad2d((1, 1, 1, 1))
        (3): Conv2d(35, 35, kernel_size=(3, 3), stride=(1, 1))
      )
    )
    (7): Rnet(
      (relu): ReLU(inplace=True)
      (resm1): Sequential(
        (0): Conv2d(35, 35, kernel_size=(3, 3), stride=(1, 1), padding=(1, 1), padding_mode=reflect)
        (1): ReLU(inplace=True)
        (2): ReflectionPad2d((1, 1, 1, 1))
        (3): Conv2d(35, 35, kernel_size=(3, 3), stride=(1, 1))
      )
      (resm2): Sequential(
        (0): Conv2d(35, 35, kernel_size=(3, 3), stride=(1, 1), padding=(1, 1), padding_mode=reflect)
        (1): ReLU(inplace=True)
        (2): ReflectionPad2d((1, 1, 1, 1))
        (3): Conv2d(35, 35, kernel_size=(3, 3), stride=(1, 1))
      )
      (resm3): Sequential(
        (0): Conv2d(35, 35, kernel_size=(3, 3), stride=(1, 1), padding=(1, 1), padding_mode=reflect)
        (1): ReLU(inplace=True)
        (2): ReflectionPad2d((1, 1, 1, 1))
        (3): Conv2d(35, 35, kernel_size=(3, 3), stride=(1, 1))
      )
      (resm4): Sequential(
        (0): Conv2d(35, 35, kernel_size=(3, 3), stride=(1, 1), padding=(1, 1), padding_mode=reflect)
        (1): ReLU(inplace=True)
        (2): ReflectionPad2d((1, 1, 1, 1))
        (3): Conv2d(35, 35, kernel_size=(3, 3), stride=(1, 1))
      )
    )
    (8): Rnet(
      (relu): ReLU(inplace=True)
      (resm1): Sequential(
        (0): Conv2d(35, 35, kernel_size=(3, 3), stride=(1, 1), padding=(1, 1), padding_mode=reflect)
        (1): ReLU(inplace=True)
        (2): ReflectionPad2d((1, 1, 1, 1))
        (3): Conv2d(35, 35, kernel_size=(3, 3), stride=(1, 1))
      )
      (resm2): Sequential(
        (0): Conv2d(35, 35, kernel_size=(3, 3), stride=(1, 1), padding=(1, 1), padding_mode=reflect)
        (1): ReLU(inplace=True)
        (2): ReflectionPad2d((1, 1, 1, 1))
        (3): Conv2d(35, 35, kernel_size=(3, 3), stride=(1, 1))
      )
      (resm3): Sequential(
        (0): Conv2d(35, 35, kernel_size=(3, 3), stride=(1, 1), padding=(1, 1), padding_mode=reflect)
        (1): ReLU(inplace=True)
        (2): ReflectionPad2d((1, 1, 1, 1))
        (3): Conv2d(35, 35, kernel_size=(3, 3), stride=(1, 1))
      )
      (resm4): Sequential(
        (0): Conv2d(35, 35, kernel_size=(3, 3), stride=(1, 1), padding=(1, 1), padding_mode=reflect)
        (1): ReLU(inplace=True)
        (2): ReflectionPad2d((1, 1, 1, 1))
        (3): Conv2d(35, 35, kernel_size=(3, 3), stride=(1, 1))
      )
    )
    (9): Rnet(
      (relu): ReLU(inplace=True)
      (resm1): Sequential(
        (0): Conv2d(35, 35, kernel_size=(3, 3), stride=(1, 1), padding=(1, 1), padding_mode=reflect)
        (1): ReLU(inplace=True)
        (2): ReflectionPad2d((1, 1, 1, 1))
        (3): Conv2d(35, 35, kernel_size=(3, 3), stride=(1, 1))
      )
      (resm2): Sequential(
        (0): Conv2d(35, 35, kernel_size=(3, 3), stride=(1, 1), padding=(1, 1), padding_mode=reflect)
        (1): ReLU(inplace=True)
        (2): ReflectionPad2d((1, 1, 1, 1))
        (3): Conv2d(35, 35, kernel_size=(3, 3), stride=(1, 1))
      )
      (resm3): Sequential(
        (0): Conv2d(35, 35, kernel_size=(3, 3), stride=(1, 1), padding=(1, 1), padding_mode=reflect)
        (1): ReLU(inplace=True)
        (2): ReflectionPad2d((1, 1, 1, 1))
        (3): Conv2d(35, 35, kernel_size=(3, 3), stride=(1, 1))
      )
      (resm4): Sequential(
        (0): Conv2d(35, 35, kernel_size=(3, 3), stride=(1, 1), padding=(1, 1), padding_mode=reflect)
        (1): ReLU(inplace=True)
        (2): ReflectionPad2d((1, 1, 1, 1))
        (3): Conv2d(35, 35, kernel_size=(3, 3), stride=(1, 1))
      )
    )
    (10): Rnet(
      (relu): ReLU(inplace=True)
      (resm1): Sequential(
        (0): Conv2d(35, 35, kernel_size=(3, 3), stride=(1, 1), padding=(1, 1), padding_mode=reflect)
        (1): ReLU(inplace=True)
        (2): ReflectionPad2d((1, 1, 1, 1))
        (3): Conv2d(35, 35, kernel_size=(3, 3), stride=(1, 1))
      )
      (resm2): Sequential(
        (0): Conv2d(35, 35, kernel_size=(3, 3), stride=(1, 1), padding=(1, 1), padding_mode=reflect)
        (1): ReLU(inplace=True)
        (2): ReflectionPad2d((1, 1, 1, 1))
        (3): Conv2d(35, 35, kernel_size=(3, 3), stride=(1, 1))
      )
      (resm3): Sequential(
        (0): Conv2d(35, 35, kernel_size=(3, 3), stride=(1, 1), padding=(1, 1), padding_mode=reflect)
        (1): ReLU(inplace=True)
        (2): ReflectionPad2d((1, 1, 1, 1))
        (3): Conv2d(35, 35, kernel_size=(3, 3), stride=(1, 1))
      )
      (resm4): Sequential(
        (0): Conv2d(35, 35, kernel_size=(3, 3), stride=(1, 1), padding=(1, 1), padding_mode=reflect)
        (1): ReLU(inplace=True)
        (2): ReflectionPad2d((1, 1, 1, 1))
        (3): Conv2d(35, 35, kernel_size=(3, 3), stride=(1, 1))
      )
    )
    (11): Rnet(
      (relu): ReLU(inplace=True)
      (resm1): Sequential(
        (0): Conv2d(35, 35, kernel_size=(3, 3), stride=(1, 1), padding=(1, 1), padding_mode=reflect)
        (1): ReLU(inplace=True)
        (2): ReflectionPad2d((1, 1, 1, 1))
        (3): Conv2d(35, 35, kernel_size=(3, 3), stride=(1, 1))
      )
      (resm2): Sequential(
        (0): Conv2d(35, 35, kernel_size=(3, 3), stride=(1, 1), padding=(1, 1), padding_mode=reflect)
        (1): ReLU(inplace=True)
        (2): ReflectionPad2d((1, 1, 1, 1))
        (3): Conv2d(35, 35, kernel_size=(3, 3), stride=(1, 1))
      )
      (resm3): Sequential(
        (0): Conv2d(35, 35, kernel_size=(3, 3), stride=(1, 1), padding=(1, 1), padding_mode=reflect)
        (1): ReLU(inplace=True)
        (2): ReflectionPad2d((1, 1, 1, 1))
        (3): Conv2d(35, 35, kernel_size=(3, 3), stride=(1, 1))
      )
      (resm4): Sequential(
        (0): Conv2d(35, 35, kernel_size=(3, 3), stride=(1, 1), padding=(1, 1), padding_mode=reflect)
        (1): ReLU(inplace=True)
        (2): ReflectionPad2d((1, 1, 1, 1))
        (3): Conv2d(35, 35, kernel_size=(3, 3), stride=(1, 1))
      )
    )
    (12): Rnet(
      (relu): ReLU(inplace=True)
      (resm1): Sequential(
        (0): Conv2d(35, 35, kernel_size=(3, 3), stride=(1, 1), padding=(1, 1), padding_mode=reflect)
        (1): ReLU(inplace=True)
        (2): ReflectionPad2d((1, 1, 1, 1))
        (3): Conv2d(35, 35, kernel_size=(3, 3), stride=(1, 1))
      )
      (resm2): Sequential(
        (0): Conv2d(35, 35, kernel_size=(3, 3), stride=(1, 1), padding=(1, 1), padding_mode=reflect)
        (1): ReLU(inplace=True)
        (2): ReflectionPad2d((1, 1, 1, 1))
        (3): Conv2d(35, 35, kernel_size=(3, 3), stride=(1, 1))
      )
      (resm3): Sequential(
        (0): Conv2d(35, 35, kernel_size=(3, 3), stride=(1, 1), padding=(1, 1), padding_mode=reflect)
        (1): ReLU(inplace=True)
        (2): ReflectionPad2d((1, 1, 1, 1))
        (3): Conv2d(35, 35, kernel_size=(3, 3), stride=(1, 1))
      )
      (resm4): Sequential(
        (0): Conv2d(35, 35, kernel_size=(3, 3), stride=(1, 1), padding=(1, 1), padding_mode=reflect)
        (1): ReLU(inplace=True)
        (2): ReflectionPad2d((1, 1, 1, 1))
        (3): Conv2d(35, 35, kernel_size=(3, 3), stride=(1, 1))
      )
    )
  )
  (conv_l): Conv2d(1, 29, kernel_size=(3, 3), stride=(1, 1), padding=(1, 1), padding_mode=reflect)
  (conv_r): Conv2d(3, 32, kernel_size=(3, 3), stride=(1, 1), padding=(1, 1), padding_mode=reflect)
)
Mainnet(
  (renet): Renet(
    (relu): ReLU(inplace=True)
    (res1): Sequential(
      (0): Conv2d(4, 32, kernel_size=(3, 3), stride=(1, 1), padding=(1, 1), padding_mode=reflect)
      (1): ReLU()
      (2): Conv2d(32, 4, kernel_size=(3, 3), stride=(1, 1), padding=(1, 1), padding_mode=reflect)
    )
    (res2): Sequential(
      (0): Conv2d(4, 32, kernel_size=(3, 3), stride=(1, 1), padding=(1, 1), padding_mode=reflect)
      (1): ReLU()
      (2): Conv2d(32, 4, kernel_size=(3, 3), stride=(1, 1), padding=(1, 1), padding_mode=reflect)
    )
    (res3): Sequential(
      (0): Conv2d(4, 32, kernel_size=(3, 3), stride=(1, 1), padding=(1, 1), padding_mode=reflect)
      (1): ReLU()
      (2): Conv2d(32, 4, kernel_size=(3, 3), stride=(1, 1), padding=(1, 1), padding_mode=reflect)
    )
    (res4): Sequential(
      (0): Conv2d(4, 32, kernel_size=(3, 3), stride=(1, 1), padding=(1, 1), padding_mode=reflect)
      (1): ReLU()
      (2): Conv2d(32, 4, kernel_size=(3, 3), stride=(1, 1), padding=(1, 1), padding_mode=reflect)
    )
  )
  (lenet): Lenet(
    (relu): ReLU(inplace=True)
    (res1): Sequential(
      (0): Conv2d(1, 32, kernel_size=(3, 3), stride=(1, 1), padding=(1, 1), padding_mode=reflect)
      (1): ReLU(inplace=True)
      (2): Conv2d(32, 1, kernel_size=(3, 3), stride=(1, 1), padding=(1, 1), padding_mode=reflect)
    )
    (res2): Sequential(
      (0): Conv2d(1, 32, kernel_size=(3, 3), stride=(1, 1), padding=(1, 1), padding_mode=reflect)
      (1): ReLU(inplace=True)
      (2): Conv2d(32, 1, kernel_size=(3, 3), stride=(1, 1), padding=(1, 1), padding_mode=reflect)
    )
    (scale): Sequential(
      (0): Linear(in_features=1, out_features=100, bias=True)
      (1): ReLU(inplace=True)
      (2): Linear(in_features=100, out_features=1, bias=True)
      (3): Sigmoid()
    )
  )
  (scale): Scale(
    (conv1): Sequential(
      (0): Conv2d(3, 64, kernel_size=(3, 3), stride=(1, 1), padding=(1, 1), padding_mode=reflect)
      (1): LeakyReLU(negative_slope=0.01, inplace=True)
      (2): Conv2d(64, 1, kernel_size=(1, 1), stride=(1, 1), padding_mode=reflect)
      (3): Sigmoid()
    )
  )
)
[Epoch 2]	Learning rate: 1.00e-5
[Epoch 2]	Learning rate of rec: 1.00e-3
[900/18000]	[VGG22: 0.0023]	25.6+0.3s
[1800/18000]	[VGG22: 0.0017]	25.3+0.3s
[2700/18000]	[VGG22: 0.0015]	25.5+0.3s
[3600/18000]	[VGG22: 0.0013]	25.3+0.3s
[4500/18000]	[VGG22: 0.0012]	25.2+0.3s
[5400/18000]	[VGG22: 0.0012]	25.2+0.3s
[6300/18000]	[VGG22: 0.0011]	25.2+0.3s
[7200/18000]	[VGG22: 0.0011]	25.2+0.3s
[8100/18000]	[VGG22: 0.0011]	25.3+0.3s
[9000/18000]	[VGG22: 0.0010]	25.3+0.3s
[9900/18000]	[VGG22: 0.0010]	25.3+0.3s
[10800/18000]	[VGG22: 0.0010]	25.3+0.3s
[11700/18000]	[VGG22: 0.0010]	25.3+0.3s
[12600/18000]	[VGG22: 0.0010]	25.3+0.3s
[13500/18000]	[VGG22: 0.0009]	25.3+0.3s
[14400/18000]	[VGG22: 0.0009]	25.3+0.3s
[15300/18000]	[VGG22: 0.0009]	25.3+0.3s
[16200/18000]	[VGG22: 0.0009]	25.3+0.3s
[17100/18000]	[VGG22: 0.0009]	25.4+0.3s
[18000/18000]	[VGG22: 0.0009]	25.6+0.3s

Evaluation:
Mainnet(
  (lnet): Lnet(
    (conv1): Sequential(
      (0): Conv2d(34, 34, kernel_size=(3, 3), stride=(1, 1), padding=(1, 1), padding_mode=reflect)
      (1): LeakyReLU(negative_slope=0.01, inplace=True)
    )
    (conv2): Sequential(
      (0): Conv2d(66, 34, kernel_size=(1, 1), stride=(1, 1))
    )
  )
  (rnet): Rnet(
    (relu): ReLU(inplace=True)
    (resm1): Sequential(
      (0): Conv2d(35, 35, kernel_size=(3, 3), stride=(1, 1), padding=(1, 1), padding_mode=reflect)
      (1): ReLU(inplace=True)
      (2): ReflectionPad2d((1, 1, 1, 1))
      (3): Conv2d(35, 35, kernel_size=(3, 3), stride=(1, 1))
    )
    (resm2): Sequential(
      (0): Conv2d(35, 35, kernel_size=(3, 3), stride=(1, 1), padding=(1, 1), padding_mode=reflect)
      (1): ReLU(inplace=True)
      (2): ReflectionPad2d((1, 1, 1, 1))
      (3): Conv2d(35, 35, kernel_size=(3, 3), stride=(1, 1))
    )
    (resm3): Sequential(
      (0): Conv2d(35, 35, kernel_size=(3, 3), stride=(1, 1), padding=(1, 1), padding_mode=reflect)
      (1): ReLU(inplace=True)
      (2): ReflectionPad2d((1, 1, 1, 1))
      (3): Conv2d(35, 35, kernel_size=(3, 3), stride=(1, 1))
    )
    (resm4): Sequential(
      (0): Conv2d(35, 35, kernel_size=(3, 3), stride=(1, 1), padding=(1, 1), padding_mode=reflect)
      (1): ReLU(inplace=True)
      (2): ReflectionPad2d((1, 1, 1, 1))
      (3): Conv2d(35, 35, kernel_size=(3, 3), stride=(1, 1))
    )
  )
  (l_stage): Sequential(
    (0): Lnet(
      (conv1): Sequential(
        (0): Conv2d(34, 34, kernel_size=(3, 3), stride=(1, 1), padding=(1, 1), padding_mode=reflect)
        (1): LeakyReLU(negative_slope=0.01, inplace=True)
      )
      (conv2): Sequential(
        (0): Conv2d(66, 34, kernel_size=(1, 1), stride=(1, 1))
      )
    )
    (1): Lnet(
      (conv1): Sequential(
        (0): Conv2d(34, 34, kernel_size=(3, 3), stride=(1, 1), padding=(1, 1), padding_mode=reflect)
        (1): LeakyReLU(negative_slope=0.01, inplace=True)
      )
      (conv2): Sequential(
        (0): Conv2d(66, 34, kernel_size=(1, 1), stride=(1, 1))
      )
    )
    (2): Lnet(
      (conv1): Sequential(
        (0): Conv2d(34, 34, kernel_size=(3, 3), stride=(1, 1), padding=(1, 1), padding_mode=reflect)
        (1): LeakyReLU(negative_slope=0.01, inplace=True)
      )
      (conv2): Sequential(
        (0): Conv2d(66, 34, kernel_size=(1, 1), stride=(1, 1))
      )
    )
    (3): Lnet(
      (conv1): Sequential(
        (0): Conv2d(34, 34, kernel_size=(3, 3), stride=(1, 1), padding=(1, 1), padding_mode=reflect)
        (1): LeakyReLU(negative_slope=0.01, inplace=True)
      )
      (conv2): Sequential(
        (0): Conv2d(66, 34, kernel_size=(1, 1), stride=(1, 1))
      )
    )
    (4): Lnet(
      (conv1): Sequential(
        (0): Conv2d(34, 34, kernel_size=(3, 3), stride=(1, 1), padding=(1, 1), padding_mode=reflect)
        (1): LeakyReLU(negative_slope=0.01, inplace=True)
      )
      (conv2): Sequential(
        (0): Conv2d(66, 34, kernel_size=(1, 1), stride=(1, 1))
      )
    )
    (5): Lnet(
      (conv1): Sequential(
        (0): Conv2d(34, 34, kernel_size=(3, 3), stride=(1, 1), padding=(1, 1), padding_mode=reflect)
        (1): LeakyReLU(negative_slope=0.01, inplace=True)
      )
      (conv2): Sequential(
        (0): Conv2d(66, 34, kernel_size=(1, 1), stride=(1, 1))
      )
    )
    (6): Lnet(
      (conv1): Sequential(
        (0): Conv2d(34, 34, kernel_size=(3, 3), stride=(1, 1), padding=(1, 1), padding_mode=reflect)
        (1): LeakyReLU(negative_slope=0.01, inplace=True)
      )
      (conv2): Sequential(
        (0): Conv2d(66, 34, kernel_size=(1, 1), stride=(1, 1))
      )
    )
    (7): Lnet(
      (conv1): Sequential(
        (0): Conv2d(34, 34, kernel_size=(3, 3), stride=(1, 1), padding=(1, 1), padding_mode=reflect)
        (1): LeakyReLU(negative_slope=0.01, inplace=True)
      )
      (conv2): Sequential(
        (0): Conv2d(66, 34, kernel_size=(1, 1), stride=(1, 1))
      )
    )
    (8): Lnet(
      (conv1): Sequential(
        (0): Conv2d(34, 34, kernel_size=(3, 3), stride=(1, 1), padding=(1, 1), padding_mode=reflect)
        (1): LeakyReLU(negative_slope=0.01, inplace=True)
      )
      (conv2): Sequential(
        (0): Conv2d(66, 34, kernel_size=(1, 1), stride=(1, 1))
      )
    )
    (9): Lnet(
      (conv1): Sequential(
        (0): Conv2d(34, 34, kernel_size=(3, 3), stride=(1, 1), padding=(1, 1), padding_mode=reflect)
        (1): LeakyReLU(negative_slope=0.01, inplace=True)
      )
      (conv2): Sequential(
        (0): Conv2d(66, 34, kernel_size=(1, 1), stride=(1, 1))
      )
    )
    (10): Lnet(
      (conv1): Sequential(
        (0): Conv2d(34, 34, kernel_size=(3, 3), stride=(1, 1), padding=(1, 1), padding_mode=reflect)
        (1): LeakyReLU(negative_slope=0.01, inplace=True)
      )
      (conv2): Sequential(
        (0): Conv2d(66, 34, kernel_size=(1, 1), stride=(1, 1))
      )
    )
    (11): Lnet(
      (conv1): Sequential(
        (0): Conv2d(34, 34, kernel_size=(3, 3), stride=(1, 1), padding=(1, 1), padding_mode=reflect)
        (1): LeakyReLU(negative_slope=0.01, inplace=True)
      )
      (conv2): Sequential(
        (0): Conv2d(66, 34, kernel_size=(1, 1), stride=(1, 1))
      )
    )
    (12): Lnet(
      (conv1): Sequential(
        (0): Conv2d(34, 34, kernel_size=(3, 3), stride=(1, 1), padding=(1, 1), padding_mode=reflect)
        (1): LeakyReLU(negative_slope=0.01, inplace=True)
      )
      (conv2): Sequential(
        (0): Conv2d(66, 34, kernel_size=(1, 1), stride=(1, 1))
      )
    )
  )
  (r_stage): Sequential(
    (0): Rnet(
      (relu): ReLU(inplace=True)
      (resm1): Sequential(
        (0): Conv2d(35, 35, kernel_size=(3, 3), stride=(1, 1), padding=(1, 1), padding_mode=reflect)
        (1): ReLU(inplace=True)
        (2): ReflectionPad2d((1, 1, 1, 1))
        (3): Conv2d(35, 35, kernel_size=(3, 3), stride=(1, 1))
      )
      (resm2): Sequential(
        (0): Conv2d(35, 35, kernel_size=(3, 3), stride=(1, 1), padding=(1, 1), padding_mode=reflect)
        (1): ReLU(inplace=True)
        (2): ReflectionPad2d((1, 1, 1, 1))
        (3): Conv2d(35, 35, kernel_size=(3, 3), stride=(1, 1))
      )
      (resm3): Sequential(
        (0): Conv2d(35, 35, kernel_size=(3, 3), stride=(1, 1), padding=(1, 1), padding_mode=reflect)
        (1): ReLU(inplace=True)
        (2): ReflectionPad2d((1, 1, 1, 1))
        (3): Conv2d(35, 35, kernel_size=(3, 3), stride=(1, 1))
      )
      (resm4): Sequential(
        (0): Conv2d(35, 35, kernel_size=(3, 3), stride=(1, 1), padding=(1, 1), padding_mode=reflect)
        (1): ReLU(inplace=True)
        (2): ReflectionPad2d((1, 1, 1, 1))
        (3): Conv2d(35, 35, kernel_size=(3, 3), stride=(1, 1))
      )
    )
    (1): Rnet(
      (relu): ReLU(inplace=True)
      (resm1): Sequential(
        (0): Conv2d(35, 35, kernel_size=(3, 3), stride=(1, 1), padding=(1, 1), padding_mode=reflect)
        (1): ReLU(inplace=True)
        (2): ReflectionPad2d((1, 1, 1, 1))
        (3): Conv2d(35, 35, kernel_size=(3, 3), stride=(1, 1))
      )
      (resm2): Sequential(
        (0): Conv2d(35, 35, kernel_size=(3, 3), stride=(1, 1), padding=(1, 1), padding_mode=reflect)
        (1): ReLU(inplace=True)
        (2): ReflectionPad2d((1, 1, 1, 1))
        (3): Conv2d(35, 35, kernel_size=(3, 3), stride=(1, 1))
      )
      (resm3): Sequential(
        (0): Conv2d(35, 35, kernel_size=(3, 3), stride=(1, 1), padding=(1, 1), padding_mode=reflect)
        (1): ReLU(inplace=True)
        (2): ReflectionPad2d((1, 1, 1, 1))
        (3): Conv2d(35, 35, kernel_size=(3, 3), stride=(1, 1))
      )
      (resm4): Sequential(
        (0): Conv2d(35, 35, kernel_size=(3, 3), stride=(1, 1), padding=(1, 1), padding_mode=reflect)
        (1): ReLU(inplace=True)
        (2): ReflectionPad2d((1, 1, 1, 1))
        (3): Conv2d(35, 35, kernel_size=(3, 3), stride=(1, 1))
      )
    )
    (2): Rnet(
      (relu): ReLU(inplace=True)
      (resm1): Sequential(
        (0): Conv2d(35, 35, kernel_size=(3, 3), stride=(1, 1), padding=(1, 1), padding_mode=reflect)
        (1): ReLU(inplace=True)
        (2): ReflectionPad2d((1, 1, 1, 1))
        (3): Conv2d(35, 35, kernel_size=(3, 3), stride=(1, 1))
      )
      (resm2): Sequential(
        (0): Conv2d(35, 35, kernel_size=(3, 3), stride=(1, 1), padding=(1, 1), padding_mode=reflect)
        (1): ReLU(inplace=True)
        (2): ReflectionPad2d((1, 1, 1, 1))
        (3): Conv2d(35, 35, kernel_size=(3, 3), stride=(1, 1))
      )
      (resm3): Sequential(
        (0): Conv2d(35, 35, kernel_size=(3, 3), stride=(1, 1), padding=(1, 1), padding_mode=reflect)
        (1): ReLU(inplace=True)
        (2): ReflectionPad2d((1, 1, 1, 1))
        (3): Conv2d(35, 35, kernel_size=(3, 3), stride=(1, 1))
      )
      (resm4): Sequential(
        (0): Conv2d(35, 35, kernel_size=(3, 3), stride=(1, 1), padding=(1, 1), padding_mode=reflect)
        (1): ReLU(inplace=True)
        (2): ReflectionPad2d((1, 1, 1, 1))
        (3): Conv2d(35, 35, kernel_size=(3, 3), stride=(1, 1))
      )
    )
    (3): Rnet(
      (relu): ReLU(inplace=True)
      (resm1): Sequential(
        (0): Conv2d(35, 35, kernel_size=(3, 3), stride=(1, 1), padding=(1, 1), padding_mode=reflect)
        (1): ReLU(inplace=True)
        (2): ReflectionPad2d((1, 1, 1, 1))
        (3): Conv2d(35, 35, kernel_size=(3, 3), stride=(1, 1))
      )
      (resm2): Sequential(
        (0): Conv2d(35, 35, kernel_size=(3, 3), stride=(1, 1), padding=(1, 1), padding_mode=reflect)
        (1): ReLU(inplace=True)
        (2): ReflectionPad2d((1, 1, 1, 1))
        (3): Conv2d(35, 35, kernel_size=(3, 3), stride=(1, 1))
      )
      (resm3): Sequential(
        (0): Conv2d(35, 35, kernel_size=(3, 3), stride=(1, 1), padding=(1, 1), padding_mode=reflect)
        (1): ReLU(inplace=True)
        (2): ReflectionPad2d((1, 1, 1, 1))
        (3): Conv2d(35, 35, kernel_size=(3, 3), stride=(1, 1))
      )
      (resm4): Sequential(
        (0): Conv2d(35, 35, kernel_size=(3, 3), stride=(1, 1), padding=(1, 1), padding_mode=reflect)
        (1): ReLU(inplace=True)
        (2): ReflectionPad2d((1, 1, 1, 1))
        (3): Conv2d(35, 35, kernel_size=(3, 3), stride=(1, 1))
      )
    )
    (4): Rnet(
      (relu): ReLU(inplace=True)
      (resm1): Sequential(
        (0): Conv2d(35, 35, kernel_size=(3, 3), stride=(1, 1), padding=(1, 1), padding_mode=reflect)
        (1): ReLU(inplace=True)
        (2): ReflectionPad2d((1, 1, 1, 1))
        (3): Conv2d(35, 35, kernel_size=(3, 3), stride=(1, 1))
      )
      (resm2): Sequential(
        (0): Conv2d(35, 35, kernel_size=(3, 3), stride=(1, 1), padding=(1, 1), padding_mode=reflect)
        (1): ReLU(inplace=True)
        (2): ReflectionPad2d((1, 1, 1, 1))
        (3): Conv2d(35, 35, kernel_size=(3, 3), stride=(1, 1))
      )
      (resm3): Sequential(
        (0): Conv2d(35, 35, kernel_size=(3, 3), stride=(1, 1), padding=(1, 1), padding_mode=reflect)
        (1): ReLU(inplace=True)
        (2): ReflectionPad2d((1, 1, 1, 1))
        (3): Conv2d(35, 35, kernel_size=(3, 3), stride=(1, 1))
      )
      (resm4): Sequential(
        (0): Conv2d(35, 35, kernel_size=(3, 3), stride=(1, 1), padding=(1, 1), padding_mode=reflect)
        (1): ReLU(inplace=True)
        (2): ReflectionPad2d((1, 1, 1, 1))
        (3): Conv2d(35, 35, kernel_size=(3, 3), stride=(1, 1))
      )
    )
    (5): Rnet(
      (relu): ReLU(inplace=True)
      (resm1): Sequential(
        (0): Conv2d(35, 35, kernel_size=(3, 3), stride=(1, 1), padding=(1, 1), padding_mode=reflect)
        (1): ReLU(inplace=True)
        (2): ReflectionPad2d((1, 1, 1, 1))
        (3): Conv2d(35, 35, kernel_size=(3, 3), stride=(1, 1))
      )
      (resm2): Sequential(
        (0): Conv2d(35, 35, kernel_size=(3, 3), stride=(1, 1), padding=(1, 1), padding_mode=reflect)
        (1): ReLU(inplace=True)
        (2): ReflectionPad2d((1, 1, 1, 1))
        (3): Conv2d(35, 35, kernel_size=(3, 3), stride=(1, 1))
      )
      (resm3): Sequential(
        (0): Conv2d(35, 35, kernel_size=(3, 3), stride=(1, 1), padding=(1, 1), padding_mode=reflect)
        (1): ReLU(inplace=True)
        (2): ReflectionPad2d((1, 1, 1, 1))
        (3): Conv2d(35, 35, kernel_size=(3, 3), stride=(1, 1))
      )
      (resm4): Sequential(
        (0): Conv2d(35, 35, kernel_size=(3, 3), stride=(1, 1), padding=(1, 1), padding_mode=reflect)
        (1): ReLU(inplace=True)
        (2): ReflectionPad2d((1, 1, 1, 1))
        (3): Conv2d(35, 35, kernel_size=(3, 3), stride=(1, 1))
      )
    )
    (6): Rnet(
      (relu): ReLU(inplace=True)
      (resm1): Sequential(
        (0): Conv2d(35, 35, kernel_size=(3, 3), stride=(1, 1), padding=(1, 1), padding_mode=reflect)
        (1): ReLU(inplace=True)
        (2): ReflectionPad2d((1, 1, 1, 1))
        (3): Conv2d(35, 35, kernel_size=(3, 3), stride=(1, 1))
      )
      (resm2): Sequential(
        (0): Conv2d(35, 35, kernel_size=(3, 3), stride=(1, 1), padding=(1, 1), padding_mode=reflect)
        (1): ReLU(inplace=True)
        (2): ReflectionPad2d((1, 1, 1, 1))
        (3): Conv2d(35, 35, kernel_size=(3, 3), stride=(1, 1))
      )
      (resm3): Sequential(
        (0): Conv2d(35, 35, kernel_size=(3, 3), stride=(1, 1), padding=(1, 1), padding_mode=reflect)
        (1): ReLU(inplace=True)
        (2): ReflectionPad2d((1, 1, 1, 1))
        (3): Conv2d(35, 35, kernel_size=(3, 3), stride=(1, 1))
      )
      (resm4): Sequential(
        (0): Conv2d(35, 35, kernel_size=(3, 3), stride=(1, 1), padding=(1, 1), padding_mode=reflect)
        (1): ReLU(inplace=True)
        (2): ReflectionPad2d((1, 1, 1, 1))
        (3): Conv2d(35, 35, kernel_size=(3, 3), stride=(1, 1))
      )
    )
    (7): Rnet(
      (relu): ReLU(inplace=True)
      (resm1): Sequential(
        (0): Conv2d(35, 35, kernel_size=(3, 3), stride=(1, 1), padding=(1, 1), padding_mode=reflect)
        (1): ReLU(inplace=True)
        (2): ReflectionPad2d((1, 1, 1, 1))
        (3): Conv2d(35, 35, kernel_size=(3, 3), stride=(1, 1))
      )
      (resm2): Sequential(
        (0): Conv2d(35, 35, kernel_size=(3, 3), stride=(1, 1), padding=(1, 1), padding_mode=reflect)
        (1): ReLU(inplace=True)
        (2): ReflectionPad2d((1, 1, 1, 1))
        (3): Conv2d(35, 35, kernel_size=(3, 3), stride=(1, 1))
      )
      (resm3): Sequential(
        (0): Conv2d(35, 35, kernel_size=(3, 3), stride=(1, 1), padding=(1, 1), padding_mode=reflect)
        (1): ReLU(inplace=True)
        (2): ReflectionPad2d((1, 1, 1, 1))
        (3): Conv2d(35, 35, kernel_size=(3, 3), stride=(1, 1))
      )
      (resm4): Sequential(
        (0): Conv2d(35, 35, kernel_size=(3, 3), stride=(1, 1), padding=(1, 1), padding_mode=reflect)
        (1): ReLU(inplace=True)
        (2): ReflectionPad2d((1, 1, 1, 1))
        (3): Conv2d(35, 35, kernel_size=(3, 3), stride=(1, 1))
      )
    )
    (8): Rnet(
      (relu): ReLU(inplace=True)
      (resm1): Sequential(
        (0): Conv2d(35, 35, kernel_size=(3, 3), stride=(1, 1), padding=(1, 1), padding_mode=reflect)
        (1): ReLU(inplace=True)
        (2): ReflectionPad2d((1, 1, 1, 1))
        (3): Conv2d(35, 35, kernel_size=(3, 3), stride=(1, 1))
      )
      (resm2): Sequential(
        (0): Conv2d(35, 35, kernel_size=(3, 3), stride=(1, 1), padding=(1, 1), padding_mode=reflect)
        (1): ReLU(inplace=True)
        (2): ReflectionPad2d((1, 1, 1, 1))
        (3): Conv2d(35, 35, kernel_size=(3, 3), stride=(1, 1))
      )
      (resm3): Sequential(
        (0): Conv2d(35, 35, kernel_size=(3, 3), stride=(1, 1), padding=(1, 1), padding_mode=reflect)
        (1): ReLU(inplace=True)
        (2): ReflectionPad2d((1, 1, 1, 1))
        (3): Conv2d(35, 35, kernel_size=(3, 3), stride=(1, 1))
      )
      (resm4): Sequential(
        (0): Conv2d(35, 35, kernel_size=(3, 3), stride=(1, 1), padding=(1, 1), padding_mode=reflect)
        (1): ReLU(inplace=True)
        (2): ReflectionPad2d((1, 1, 1, 1))
        (3): Conv2d(35, 35, kernel_size=(3, 3), stride=(1, 1))
      )
    )
    (9): Rnet(
      (relu): ReLU(inplace=True)
      (resm1): Sequential(
        (0): Conv2d(35, 35, kernel_size=(3, 3), stride=(1, 1), padding=(1, 1), padding_mode=reflect)
        (1): ReLU(inplace=True)
        (2): ReflectionPad2d((1, 1, 1, 1))
        (3): Conv2d(35, 35, kernel_size=(3, 3), stride=(1, 1))
      )
      (resm2): Sequential(
        (0): Conv2d(35, 35, kernel_size=(3, 3), stride=(1, 1), padding=(1, 1), padding_mode=reflect)
        (1): ReLU(inplace=True)
        (2): ReflectionPad2d((1, 1, 1, 1))
        (3): Conv2d(35, 35, kernel_size=(3, 3), stride=(1, 1))
      )
      (resm3): Sequential(
        (0): Conv2d(35, 35, kernel_size=(3, 3), stride=(1, 1), padding=(1, 1), padding_mode=reflect)
        (1): ReLU(inplace=True)
        (2): ReflectionPad2d((1, 1, 1, 1))
        (3): Conv2d(35, 35, kernel_size=(3, 3), stride=(1, 1))
      )
      (resm4): Sequential(
        (0): Conv2d(35, 35, kernel_size=(3, 3), stride=(1, 1), padding=(1, 1), padding_mode=reflect)
        (1): ReLU(inplace=True)
        (2): ReflectionPad2d((1, 1, 1, 1))
        (3): Conv2d(35, 35, kernel_size=(3, 3), stride=(1, 1))
      )
    )
    (10): Rnet(
      (relu): ReLU(inplace=True)
      (resm1): Sequential(
        (0): Conv2d(35, 35, kernel_size=(3, 3), stride=(1, 1), padding=(1, 1), padding_mode=reflect)
        (1): ReLU(inplace=True)
        (2): ReflectionPad2d((1, 1, 1, 1))
        (3): Conv2d(35, 35, kernel_size=(3, 3), stride=(1, 1))
      )
      (resm2): Sequential(
        (0): Conv2d(35, 35, kernel_size=(3, 3), stride=(1, 1), padding=(1, 1), padding_mode=reflect)
        (1): ReLU(inplace=True)
        (2): ReflectionPad2d((1, 1, 1, 1))
        (3): Conv2d(35, 35, kernel_size=(3, 3), stride=(1, 1))
      )
      (resm3): Sequential(
        (0): Conv2d(35, 35, kernel_size=(3, 3), stride=(1, 1), padding=(1, 1), padding_mode=reflect)
        (1): ReLU(inplace=True)
        (2): ReflectionPad2d((1, 1, 1, 1))
        (3): Conv2d(35, 35, kernel_size=(3, 3), stride=(1, 1))
      )
      (resm4): Sequential(
        (0): Conv2d(35, 35, kernel_size=(3, 3), stride=(1, 1), padding=(1, 1), padding_mode=reflect)
        (1): ReLU(inplace=True)
        (2): ReflectionPad2d((1, 1, 1, 1))
        (3): Conv2d(35, 35, kernel_size=(3, 3), stride=(1, 1))
      )
    )
    (11): Rnet(
      (relu): ReLU(inplace=True)
      (resm1): Sequential(
        (0): Conv2d(35, 35, kernel_size=(3, 3), stride=(1, 1), padding=(1, 1), padding_mode=reflect)
        (1): ReLU(inplace=True)
        (2): ReflectionPad2d((1, 1, 1, 1))
        (3): Conv2d(35, 35, kernel_size=(3, 3), stride=(1, 1))
      )
      (resm2): Sequential(
        (0): Conv2d(35, 35, kernel_size=(3, 3), stride=(1, 1), padding=(1, 1), padding_mode=reflect)
        (1): ReLU(inplace=True)
        (2): ReflectionPad2d((1, 1, 1, 1))
        (3): Conv2d(35, 35, kernel_size=(3, 3), stride=(1, 1))
      )
      (resm3): Sequential(
        (0): Conv2d(35, 35, kernel_size=(3, 3), stride=(1, 1), padding=(1, 1), padding_mode=reflect)
        (1): ReLU(inplace=True)
        (2): ReflectionPad2d((1, 1, 1, 1))
        (3): Conv2d(35, 35, kernel_size=(3, 3), stride=(1, 1))
      )
      (resm4): Sequential(
        (0): Conv2d(35, 35, kernel_size=(3, 3), stride=(1, 1), padding=(1, 1), padding_mode=reflect)
        (1): ReLU(inplace=True)
        (2): ReflectionPad2d((1, 1, 1, 1))
        (3): Conv2d(35, 35, kernel_size=(3, 3), stride=(1, 1))
      )
    )
    (12): Rnet(
      (relu): ReLU(inplace=True)
      (resm1): Sequential(
        (0): Conv2d(35, 35, kernel_size=(3, 3), stride=(1, 1), padding=(1, 1), padding_mode=reflect)
        (1): ReLU(inplace=True)
        (2): ReflectionPad2d((1, 1, 1, 1))
        (3): Conv2d(35, 35, kernel_size=(3, 3), stride=(1, 1))
      )
      (resm2): Sequential(
        (0): Conv2d(35, 35, kernel_size=(3, 3), stride=(1, 1), padding=(1, 1), padding_mode=reflect)
        (1): ReLU(inplace=True)
        (2): ReflectionPad2d((1, 1, 1, 1))
        (3): Conv2d(35, 35, kernel_size=(3, 3), stride=(1, 1))
      )
      (resm3): Sequential(
        (0): Conv2d(35, 35, kernel_size=(3, 3), stride=(1, 1), padding=(1, 1), padding_mode=reflect)
        (1): ReLU(inplace=True)
        (2): ReflectionPad2d((1, 1, 1, 1))
        (3): Conv2d(35, 35, kernel_size=(3, 3), stride=(1, 1))
      )
      (resm4): Sequential(
        (0): Conv2d(35, 35, kernel_size=(3, 3), stride=(1, 1), padding=(1, 1), padding_mode=reflect)
        (1): ReLU(inplace=True)
        (2): ReflectionPad2d((1, 1, 1, 1))
        (3): Conv2d(35, 35, kernel_size=(3, 3), stride=(1, 1))
      )
    )
  )
  (conv_l): Conv2d(1, 29, kernel_size=(3, 3), stride=(1, 1), padding=(1, 1), padding_mode=reflect)
  (conv_r): Conv2d(3, 32, kernel_size=(3, 3), stride=(1, 1), padding=(1, 1), padding_mode=reflect)
)
Mainnet(
  (renet): Renet(
    (relu): ReLU(inplace=True)
    (res1): Sequential(
      (0): Conv2d(4, 32, kernel_size=(3, 3), stride=(1, 1), padding=(1, 1), padding_mode=reflect)
      (1): ReLU()
      (2): Conv2d(32, 4, kernel_size=(3, 3), stride=(1, 1), padding=(1, 1), padding_mode=reflect)
    )
    (res2): Sequential(
      (0): Conv2d(4, 32, kernel_size=(3, 3), stride=(1, 1), padding=(1, 1), padding_mode=reflect)
      (1): ReLU()
      (2): Conv2d(32, 4, kernel_size=(3, 3), stride=(1, 1), padding=(1, 1), padding_mode=reflect)
    )
    (res3): Sequential(
      (0): Conv2d(4, 32, kernel_size=(3, 3), stride=(1, 1), padding=(1, 1), padding_mode=reflect)
      (1): ReLU()
      (2): Conv2d(32, 4, kernel_size=(3, 3), stride=(1, 1), padding=(1, 1), padding_mode=reflect)
    )
    (res4): Sequential(
      (0): Conv2d(4, 32, kernel_size=(3, 3), stride=(1, 1), padding=(1, 1), padding_mode=reflect)
      (1): ReLU()
      (2): Conv2d(32, 4, kernel_size=(3, 3), stride=(1, 1), padding=(1, 1), padding_mode=reflect)
    )
  )
  (lenet): Lenet(
    (relu): ReLU(inplace=True)
    (res1): Sequential(
      (0): Conv2d(1, 32, kernel_size=(3, 3), stride=(1, 1), padding=(1, 1), padding_mode=reflect)
      (1): ReLU(inplace=True)
      (2): Conv2d(32, 1, kernel_size=(3, 3), stride=(1, 1), padding=(1, 1), padding_mode=reflect)
    )
    (res2): Sequential(
      (0): Conv2d(1, 32, kernel_size=(3, 3), stride=(1, 1), padding=(1, 1), padding_mode=reflect)
      (1): ReLU(inplace=True)
      (2): Conv2d(32, 1, kernel_size=(3, 3), stride=(1, 1), padding=(1, 1), padding_mode=reflect)
    )
    (scale): Sequential(
      (0): Linear(in_features=1, out_features=100, bias=True)
      (1): ReLU(inplace=True)
      (2): Linear(in_features=100, out_features=1, bias=True)
      (3): Sigmoid()
    )
  )
  (scale): Scale(
    (conv1): Sequential(
      (0): Conv2d(3, 64, kernel_size=(3, 3), stride=(1, 1), padding=(1, 1), padding_mode=reflect)
      (1): LeakyReLU(negative_slope=0.01, inplace=True)
      (2): Conv2d(64, 1, kernel_size=(1, 1), stride=(1, 1), padding_mode=reflect)
      (3): Sigmoid()
    )
  )
)
[Epoch 2]	Learning rate: 1.00e-5
[Epoch 2]	Learning rate of rec: 1.00e-3
[900/18000]	[VGG22: 0.0020]	25.7+0.3s
Mainnet(
  (lnet): Lnet(
    (conv1): Sequential(
      (0): Conv2d(34, 34, kernel_size=(3, 3), stride=(1, 1), padding=(1, 1), padding_mode=reflect)
      (1): LeakyReLU(negative_slope=0.01, inplace=True)
    )
    (conv2): Sequential(
      (0): Conv2d(66, 34, kernel_size=(1, 1), stride=(1, 1))
    )
  )
  (rnet): Rnet(
    (relu): ReLU(inplace=True)
    (resm1): Sequential(
      (0): Conv2d(35, 35, kernel_size=(3, 3), stride=(1, 1), padding=(1, 1), padding_mode=reflect)
      (1): ReLU(inplace=True)
      (2): ReflectionPad2d((1, 1, 1, 1))
      (3): Conv2d(35, 35, kernel_size=(3, 3), stride=(1, 1))
    )
    (resm2): Sequential(
      (0): Conv2d(35, 35, kernel_size=(3, 3), stride=(1, 1), padding=(1, 1), padding_mode=reflect)
      (1): ReLU(inplace=True)
      (2): ReflectionPad2d((1, 1, 1, 1))
      (3): Conv2d(35, 35, kernel_size=(3, 3), stride=(1, 1))
    )
    (resm3): Sequential(
      (0): Conv2d(35, 35, kernel_size=(3, 3), stride=(1, 1), padding=(1, 1), padding_mode=reflect)
      (1): ReLU(inplace=True)
      (2): ReflectionPad2d((1, 1, 1, 1))
      (3): Conv2d(35, 35, kernel_size=(3, 3), stride=(1, 1))
    )
    (resm4): Sequential(
      (0): Conv2d(35, 35, kernel_size=(3, 3), stride=(1, 1), padding=(1, 1), padding_mode=reflect)
      (1): ReLU(inplace=True)
      (2): ReflectionPad2d((1, 1, 1, 1))
      (3): Conv2d(35, 35, kernel_size=(3, 3), stride=(1, 1))
    )
  )
  (l_stage): Sequential(
    (0): Lnet(
      (conv1): Sequential(
        (0): Conv2d(34, 34, kernel_size=(3, 3), stride=(1, 1), padding=(1, 1), padding_mode=reflect)
        (1): LeakyReLU(negative_slope=0.01, inplace=True)
      )
      (conv2): Sequential(
        (0): Conv2d(66, 34, kernel_size=(1, 1), stride=(1, 1))
      )
    )
    (1): Lnet(
      (conv1): Sequential(
        (0): Conv2d(34, 34, kernel_size=(3, 3), stride=(1, 1), padding=(1, 1), padding_mode=reflect)
        (1): LeakyReLU(negative_slope=0.01, inplace=True)
      )
      (conv2): Sequential(
        (0): Conv2d(66, 34, kernel_size=(1, 1), stride=(1, 1))
      )
    )
    (2): Lnet(
      (conv1): Sequential(
        (0): Conv2d(34, 34, kernel_size=(3, 3), stride=(1, 1), padding=(1, 1), padding_mode=reflect)
        (1): LeakyReLU(negative_slope=0.01, inplace=True)
      )
      (conv2): Sequential(
        (0): Conv2d(66, 34, kernel_size=(1, 1), stride=(1, 1))
      )
    )
    (3): Lnet(
      (conv1): Sequential(
        (0): Conv2d(34, 34, kernel_size=(3, 3), stride=(1, 1), padding=(1, 1), padding_mode=reflect)
        (1): LeakyReLU(negative_slope=0.01, inplace=True)
      )
      (conv2): Sequential(
        (0): Conv2d(66, 34, kernel_size=(1, 1), stride=(1, 1))
      )
    )
    (4): Lnet(
      (conv1): Sequential(
        (0): Conv2d(34, 34, kernel_size=(3, 3), stride=(1, 1), padding=(1, 1), padding_mode=reflect)
        (1): LeakyReLU(negative_slope=0.01, inplace=True)
      )
      (conv2): Sequential(
        (0): Conv2d(66, 34, kernel_size=(1, 1), stride=(1, 1))
      )
    )
    (5): Lnet(
      (conv1): Sequential(
        (0): Conv2d(34, 34, kernel_size=(3, 3), stride=(1, 1), padding=(1, 1), padding_mode=reflect)
        (1): LeakyReLU(negative_slope=0.01, inplace=True)
      )
      (conv2): Sequential(
        (0): Conv2d(66, 34, kernel_size=(1, 1), stride=(1, 1))
      )
    )
    (6): Lnet(
      (conv1): Sequential(
        (0): Conv2d(34, 34, kernel_size=(3, 3), stride=(1, 1), padding=(1, 1), padding_mode=reflect)
        (1): LeakyReLU(negative_slope=0.01, inplace=True)
      )
      (conv2): Sequential(
        (0): Conv2d(66, 34, kernel_size=(1, 1), stride=(1, 1))
      )
    )
    (7): Lnet(
      (conv1): Sequential(
        (0): Conv2d(34, 34, kernel_size=(3, 3), stride=(1, 1), padding=(1, 1), padding_mode=reflect)
        (1): LeakyReLU(negative_slope=0.01, inplace=True)
      )
      (conv2): Sequential(
        (0): Conv2d(66, 34, kernel_size=(1, 1), stride=(1, 1))
      )
    )
    (8): Lnet(
      (conv1): Sequential(
        (0): Conv2d(34, 34, kernel_size=(3, 3), stride=(1, 1), padding=(1, 1), padding_mode=reflect)
        (1): LeakyReLU(negative_slope=0.01, inplace=True)
      )
      (conv2): Sequential(
        (0): Conv2d(66, 34, kernel_size=(1, 1), stride=(1, 1))
      )
    )
    (9): Lnet(
      (conv1): Sequential(
        (0): Conv2d(34, 34, kernel_size=(3, 3), stride=(1, 1), padding=(1, 1), padding_mode=reflect)
        (1): LeakyReLU(negative_slope=0.01, inplace=True)
      )
      (conv2): Sequential(
        (0): Conv2d(66, 34, kernel_size=(1, 1), stride=(1, 1))
      )
    )
    (10): Lnet(
      (conv1): Sequential(
        (0): Conv2d(34, 34, kernel_size=(3, 3), stride=(1, 1), padding=(1, 1), padding_mode=reflect)
        (1): LeakyReLU(negative_slope=0.01, inplace=True)
      )
      (conv2): Sequential(
        (0): Conv2d(66, 34, kernel_size=(1, 1), stride=(1, 1))
      )
    )
    (11): Lnet(
      (conv1): Sequential(
        (0): Conv2d(34, 34, kernel_size=(3, 3), stride=(1, 1), padding=(1, 1), padding_mode=reflect)
        (1): LeakyReLU(negative_slope=0.01, inplace=True)
      )
      (conv2): Sequential(
        (0): Conv2d(66, 34, kernel_size=(1, 1), stride=(1, 1))
      )
    )
    (12): Lnet(
      (conv1): Sequential(
        (0): Conv2d(34, 34, kernel_size=(3, 3), stride=(1, 1), padding=(1, 1), padding_mode=reflect)
        (1): LeakyReLU(negative_slope=0.01, inplace=True)
      )
      (conv2): Sequential(
        (0): Conv2d(66, 34, kernel_size=(1, 1), stride=(1, 1))
      )
    )
  )
  (r_stage): Sequential(
    (0): Rnet(
      (relu): ReLU(inplace=True)
      (resm1): Sequential(
        (0): Conv2d(35, 35, kernel_size=(3, 3), stride=(1, 1), padding=(1, 1), padding_mode=reflect)
        (1): ReLU(inplace=True)
        (2): ReflectionPad2d((1, 1, 1, 1))
        (3): Conv2d(35, 35, kernel_size=(3, 3), stride=(1, 1))
      )
      (resm2): Sequential(
        (0): Conv2d(35, 35, kernel_size=(3, 3), stride=(1, 1), padding=(1, 1), padding_mode=reflect)
        (1): ReLU(inplace=True)
        (2): ReflectionPad2d((1, 1, 1, 1))
        (3): Conv2d(35, 35, kernel_size=(3, 3), stride=(1, 1))
      )
      (resm3): Sequential(
        (0): Conv2d(35, 35, kernel_size=(3, 3), stride=(1, 1), padding=(1, 1), padding_mode=reflect)
        (1): ReLU(inplace=True)
        (2): ReflectionPad2d((1, 1, 1, 1))
        (3): Conv2d(35, 35, kernel_size=(3, 3), stride=(1, 1))
      )
      (resm4): Sequential(
        (0): Conv2d(35, 35, kernel_size=(3, 3), stride=(1, 1), padding=(1, 1), padding_mode=reflect)
        (1): ReLU(inplace=True)
        (2): ReflectionPad2d((1, 1, 1, 1))
        (3): Conv2d(35, 35, kernel_size=(3, 3), stride=(1, 1))
      )
    )
    (1): Rnet(
      (relu): ReLU(inplace=True)
      (resm1): Sequential(
        (0): Conv2d(35, 35, kernel_size=(3, 3), stride=(1, 1), padding=(1, 1), padding_mode=reflect)
        (1): ReLU(inplace=True)
        (2): ReflectionPad2d((1, 1, 1, 1))
        (3): Conv2d(35, 35, kernel_size=(3, 3), stride=(1, 1))
      )
      (resm2): Sequential(
        (0): Conv2d(35, 35, kernel_size=(3, 3), stride=(1, 1), padding=(1, 1), padding_mode=reflect)
        (1): ReLU(inplace=True)
        (2): ReflectionPad2d((1, 1, 1, 1))
        (3): Conv2d(35, 35, kernel_size=(3, 3), stride=(1, 1))
      )
      (resm3): Sequential(
        (0): Conv2d(35, 35, kernel_size=(3, 3), stride=(1, 1), padding=(1, 1), padding_mode=reflect)
        (1): ReLU(inplace=True)
        (2): ReflectionPad2d((1, 1, 1, 1))
        (3): Conv2d(35, 35, kernel_size=(3, 3), stride=(1, 1))
      )
      (resm4): Sequential(
        (0): Conv2d(35, 35, kernel_size=(3, 3), stride=(1, 1), padding=(1, 1), padding_mode=reflect)
        (1): ReLU(inplace=True)
        (2): ReflectionPad2d((1, 1, 1, 1))
        (3): Conv2d(35, 35, kernel_size=(3, 3), stride=(1, 1))
      )
    )
    (2): Rnet(
      (relu): ReLU(inplace=True)
      (resm1): Sequential(
        (0): Conv2d(35, 35, kernel_size=(3, 3), stride=(1, 1), padding=(1, 1), padding_mode=reflect)
        (1): ReLU(inplace=True)
        (2): ReflectionPad2d((1, 1, 1, 1))
        (3): Conv2d(35, 35, kernel_size=(3, 3), stride=(1, 1))
      )
      (resm2): Sequential(
        (0): Conv2d(35, 35, kernel_size=(3, 3), stride=(1, 1), padding=(1, 1), padding_mode=reflect)
        (1): ReLU(inplace=True)
        (2): ReflectionPad2d((1, 1, 1, 1))
        (3): Conv2d(35, 35, kernel_size=(3, 3), stride=(1, 1))
      )
      (resm3): Sequential(
        (0): Conv2d(35, 35, kernel_size=(3, 3), stride=(1, 1), padding=(1, 1), padding_mode=reflect)
        (1): ReLU(inplace=True)
        (2): ReflectionPad2d((1, 1, 1, 1))
        (3): Conv2d(35, 35, kernel_size=(3, 3), stride=(1, 1))
      )
      (resm4): Sequential(
        (0): Conv2d(35, 35, kernel_size=(3, 3), stride=(1, 1), padding=(1, 1), padding_mode=reflect)
        (1): ReLU(inplace=True)
        (2): ReflectionPad2d((1, 1, 1, 1))
        (3): Conv2d(35, 35, kernel_size=(3, 3), stride=(1, 1))
      )
    )
    (3): Rnet(
      (relu): ReLU(inplace=True)
      (resm1): Sequential(
        (0): Conv2d(35, 35, kernel_size=(3, 3), stride=(1, 1), padding=(1, 1), padding_mode=reflect)
        (1): ReLU(inplace=True)
        (2): ReflectionPad2d((1, 1, 1, 1))
        (3): Conv2d(35, 35, kernel_size=(3, 3), stride=(1, 1))
      )
      (resm2): Sequential(
        (0): Conv2d(35, 35, kernel_size=(3, 3), stride=(1, 1), padding=(1, 1), padding_mode=reflect)
        (1): ReLU(inplace=True)
        (2): ReflectionPad2d((1, 1, 1, 1))
        (3): Conv2d(35, 35, kernel_size=(3, 3), stride=(1, 1))
      )
      (resm3): Sequential(
        (0): Conv2d(35, 35, kernel_size=(3, 3), stride=(1, 1), padding=(1, 1), padding_mode=reflect)
        (1): ReLU(inplace=True)
        (2): ReflectionPad2d((1, 1, 1, 1))
        (3): Conv2d(35, 35, kernel_size=(3, 3), stride=(1, 1))
      )
      (resm4): Sequential(
        (0): Conv2d(35, 35, kernel_size=(3, 3), stride=(1, 1), padding=(1, 1), padding_mode=reflect)
        (1): ReLU(inplace=True)
        (2): ReflectionPad2d((1, 1, 1, 1))
        (3): Conv2d(35, 35, kernel_size=(3, 3), stride=(1, 1))
      )
    )
    (4): Rnet(
      (relu): ReLU(inplace=True)
      (resm1): Sequential(
        (0): Conv2d(35, 35, kernel_size=(3, 3), stride=(1, 1), padding=(1, 1), padding_mode=reflect)
        (1): ReLU(inplace=True)
        (2): ReflectionPad2d((1, 1, 1, 1))
        (3): Conv2d(35, 35, kernel_size=(3, 3), stride=(1, 1))
      )
      (resm2): Sequential(
        (0): Conv2d(35, 35, kernel_size=(3, 3), stride=(1, 1), padding=(1, 1), padding_mode=reflect)
        (1): ReLU(inplace=True)
        (2): ReflectionPad2d((1, 1, 1, 1))
        (3): Conv2d(35, 35, kernel_size=(3, 3), stride=(1, 1))
      )
      (resm3): Sequential(
        (0): Conv2d(35, 35, kernel_size=(3, 3), stride=(1, 1), padding=(1, 1), padding_mode=reflect)
        (1): ReLU(inplace=True)
        (2): ReflectionPad2d((1, 1, 1, 1))
        (3): Conv2d(35, 35, kernel_size=(3, 3), stride=(1, 1))
      )
      (resm4): Sequential(
        (0): Conv2d(35, 35, kernel_size=(3, 3), stride=(1, 1), padding=(1, 1), padding_mode=reflect)
        (1): ReLU(inplace=True)
        (2): ReflectionPad2d((1, 1, 1, 1))
        (3): Conv2d(35, 35, kernel_size=(3, 3), stride=(1, 1))
      )
    )
    (5): Rnet(
      (relu): ReLU(inplace=True)
      (resm1): Sequential(
        (0): Conv2d(35, 35, kernel_size=(3, 3), stride=(1, 1), padding=(1, 1), padding_mode=reflect)
        (1): ReLU(inplace=True)
        (2): ReflectionPad2d((1, 1, 1, 1))
        (3): Conv2d(35, 35, kernel_size=(3, 3), stride=(1, 1))
      )
      (resm2): Sequential(
        (0): Conv2d(35, 35, kernel_size=(3, 3), stride=(1, 1), padding=(1, 1), padding_mode=reflect)
        (1): ReLU(inplace=True)
        (2): ReflectionPad2d((1, 1, 1, 1))
        (3): Conv2d(35, 35, kernel_size=(3, 3), stride=(1, 1))
      )
      (resm3): Sequential(
        (0): Conv2d(35, 35, kernel_size=(3, 3), stride=(1, 1), padding=(1, 1), padding_mode=reflect)
        (1): ReLU(inplace=True)
        (2): ReflectionPad2d((1, 1, 1, 1))
        (3): Conv2d(35, 35, kernel_size=(3, 3), stride=(1, 1))
      )
      (resm4): Sequential(
        (0): Conv2d(35, 35, kernel_size=(3, 3), stride=(1, 1), padding=(1, 1), padding_mode=reflect)
        (1): ReLU(inplace=True)
        (2): ReflectionPad2d((1, 1, 1, 1))
        (3): Conv2d(35, 35, kernel_size=(3, 3), stride=(1, 1))
      )
    )
    (6): Rnet(
      (relu): ReLU(inplace=True)
      (resm1): Sequential(
        (0): Conv2d(35, 35, kernel_size=(3, 3), stride=(1, 1), padding=(1, 1), padding_mode=reflect)
        (1): ReLU(inplace=True)
        (2): ReflectionPad2d((1, 1, 1, 1))
        (3): Conv2d(35, 35, kernel_size=(3, 3), stride=(1, 1))
      )
      (resm2): Sequential(
        (0): Conv2d(35, 35, kernel_size=(3, 3), stride=(1, 1), padding=(1, 1), padding_mode=reflect)
        (1): ReLU(inplace=True)
        (2): ReflectionPad2d((1, 1, 1, 1))
        (3): Conv2d(35, 35, kernel_size=(3, 3), stride=(1, 1))
      )
      (resm3): Sequential(
        (0): Conv2d(35, 35, kernel_size=(3, 3), stride=(1, 1), padding=(1, 1), padding_mode=reflect)
        (1): ReLU(inplace=True)
        (2): ReflectionPad2d((1, 1, 1, 1))
        (3): Conv2d(35, 35, kernel_size=(3, 3), stride=(1, 1))
      )
      (resm4): Sequential(
        (0): Conv2d(35, 35, kernel_size=(3, 3), stride=(1, 1), padding=(1, 1), padding_mode=reflect)
        (1): ReLU(inplace=True)
        (2): ReflectionPad2d((1, 1, 1, 1))
        (3): Conv2d(35, 35, kernel_size=(3, 3), stride=(1, 1))
      )
    )
    (7): Rnet(
      (relu): ReLU(inplace=True)
      (resm1): Sequential(
        (0): Conv2d(35, 35, kernel_size=(3, 3), stride=(1, 1), padding=(1, 1), padding_mode=reflect)
        (1): ReLU(inplace=True)
        (2): ReflectionPad2d((1, 1, 1, 1))
        (3): Conv2d(35, 35, kernel_size=(3, 3), stride=(1, 1))
      )
      (resm2): Sequential(
        (0): Conv2d(35, 35, kernel_size=(3, 3), stride=(1, 1), padding=(1, 1), padding_mode=reflect)
        (1): ReLU(inplace=True)
        (2): ReflectionPad2d((1, 1, 1, 1))
        (3): Conv2d(35, 35, kernel_size=(3, 3), stride=(1, 1))
      )
      (resm3): Sequential(
        (0): Conv2d(35, 35, kernel_size=(3, 3), stride=(1, 1), padding=(1, 1), padding_mode=reflect)
        (1): ReLU(inplace=True)
        (2): ReflectionPad2d((1, 1, 1, 1))
        (3): Conv2d(35, 35, kernel_size=(3, 3), stride=(1, 1))
      )
      (resm4): Sequential(
        (0): Conv2d(35, 35, kernel_size=(3, 3), stride=(1, 1), padding=(1, 1), padding_mode=reflect)
        (1): ReLU(inplace=True)
        (2): ReflectionPad2d((1, 1, 1, 1))
        (3): Conv2d(35, 35, kernel_size=(3, 3), stride=(1, 1))
      )
    )
    (8): Rnet(
      (relu): ReLU(inplace=True)
      (resm1): Sequential(
        (0): Conv2d(35, 35, kernel_size=(3, 3), stride=(1, 1), padding=(1, 1), padding_mode=reflect)
        (1): ReLU(inplace=True)
        (2): ReflectionPad2d((1, 1, 1, 1))
        (3): Conv2d(35, 35, kernel_size=(3, 3), stride=(1, 1))
      )
      (resm2): Sequential(
        (0): Conv2d(35, 35, kernel_size=(3, 3), stride=(1, 1), padding=(1, 1), padding_mode=reflect)
        (1): ReLU(inplace=True)
        (2): ReflectionPad2d((1, 1, 1, 1))
        (3): Conv2d(35, 35, kernel_size=(3, 3), stride=(1, 1))
      )
      (resm3): Sequential(
        (0): Conv2d(35, 35, kernel_size=(3, 3), stride=(1, 1), padding=(1, 1), padding_mode=reflect)
        (1): ReLU(inplace=True)
        (2): ReflectionPad2d((1, 1, 1, 1))
        (3): Conv2d(35, 35, kernel_size=(3, 3), stride=(1, 1))
      )
      (resm4): Sequential(
        (0): Conv2d(35, 35, kernel_size=(3, 3), stride=(1, 1), padding=(1, 1), padding_mode=reflect)
        (1): ReLU(inplace=True)
        (2): ReflectionPad2d((1, 1, 1, 1))
        (3): Conv2d(35, 35, kernel_size=(3, 3), stride=(1, 1))
      )
    )
    (9): Rnet(
      (relu): ReLU(inplace=True)
      (resm1): Sequential(
        (0): Conv2d(35, 35, kernel_size=(3, 3), stride=(1, 1), padding=(1, 1), padding_mode=reflect)
        (1): ReLU(inplace=True)
        (2): ReflectionPad2d((1, 1, 1, 1))
        (3): Conv2d(35, 35, kernel_size=(3, 3), stride=(1, 1))
      )
      (resm2): Sequential(
        (0): Conv2d(35, 35, kernel_size=(3, 3), stride=(1, 1), padding=(1, 1), padding_mode=reflect)
        (1): ReLU(inplace=True)
        (2): ReflectionPad2d((1, 1, 1, 1))
        (3): Conv2d(35, 35, kernel_size=(3, 3), stride=(1, 1))
      )
      (resm3): Sequential(
        (0): Conv2d(35, 35, kernel_size=(3, 3), stride=(1, 1), padding=(1, 1), padding_mode=reflect)
        (1): ReLU(inplace=True)
        (2): ReflectionPad2d((1, 1, 1, 1))
        (3): Conv2d(35, 35, kernel_size=(3, 3), stride=(1, 1))
      )
      (resm4): Sequential(
        (0): Conv2d(35, 35, kernel_size=(3, 3), stride=(1, 1), padding=(1, 1), padding_mode=reflect)
        (1): ReLU(inplace=True)
        (2): ReflectionPad2d((1, 1, 1, 1))
        (3): Conv2d(35, 35, kernel_size=(3, 3), stride=(1, 1))
      )
    )
    (10): Rnet(
      (relu): ReLU(inplace=True)
      (resm1): Sequential(
        (0): Conv2d(35, 35, kernel_size=(3, 3), stride=(1, 1), padding=(1, 1), padding_mode=reflect)
        (1): ReLU(inplace=True)
        (2): ReflectionPad2d((1, 1, 1, 1))
        (3): Conv2d(35, 35, kernel_size=(3, 3), stride=(1, 1))
      )
      (resm2): Sequential(
        (0): Conv2d(35, 35, kernel_size=(3, 3), stride=(1, 1), padding=(1, 1), padding_mode=reflect)
        (1): ReLU(inplace=True)
        (2): ReflectionPad2d((1, 1, 1, 1))
        (3): Conv2d(35, 35, kernel_size=(3, 3), stride=(1, 1))
      )
      (resm3): Sequential(
        (0): Conv2d(35, 35, kernel_size=(3, 3), stride=(1, 1), padding=(1, 1), padding_mode=reflect)
        (1): ReLU(inplace=True)
        (2): ReflectionPad2d((1, 1, 1, 1))
        (3): Conv2d(35, 35, kernel_size=(3, 3), stride=(1, 1))
      )
      (resm4): Sequential(
        (0): Conv2d(35, 35, kernel_size=(3, 3), stride=(1, 1), padding=(1, 1), padding_mode=reflect)
        (1): ReLU(inplace=True)
        (2): ReflectionPad2d((1, 1, 1, 1))
        (3): Conv2d(35, 35, kernel_size=(3, 3), stride=(1, 1))
      )
    )
    (11): Rnet(
      (relu): ReLU(inplace=True)
      (resm1): Sequential(
        (0): Conv2d(35, 35, kernel_size=(3, 3), stride=(1, 1), padding=(1, 1), padding_mode=reflect)
        (1): ReLU(inplace=True)
        (2): ReflectionPad2d((1, 1, 1, 1))
        (3): Conv2d(35, 35, kernel_size=(3, 3), stride=(1, 1))
      )
      (resm2): Sequential(
        (0): Conv2d(35, 35, kernel_size=(3, 3), stride=(1, 1), padding=(1, 1), padding_mode=reflect)
        (1): ReLU(inplace=True)
        (2): ReflectionPad2d((1, 1, 1, 1))
        (3): Conv2d(35, 35, kernel_size=(3, 3), stride=(1, 1))
      )
      (resm3): Sequential(
        (0): Conv2d(35, 35, kernel_size=(3, 3), stride=(1, 1), padding=(1, 1), padding_mode=reflect)
        (1): ReLU(inplace=True)
        (2): ReflectionPad2d((1, 1, 1, 1))
        (3): Conv2d(35, 35, kernel_size=(3, 3), stride=(1, 1))
      )
      (resm4): Sequential(
        (0): Conv2d(35, 35, kernel_size=(3, 3), stride=(1, 1), padding=(1, 1), padding_mode=reflect)
        (1): ReLU(inplace=True)
        (2): ReflectionPad2d((1, 1, 1, 1))
        (3): Conv2d(35, 35, kernel_size=(3, 3), stride=(1, 1))
      )
    )
    (12): Rnet(
      (relu): ReLU(inplace=True)
      (resm1): Sequential(
        (0): Conv2d(35, 35, kernel_size=(3, 3), stride=(1, 1), padding=(1, 1), padding_mode=reflect)
        (1): ReLU(inplace=True)
        (2): ReflectionPad2d((1, 1, 1, 1))
        (3): Conv2d(35, 35, kernel_size=(3, 3), stride=(1, 1))
      )
      (resm2): Sequential(
        (0): Conv2d(35, 35, kernel_size=(3, 3), stride=(1, 1), padding=(1, 1), padding_mode=reflect)
        (1): ReLU(inplace=True)
        (2): ReflectionPad2d((1, 1, 1, 1))
        (3): Conv2d(35, 35, kernel_size=(3, 3), stride=(1, 1))
      )
      (resm3): Sequential(
        (0): Conv2d(35, 35, kernel_size=(3, 3), stride=(1, 1), padding=(1, 1), padding_mode=reflect)
        (1): ReLU(inplace=True)
        (2): ReflectionPad2d((1, 1, 1, 1))
        (3): Conv2d(35, 35, kernel_size=(3, 3), stride=(1, 1))
      )
      (resm4): Sequential(
        (0): Conv2d(35, 35, kernel_size=(3, 3), stride=(1, 1), padding=(1, 1), padding_mode=reflect)
        (1): ReLU(inplace=True)
        (2): ReflectionPad2d((1, 1, 1, 1))
        (3): Conv2d(35, 35, kernel_size=(3, 3), stride=(1, 1))
      )
    )
  )
  (conv_l): Conv2d(1, 29, kernel_size=(3, 3), stride=(1, 1), padding=(1, 1), padding_mode=reflect)
  (conv_r): Conv2d(3, 32, kernel_size=(3, 3), stride=(1, 1), padding=(1, 1), padding_mode=reflect)
)
Mainnet(
  (renet): Renet(
    (relu): ReLU(inplace=True)
    (res1): Sequential(
      (0): Conv2d(4, 32, kernel_size=(3, 3), stride=(1, 1), padding=(1, 1), padding_mode=reflect)
      (1): ReLU()
      (2): Conv2d(32, 4, kernel_size=(3, 3), stride=(1, 1), padding=(1, 1), padding_mode=reflect)
    )
    (res2): Sequential(
      (0): Conv2d(4, 32, kernel_size=(3, 3), stride=(1, 1), padding=(1, 1), padding_mode=reflect)
      (1): ReLU()
      (2): Conv2d(32, 4, kernel_size=(3, 3), stride=(1, 1), padding=(1, 1), padding_mode=reflect)
    )
    (res3): Sequential(
      (0): Conv2d(4, 32, kernel_size=(3, 3), stride=(1, 1), padding=(1, 1), padding_mode=reflect)
      (1): ReLU()
      (2): Conv2d(32, 4, kernel_size=(3, 3), stride=(1, 1), padding=(1, 1), padding_mode=reflect)
    )
    (res4): Sequential(
      (0): Conv2d(4, 32, kernel_size=(3, 3), stride=(1, 1), padding=(1, 1), padding_mode=reflect)
      (1): ReLU()
      (2): Conv2d(32, 4, kernel_size=(3, 3), stride=(1, 1), padding=(1, 1), padding_mode=reflect)
    )
  )
  (lenet): Lenet(
    (relu): ReLU(inplace=True)
    (res1): Sequential(
      (0): Conv2d(1, 32, kernel_size=(3, 3), stride=(1, 1), padding=(1, 1), padding_mode=reflect)
      (1): ReLU(inplace=True)
      (2): Conv2d(32, 1, kernel_size=(3, 3), stride=(1, 1), padding=(1, 1), padding_mode=reflect)
    )
    (res2): Sequential(
      (0): Conv2d(1, 32, kernel_size=(3, 3), stride=(1, 1), padding=(1, 1), padding_mode=reflect)
      (1): ReLU(inplace=True)
      (2): Conv2d(32, 1, kernel_size=(3, 3), stride=(1, 1), padding=(1, 1), padding_mode=reflect)
    )
    (scale): Sequential(
      (0): Linear(in_features=1, out_features=100, bias=True)
      (1): ReLU(inplace=True)
      (2): Linear(in_features=100, out_features=1, bias=True)
      (3): Sigmoid()
    )
  )
  (scale): Scale(
    (conv1): Sequential(
      (0): Conv2d(3, 64, kernel_size=(3, 3), stride=(1, 1), padding=(1, 1), padding_mode=reflect)
      (1): LeakyReLU(negative_slope=0.01, inplace=True)
      (2): Conv2d(64, 1, kernel_size=(1, 1), stride=(1, 1), padding_mode=reflect)
      (3): Sigmoid()
    )
  )
)
[Epoch 2]	Learning rate: 1.00e-5
[Epoch 2]	Learning rate of rec: 1.00e-3
[900/18000]	[VGG22: 0.0021]	25.8+0.3s
[1800/18000]	[VGG22: 0.0016]	25.5+0.3s
[2700/18000]	[VGG22: 0.0014]	25.6+0.3s
[3600/18000]	[VGG22: 0.0013]	25.6+0.3s
[4500/18000]	[VGG22: 0.0012]	25.6+0.3s
[5400/18000]	[VGG22: 0.0011]	25.5+0.3s
[6300/18000]	[VGG22: 0.0011]	25.6+0.3s
[7200/18000]	[VGG22: 0.0010]	25.6+0.3s
[8100/18000]	[VGG22: 0.0010]	25.6+0.3s
[9000/18000]	[VGG22: 0.0010]	25.6+0.3s
[9900/18000]	[VGG22: 0.0010]	25.6+0.3s
[10800/18000]	[VGG22: 0.0010]	25.6+0.3s
[11700/18000]	[VGG22: 0.0009]	25.7+0.3s
[12600/18000]	[VGG22: 0.0009]	25.7+0.3s
[13500/18000]	[VGG22: 0.0009]	25.6+0.3s
[14400/18000]	[VGG22: 0.0009]	25.7+0.3s
[15300/18000]	[VGG22: 0.0009]	25.7+0.3s
[16200/18000]	[VGG22: 0.0009]	25.7+0.3s
[17100/18000]	[VGG22: 0.0009]	25.7+0.3s
[18000/18000]	[VGG22: 0.0009]	25.7+0.3s

Evaluation:
Mainnet(
  (lnet): Lnet(
    (conv1): Sequential(
      (0): Conv2d(34, 34, kernel_size=(3, 3), stride=(1, 1), padding=(1, 1), padding_mode=reflect)
      (1): LeakyReLU(negative_slope=0.01, inplace=True)
    )
    (conv2): Sequential(
      (0): Conv2d(66, 34, kernel_size=(1, 1), stride=(1, 1))
    )
  )
  (rnet): Rnet(
    (relu): ReLU(inplace=True)
    (resm1): Sequential(
      (0): Conv2d(35, 35, kernel_size=(3, 3), stride=(1, 1), padding=(1, 1), padding_mode=reflect)
      (1): ReLU(inplace=True)
      (2): ReflectionPad2d((1, 1, 1, 1))
      (3): Conv2d(35, 35, kernel_size=(3, 3), stride=(1, 1))
    )
    (resm2): Sequential(
      (0): Conv2d(35, 35, kernel_size=(3, 3), stride=(1, 1), padding=(1, 1), padding_mode=reflect)
      (1): ReLU(inplace=True)
      (2): ReflectionPad2d((1, 1, 1, 1))
      (3): Conv2d(35, 35, kernel_size=(3, 3), stride=(1, 1))
    )
    (resm3): Sequential(
      (0): Conv2d(35, 35, kernel_size=(3, 3), stride=(1, 1), padding=(1, 1), padding_mode=reflect)
      (1): ReLU(inplace=True)
      (2): ReflectionPad2d((1, 1, 1, 1))
      (3): Conv2d(35, 35, kernel_size=(3, 3), stride=(1, 1))
    )
    (resm4): Sequential(
      (0): Conv2d(35, 35, kernel_size=(3, 3), stride=(1, 1), padding=(1, 1), padding_mode=reflect)
      (1): ReLU(inplace=True)
      (2): ReflectionPad2d((1, 1, 1, 1))
      (3): Conv2d(35, 35, kernel_size=(3, 3), stride=(1, 1))
    )
  )
  (l_stage): Sequential(
    (0): Lnet(
      (conv1): Sequential(
        (0): Conv2d(34, 34, kernel_size=(3, 3), stride=(1, 1), padding=(1, 1), padding_mode=reflect)
        (1): LeakyReLU(negative_slope=0.01, inplace=True)
      )
      (conv2): Sequential(
        (0): Conv2d(66, 34, kernel_size=(1, 1), stride=(1, 1))
      )
    )
    (1): Lnet(
      (conv1): Sequential(
        (0): Conv2d(34, 34, kernel_size=(3, 3), stride=(1, 1), padding=(1, 1), padding_mode=reflect)
        (1): LeakyReLU(negative_slope=0.01, inplace=True)
      )
      (conv2): Sequential(
        (0): Conv2d(66, 34, kernel_size=(1, 1), stride=(1, 1))
      )
    )
    (2): Lnet(
      (conv1): Sequential(
        (0): Conv2d(34, 34, kernel_size=(3, 3), stride=(1, 1), padding=(1, 1), padding_mode=reflect)
        (1): LeakyReLU(negative_slope=0.01, inplace=True)
      )
      (conv2): Sequential(
        (0): Conv2d(66, 34, kernel_size=(1, 1), stride=(1, 1))
      )
    )
    (3): Lnet(
      (conv1): Sequential(
        (0): Conv2d(34, 34, kernel_size=(3, 3), stride=(1, 1), padding=(1, 1), padding_mode=reflect)
        (1): LeakyReLU(negative_slope=0.01, inplace=True)
      )
      (conv2): Sequential(
        (0): Conv2d(66, 34, kernel_size=(1, 1), stride=(1, 1))
      )
    )
    (4): Lnet(
      (conv1): Sequential(
        (0): Conv2d(34, 34, kernel_size=(3, 3), stride=(1, 1), padding=(1, 1), padding_mode=reflect)
        (1): LeakyReLU(negative_slope=0.01, inplace=True)
      )
      (conv2): Sequential(
        (0): Conv2d(66, 34, kernel_size=(1, 1), stride=(1, 1))
      )
    )
    (5): Lnet(
      (conv1): Sequential(
        (0): Conv2d(34, 34, kernel_size=(3, 3), stride=(1, 1), padding=(1, 1), padding_mode=reflect)
        (1): LeakyReLU(negative_slope=0.01, inplace=True)
      )
      (conv2): Sequential(
        (0): Conv2d(66, 34, kernel_size=(1, 1), stride=(1, 1))
      )
    )
    (6): Lnet(
      (conv1): Sequential(
        (0): Conv2d(34, 34, kernel_size=(3, 3), stride=(1, 1), padding=(1, 1), padding_mode=reflect)
        (1): LeakyReLU(negative_slope=0.01, inplace=True)
      )
      (conv2): Sequential(
        (0): Conv2d(66, 34, kernel_size=(1, 1), stride=(1, 1))
      )
    )
    (7): Lnet(
      (conv1): Sequential(
        (0): Conv2d(34, 34, kernel_size=(3, 3), stride=(1, 1), padding=(1, 1), padding_mode=reflect)
        (1): LeakyReLU(negative_slope=0.01, inplace=True)
      )
      (conv2): Sequential(
        (0): Conv2d(66, 34, kernel_size=(1, 1), stride=(1, 1))
      )
    )
    (8): Lnet(
      (conv1): Sequential(
        (0): Conv2d(34, 34, kernel_size=(3, 3), stride=(1, 1), padding=(1, 1), padding_mode=reflect)
        (1): LeakyReLU(negative_slope=0.01, inplace=True)
      )
      (conv2): Sequential(
        (0): Conv2d(66, 34, kernel_size=(1, 1), stride=(1, 1))
      )
    )
    (9): Lnet(
      (conv1): Sequential(
        (0): Conv2d(34, 34, kernel_size=(3, 3), stride=(1, 1), padding=(1, 1), padding_mode=reflect)
        (1): LeakyReLU(negative_slope=0.01, inplace=True)
      )
      (conv2): Sequential(
        (0): Conv2d(66, 34, kernel_size=(1, 1), stride=(1, 1))
      )
    )
    (10): Lnet(
      (conv1): Sequential(
        (0): Conv2d(34, 34, kernel_size=(3, 3), stride=(1, 1), padding=(1, 1), padding_mode=reflect)
        (1): LeakyReLU(negative_slope=0.01, inplace=True)
      )
      (conv2): Sequential(
        (0): Conv2d(66, 34, kernel_size=(1, 1), stride=(1, 1))
      )
    )
    (11): Lnet(
      (conv1): Sequential(
        (0): Conv2d(34, 34, kernel_size=(3, 3), stride=(1, 1), padding=(1, 1), padding_mode=reflect)
        (1): LeakyReLU(negative_slope=0.01, inplace=True)
      )
      (conv2): Sequential(
        (0): Conv2d(66, 34, kernel_size=(1, 1), stride=(1, 1))
      )
    )
    (12): Lnet(
      (conv1): Sequential(
        (0): Conv2d(34, 34, kernel_size=(3, 3), stride=(1, 1), padding=(1, 1), padding_mode=reflect)
        (1): LeakyReLU(negative_slope=0.01, inplace=True)
      )
      (conv2): Sequential(
        (0): Conv2d(66, 34, kernel_size=(1, 1), stride=(1, 1))
      )
    )
  )
  (r_stage): Sequential(
    (0): Rnet(
      (relu): ReLU(inplace=True)
      (resm1): Sequential(
        (0): Conv2d(35, 35, kernel_size=(3, 3), stride=(1, 1), padding=(1, 1), padding_mode=reflect)
        (1): ReLU(inplace=True)
        (2): ReflectionPad2d((1, 1, 1, 1))
        (3): Conv2d(35, 35, kernel_size=(3, 3), stride=(1, 1))
      )
      (resm2): Sequential(
        (0): Conv2d(35, 35, kernel_size=(3, 3), stride=(1, 1), padding=(1, 1), padding_mode=reflect)
        (1): ReLU(inplace=True)
        (2): ReflectionPad2d((1, 1, 1, 1))
        (3): Conv2d(35, 35, kernel_size=(3, 3), stride=(1, 1))
      )
      (resm3): Sequential(
        (0): Conv2d(35, 35, kernel_size=(3, 3), stride=(1, 1), padding=(1, 1), padding_mode=reflect)
        (1): ReLU(inplace=True)
        (2): ReflectionPad2d((1, 1, 1, 1))
        (3): Conv2d(35, 35, kernel_size=(3, 3), stride=(1, 1))
      )
      (resm4): Sequential(
        (0): Conv2d(35, 35, kernel_size=(3, 3), stride=(1, 1), padding=(1, 1), padding_mode=reflect)
        (1): ReLU(inplace=True)
        (2): ReflectionPad2d((1, 1, 1, 1))
        (3): Conv2d(35, 35, kernel_size=(3, 3), stride=(1, 1))
      )
    )
    (1): Rnet(
      (relu): ReLU(inplace=True)
      (resm1): Sequential(
        (0): Conv2d(35, 35, kernel_size=(3, 3), stride=(1, 1), padding=(1, 1), padding_mode=reflect)
        (1): ReLU(inplace=True)
        (2): ReflectionPad2d((1, 1, 1, 1))
        (3): Conv2d(35, 35, kernel_size=(3, 3), stride=(1, 1))
      )
      (resm2): Sequential(
        (0): Conv2d(35, 35, kernel_size=(3, 3), stride=(1, 1), padding=(1, 1), padding_mode=reflect)
        (1): ReLU(inplace=True)
        (2): ReflectionPad2d((1, 1, 1, 1))
        (3): Conv2d(35, 35, kernel_size=(3, 3), stride=(1, 1))
      )
      (resm3): Sequential(
        (0): Conv2d(35, 35, kernel_size=(3, 3), stride=(1, 1), padding=(1, 1), padding_mode=reflect)
        (1): ReLU(inplace=True)
        (2): ReflectionPad2d((1, 1, 1, 1))
        (3): Conv2d(35, 35, kernel_size=(3, 3), stride=(1, 1))
      )
      (resm4): Sequential(
        (0): Conv2d(35, 35, kernel_size=(3, 3), stride=(1, 1), padding=(1, 1), padding_mode=reflect)
        (1): ReLU(inplace=True)
        (2): ReflectionPad2d((1, 1, 1, 1))
        (3): Conv2d(35, 35, kernel_size=(3, 3), stride=(1, 1))
      )
    )
    (2): Rnet(
      (relu): ReLU(inplace=True)
      (resm1): Sequential(
        (0): Conv2d(35, 35, kernel_size=(3, 3), stride=(1, 1), padding=(1, 1), padding_mode=reflect)
        (1): ReLU(inplace=True)
        (2): ReflectionPad2d((1, 1, 1, 1))
        (3): Conv2d(35, 35, kernel_size=(3, 3), stride=(1, 1))
      )
      (resm2): Sequential(
        (0): Conv2d(35, 35, kernel_size=(3, 3), stride=(1, 1), padding=(1, 1), padding_mode=reflect)
        (1): ReLU(inplace=True)
        (2): ReflectionPad2d((1, 1, 1, 1))
        (3): Conv2d(35, 35, kernel_size=(3, 3), stride=(1, 1))
      )
      (resm3): Sequential(
        (0): Conv2d(35, 35, kernel_size=(3, 3), stride=(1, 1), padding=(1, 1), padding_mode=reflect)
        (1): ReLU(inplace=True)
        (2): ReflectionPad2d((1, 1, 1, 1))
        (3): Conv2d(35, 35, kernel_size=(3, 3), stride=(1, 1))
      )
      (resm4): Sequential(
        (0): Conv2d(35, 35, kernel_size=(3, 3), stride=(1, 1), padding=(1, 1), padding_mode=reflect)
        (1): ReLU(inplace=True)
        (2): ReflectionPad2d((1, 1, 1, 1))
        (3): Conv2d(35, 35, kernel_size=(3, 3), stride=(1, 1))
      )
    )
    (3): Rnet(
      (relu): ReLU(inplace=True)
      (resm1): Sequential(
        (0): Conv2d(35, 35, kernel_size=(3, 3), stride=(1, 1), padding=(1, 1), padding_mode=reflect)
        (1): ReLU(inplace=True)
        (2): ReflectionPad2d((1, 1, 1, 1))
        (3): Conv2d(35, 35, kernel_size=(3, 3), stride=(1, 1))
      )
      (resm2): Sequential(
        (0): Conv2d(35, 35, kernel_size=(3, 3), stride=(1, 1), padding=(1, 1), padding_mode=reflect)
        (1): ReLU(inplace=True)
        (2): ReflectionPad2d((1, 1, 1, 1))
        (3): Conv2d(35, 35, kernel_size=(3, 3), stride=(1, 1))
      )
      (resm3): Sequential(
        (0): Conv2d(35, 35, kernel_size=(3, 3), stride=(1, 1), padding=(1, 1), padding_mode=reflect)
        (1): ReLU(inplace=True)
        (2): ReflectionPad2d((1, 1, 1, 1))
        (3): Conv2d(35, 35, kernel_size=(3, 3), stride=(1, 1))
      )
      (resm4): Sequential(
        (0): Conv2d(35, 35, kernel_size=(3, 3), stride=(1, 1), padding=(1, 1), padding_mode=reflect)
        (1): ReLU(inplace=True)
        (2): ReflectionPad2d((1, 1, 1, 1))
        (3): Conv2d(35, 35, kernel_size=(3, 3), stride=(1, 1))
      )
    )
    (4): Rnet(
      (relu): ReLU(inplace=True)
      (resm1): Sequential(
        (0): Conv2d(35, 35, kernel_size=(3, 3), stride=(1, 1), padding=(1, 1), padding_mode=reflect)
        (1): ReLU(inplace=True)
        (2): ReflectionPad2d((1, 1, 1, 1))
        (3): Conv2d(35, 35, kernel_size=(3, 3), stride=(1, 1))
      )
      (resm2): Sequential(
        (0): Conv2d(35, 35, kernel_size=(3, 3), stride=(1, 1), padding=(1, 1), padding_mode=reflect)
        (1): ReLU(inplace=True)
        (2): ReflectionPad2d((1, 1, 1, 1))
        (3): Conv2d(35, 35, kernel_size=(3, 3), stride=(1, 1))
      )
      (resm3): Sequential(
        (0): Conv2d(35, 35, kernel_size=(3, 3), stride=(1, 1), padding=(1, 1), padding_mode=reflect)
        (1): ReLU(inplace=True)
        (2): ReflectionPad2d((1, 1, 1, 1))
        (3): Conv2d(35, 35, kernel_size=(3, 3), stride=(1, 1))
      )
      (resm4): Sequential(
        (0): Conv2d(35, 35, kernel_size=(3, 3), stride=(1, 1), padding=(1, 1), padding_mode=reflect)
        (1): ReLU(inplace=True)
        (2): ReflectionPad2d((1, 1, 1, 1))
        (3): Conv2d(35, 35, kernel_size=(3, 3), stride=(1, 1))
      )
    )
    (5): Rnet(
      (relu): ReLU(inplace=True)
      (resm1): Sequential(
        (0): Conv2d(35, 35, kernel_size=(3, 3), stride=(1, 1), padding=(1, 1), padding_mode=reflect)
        (1): ReLU(inplace=True)
        (2): ReflectionPad2d((1, 1, 1, 1))
        (3): Conv2d(35, 35, kernel_size=(3, 3), stride=(1, 1))
      )
      (resm2): Sequential(
        (0): Conv2d(35, 35, kernel_size=(3, 3), stride=(1, 1), padding=(1, 1), padding_mode=reflect)
        (1): ReLU(inplace=True)
        (2): ReflectionPad2d((1, 1, 1, 1))
        (3): Conv2d(35, 35, kernel_size=(3, 3), stride=(1, 1))
      )
      (resm3): Sequential(
        (0): Conv2d(35, 35, kernel_size=(3, 3), stride=(1, 1), padding=(1, 1), padding_mode=reflect)
        (1): ReLU(inplace=True)
        (2): ReflectionPad2d((1, 1, 1, 1))
        (3): Conv2d(35, 35, kernel_size=(3, 3), stride=(1, 1))
      )
      (resm4): Sequential(
        (0): Conv2d(35, 35, kernel_size=(3, 3), stride=(1, 1), padding=(1, 1), padding_mode=reflect)
        (1): ReLU(inplace=True)
        (2): ReflectionPad2d((1, 1, 1, 1))
        (3): Conv2d(35, 35, kernel_size=(3, 3), stride=(1, 1))
      )
    )
    (6): Rnet(
      (relu): ReLU(inplace=True)
      (resm1): Sequential(
        (0): Conv2d(35, 35, kernel_size=(3, 3), stride=(1, 1), padding=(1, 1), padding_mode=reflect)
        (1): ReLU(inplace=True)
        (2): ReflectionPad2d((1, 1, 1, 1))
        (3): Conv2d(35, 35, kernel_size=(3, 3), stride=(1, 1))
      )
      (resm2): Sequential(
        (0): Conv2d(35, 35, kernel_size=(3, 3), stride=(1, 1), padding=(1, 1), padding_mode=reflect)
        (1): ReLU(inplace=True)
        (2): ReflectionPad2d((1, 1, 1, 1))
        (3): Conv2d(35, 35, kernel_size=(3, 3), stride=(1, 1))
      )
      (resm3): Sequential(
        (0): Conv2d(35, 35, kernel_size=(3, 3), stride=(1, 1), padding=(1, 1), padding_mode=reflect)
        (1): ReLU(inplace=True)
        (2): ReflectionPad2d((1, 1, 1, 1))
        (3): Conv2d(35, 35, kernel_size=(3, 3), stride=(1, 1))
      )
      (resm4): Sequential(
        (0): Conv2d(35, 35, kernel_size=(3, 3), stride=(1, 1), padding=(1, 1), padding_mode=reflect)
        (1): ReLU(inplace=True)
        (2): ReflectionPad2d((1, 1, 1, 1))
        (3): Conv2d(35, 35, kernel_size=(3, 3), stride=(1, 1))
      )
    )
    (7): Rnet(
      (relu): ReLU(inplace=True)
      (resm1): Sequential(
        (0): Conv2d(35, 35, kernel_size=(3, 3), stride=(1, 1), padding=(1, 1), padding_mode=reflect)
        (1): ReLU(inplace=True)
        (2): ReflectionPad2d((1, 1, 1, 1))
        (3): Conv2d(35, 35, kernel_size=(3, 3), stride=(1, 1))
      )
      (resm2): Sequential(
        (0): Conv2d(35, 35, kernel_size=(3, 3), stride=(1, 1), padding=(1, 1), padding_mode=reflect)
        (1): ReLU(inplace=True)
        (2): ReflectionPad2d((1, 1, 1, 1))
        (3): Conv2d(35, 35, kernel_size=(3, 3), stride=(1, 1))
      )
      (resm3): Sequential(
        (0): Conv2d(35, 35, kernel_size=(3, 3), stride=(1, 1), padding=(1, 1), padding_mode=reflect)
        (1): ReLU(inplace=True)
        (2): ReflectionPad2d((1, 1, 1, 1))
        (3): Conv2d(35, 35, kernel_size=(3, 3), stride=(1, 1))
      )
      (resm4): Sequential(
        (0): Conv2d(35, 35, kernel_size=(3, 3), stride=(1, 1), padding=(1, 1), padding_mode=reflect)
        (1): ReLU(inplace=True)
        (2): ReflectionPad2d((1, 1, 1, 1))
        (3): Conv2d(35, 35, kernel_size=(3, 3), stride=(1, 1))
      )
    )
    (8): Rnet(
      (relu): ReLU(inplace=True)
      (resm1): Sequential(
        (0): Conv2d(35, 35, kernel_size=(3, 3), stride=(1, 1), padding=(1, 1), padding_mode=reflect)
        (1): ReLU(inplace=True)
        (2): ReflectionPad2d((1, 1, 1, 1))
        (3): Conv2d(35, 35, kernel_size=(3, 3), stride=(1, 1))
      )
      (resm2): Sequential(
        (0): Conv2d(35, 35, kernel_size=(3, 3), stride=(1, 1), padding=(1, 1), padding_mode=reflect)
        (1): ReLU(inplace=True)
        (2): ReflectionPad2d((1, 1, 1, 1))
        (3): Conv2d(35, 35, kernel_size=(3, 3), stride=(1, 1))
      )
      (resm3): Sequential(
        (0): Conv2d(35, 35, kernel_size=(3, 3), stride=(1, 1), padding=(1, 1), padding_mode=reflect)
        (1): ReLU(inplace=True)
        (2): ReflectionPad2d((1, 1, 1, 1))
        (3): Conv2d(35, 35, kernel_size=(3, 3), stride=(1, 1))
      )
      (resm4): Sequential(
        (0): Conv2d(35, 35, kernel_size=(3, 3), stride=(1, 1), padding=(1, 1), padding_mode=reflect)
        (1): ReLU(inplace=True)
        (2): ReflectionPad2d((1, 1, 1, 1))
        (3): Conv2d(35, 35, kernel_size=(3, 3), stride=(1, 1))
      )
    )
    (9): Rnet(
      (relu): ReLU(inplace=True)
      (resm1): Sequential(
        (0): Conv2d(35, 35, kernel_size=(3, 3), stride=(1, 1), padding=(1, 1), padding_mode=reflect)
        (1): ReLU(inplace=True)
        (2): ReflectionPad2d((1, 1, 1, 1))
        (3): Conv2d(35, 35, kernel_size=(3, 3), stride=(1, 1))
      )
      (resm2): Sequential(
        (0): Conv2d(35, 35, kernel_size=(3, 3), stride=(1, 1), padding=(1, 1), padding_mode=reflect)
        (1): ReLU(inplace=True)
        (2): ReflectionPad2d((1, 1, 1, 1))
        (3): Conv2d(35, 35, kernel_size=(3, 3), stride=(1, 1))
      )
      (resm3): Sequential(
        (0): Conv2d(35, 35, kernel_size=(3, 3), stride=(1, 1), padding=(1, 1), padding_mode=reflect)
        (1): ReLU(inplace=True)
        (2): ReflectionPad2d((1, 1, 1, 1))
        (3): Conv2d(35, 35, kernel_size=(3, 3), stride=(1, 1))
      )
      (resm4): Sequential(
        (0): Conv2d(35, 35, kernel_size=(3, 3), stride=(1, 1), padding=(1, 1), padding_mode=reflect)
        (1): ReLU(inplace=True)
        (2): ReflectionPad2d((1, 1, 1, 1))
        (3): Conv2d(35, 35, kernel_size=(3, 3), stride=(1, 1))
      )
    )
    (10): Rnet(
      (relu): ReLU(inplace=True)
      (resm1): Sequential(
        (0): Conv2d(35, 35, kernel_size=(3, 3), stride=(1, 1), padding=(1, 1), padding_mode=reflect)
        (1): ReLU(inplace=True)
        (2): ReflectionPad2d((1, 1, 1, 1))
        (3): Conv2d(35, 35, kernel_size=(3, 3), stride=(1, 1))
      )
      (resm2): Sequential(
        (0): Conv2d(35, 35, kernel_size=(3, 3), stride=(1, 1), padding=(1, 1), padding_mode=reflect)
        (1): ReLU(inplace=True)
        (2): ReflectionPad2d((1, 1, 1, 1))
        (3): Conv2d(35, 35, kernel_size=(3, 3), stride=(1, 1))
      )
      (resm3): Sequential(
        (0): Conv2d(35, 35, kernel_size=(3, 3), stride=(1, 1), padding=(1, 1), padding_mode=reflect)
        (1): ReLU(inplace=True)
        (2): ReflectionPad2d((1, 1, 1, 1))
        (3): Conv2d(35, 35, kernel_size=(3, 3), stride=(1, 1))
      )
      (resm4): Sequential(
        (0): Conv2d(35, 35, kernel_size=(3, 3), stride=(1, 1), padding=(1, 1), padding_mode=reflect)
        (1): ReLU(inplace=True)
        (2): ReflectionPad2d((1, 1, 1, 1))
        (3): Conv2d(35, 35, kernel_size=(3, 3), stride=(1, 1))
      )
    )
    (11): Rnet(
      (relu): ReLU(inplace=True)
      (resm1): Sequential(
        (0): Conv2d(35, 35, kernel_size=(3, 3), stride=(1, 1), padding=(1, 1), padding_mode=reflect)
        (1): ReLU(inplace=True)
        (2): ReflectionPad2d((1, 1, 1, 1))
        (3): Conv2d(35, 35, kernel_size=(3, 3), stride=(1, 1))
      )
      (resm2): Sequential(
        (0): Conv2d(35, 35, kernel_size=(3, 3), stride=(1, 1), padding=(1, 1), padding_mode=reflect)
        (1): ReLU(inplace=True)
        (2): ReflectionPad2d((1, 1, 1, 1))
        (3): Conv2d(35, 35, kernel_size=(3, 3), stride=(1, 1))
      )
      (resm3): Sequential(
        (0): Conv2d(35, 35, kernel_size=(3, 3), stride=(1, 1), padding=(1, 1), padding_mode=reflect)
        (1): ReLU(inplace=True)
        (2): ReflectionPad2d((1, 1, 1, 1))
        (3): Conv2d(35, 35, kernel_size=(3, 3), stride=(1, 1))
      )
      (resm4): Sequential(
        (0): Conv2d(35, 35, kernel_size=(3, 3), stride=(1, 1), padding=(1, 1), padding_mode=reflect)
        (1): ReLU(inplace=True)
        (2): ReflectionPad2d((1, 1, 1, 1))
        (3): Conv2d(35, 35, kernel_size=(3, 3), stride=(1, 1))
      )
    )
    (12): Rnet(
      (relu): ReLU(inplace=True)
      (resm1): Sequential(
        (0): Conv2d(35, 35, kernel_size=(3, 3), stride=(1, 1), padding=(1, 1), padding_mode=reflect)
        (1): ReLU(inplace=True)
        (2): ReflectionPad2d((1, 1, 1, 1))
        (3): Conv2d(35, 35, kernel_size=(3, 3), stride=(1, 1))
      )
      (resm2): Sequential(
        (0): Conv2d(35, 35, kernel_size=(3, 3), stride=(1, 1), padding=(1, 1), padding_mode=reflect)
        (1): ReLU(inplace=True)
        (2): ReflectionPad2d((1, 1, 1, 1))
        (3): Conv2d(35, 35, kernel_size=(3, 3), stride=(1, 1))
      )
      (resm3): Sequential(
        (0): Conv2d(35, 35, kernel_size=(3, 3), stride=(1, 1), padding=(1, 1), padding_mode=reflect)
        (1): ReLU(inplace=True)
        (2): ReflectionPad2d((1, 1, 1, 1))
        (3): Conv2d(35, 35, kernel_size=(3, 3), stride=(1, 1))
      )
      (resm4): Sequential(
        (0): Conv2d(35, 35, kernel_size=(3, 3), stride=(1, 1), padding=(1, 1), padding_mode=reflect)
        (1): ReLU(inplace=True)
        (2): ReflectionPad2d((1, 1, 1, 1))
        (3): Conv2d(35, 35, kernel_size=(3, 3), stride=(1, 1))
      )
    )
  )
  (conv_l): Conv2d(1, 29, kernel_size=(3, 3), stride=(1, 1), padding=(1, 1), padding_mode=reflect)
  (conv_r): Conv2d(3, 32, kernel_size=(3, 3), stride=(1, 1), padding=(1, 1), padding_mode=reflect)
)
Mainnet(
  (renet): Renet(
    (relu): ReLU(inplace=True)
    (res1): Sequential(
      (0): Conv2d(4, 32, kernel_size=(3, 3), stride=(1, 1), padding=(1, 1), padding_mode=reflect)
      (1): ReLU()
      (2): Conv2d(32, 4, kernel_size=(3, 3), stride=(1, 1), padding=(1, 1), padding_mode=reflect)
    )
    (res2): Sequential(
      (0): Conv2d(4, 32, kernel_size=(3, 3), stride=(1, 1), padding=(1, 1), padding_mode=reflect)
      (1): ReLU()
      (2): Conv2d(32, 4, kernel_size=(3, 3), stride=(1, 1), padding=(1, 1), padding_mode=reflect)
    )
    (res3): Sequential(
      (0): Conv2d(4, 32, kernel_size=(3, 3), stride=(1, 1), padding=(1, 1), padding_mode=reflect)
      (1): ReLU()
      (2): Conv2d(32, 4, kernel_size=(3, 3), stride=(1, 1), padding=(1, 1), padding_mode=reflect)
    )
    (res4): Sequential(
      (0): Conv2d(4, 32, kernel_size=(3, 3), stride=(1, 1), padding=(1, 1), padding_mode=reflect)
      (1): ReLU()
      (2): Conv2d(32, 4, kernel_size=(3, 3), stride=(1, 1), padding=(1, 1), padding_mode=reflect)
    )
  )
  (lenet): Lenet(
    (relu): ReLU(inplace=True)
    (res1): Sequential(
      (0): Conv2d(1, 32, kernel_size=(3, 3), stride=(1, 1), padding=(1, 1), padding_mode=reflect)
      (1): ReLU(inplace=True)
      (2): Conv2d(32, 1, kernel_size=(3, 3), stride=(1, 1), padding=(1, 1), padding_mode=reflect)
    )
    (res2): Sequential(
      (0): Conv2d(1, 32, kernel_size=(3, 3), stride=(1, 1), padding=(1, 1), padding_mode=reflect)
      (1): ReLU(inplace=True)
      (2): Conv2d(32, 1, kernel_size=(3, 3), stride=(1, 1), padding=(1, 1), padding_mode=reflect)
    )
    (scale): Sequential(
      (0): Linear(in_features=1, out_features=100, bias=True)
      (1): ReLU(inplace=True)
      (2): Linear(in_features=100, out_features=1, bias=True)
      (3): Sigmoid()
    )
  )
  (scale): Scale(
    (conv1): Sequential(
      (0): Conv2d(3, 64, kernel_size=(3, 3), stride=(1, 1), padding=(1, 1), padding_mode=reflect)
      (1): LeakyReLU(negative_slope=0.01, inplace=True)
      (2): Conv2d(64, 1, kernel_size=(1, 1), stride=(1, 1), padding_mode=reflect)
      (3): Sigmoid()
    )
  )
)
[Epoch 2]	Learning rate: 1.00e-5
[Epoch 2]	Learning rate of rec: 1.00e-3
[900/18000]	[VGG22: 0.0021]	25.9+0.3s
[1800/18000]	[VGG22: 0.0016]	25.6+0.3s
[2700/18000]	[VGG22: 0.0014]	25.7+0.3s
[3600/18000]	[VGG22: 0.0013]	25.7+0.3s
[4500/18000]	[VGG22: 0.0012]	25.8+0.3s
[5400/18000]	[VGG22: 0.0011]	25.8+0.3s
…
